KWS/Keyword-MLP/checkpoints/issai_nano.onnx (onnx, 179020 bytes, 36 tensors)

to_patch_embed.1.bias f4 [16]
000000 56 7b 6e be 27 71 8b bd 44 e8 6e 3c f9 5d 77 be
       -0.23289236 -0.068086915 0.014581744 -0.24156941
000010 f8 5f 7d 3d 96 54 bb 3c b6 2a 44 3d ac 70 cb 3d
       0.0618591 0.022867482 0.047892295 0.099336
000020 4e 46 91 3d 25 45 a3 bd ed 16 9b 3d c9 e5 8c 3d
       0.07093488 -0.07972173 0.07572732 0.068797655
000030 c3 7a 60 3d dc 03 fd bd 44 d2 fc bd 44 6c 12 be
       0.054804575 -0.12354252 -0.123447925 -0.14299113

layers.0.fn.norm.weight f4 [16]
000000 35 5a ae 3e 51 40 f1 3e 41 ac c6 3e 08 2a ab 3e
       0.34053198 0.47119382 0.38803294 0.33430505
000010 8f c3 82 3f f6 95 0e 3f f1 17 9a 3e fd ea 90 3e
       1.021593 0.5569757 0.3009639 0.28304282
000020 be 72 a8 3e bc 7a fa 3e 16 6f 0b 3f 96 9d ca 3e
       0.3290004 0.48921764 0.5446638 0.39573354
000030 5b 33 49 3e d2 56 16 3e e9 db 22 3e 3a 96 eb 3e
       0.19648497 0.14681557 0.15904202 0.4601305

layers.0.fn.norm.bias f4 [16]
000000 fa 2c c7 ba f8 cd bf 3d 42 83 21 3d 20 c4 4a be
       -0.0015195899 0.09365457 0.039431818 -0.19801378
000010 0d f2 83 3d 95 17 ae bd 70 96 7a bd 48 ee a8 3d
       0.06442652 -0.08500592 -0.061178625 0.082485735
000020 2f 89 ea 3d 28 96 85 be 06 f3 0c bd 50 b1 ac 3d
       0.11451947 -0.26091123 -0.034411453 0.08432257
000030 68 0b 10 be 93 2c dd 3d 1f bf dc bd dd 0d ea bc
       -0.14066851 0.107995175 -0.10778641 -0.028571064

layers.0.fn.fn.proj_in.0.bias f4 [64]
000000 1b a2 6d bb 76 bc 05 3d 37 6e 43 bd 13 1d d6 bc
       -0.0036259952 0.032650433 -0.04771253 -0.02613691
000010 62 7a a3 bc c2 33 37 be de 28 95 bc fa bf b5 bd
       -0.019955818 -0.17890838 -0.018207964 -0.08874507
000020 c6 00 a9 bd 5e 62 76 3c d4 e4 17 3e 5e 36 bd 3d
       -0.08252101 0.015038101 0.14833385 0.09238885
000030 ae 7d 18 be 7c f3 dd bd 33 51 19 3e 8e ec 46 3e
       -0.14891693 -0.108374566 0.14972381 0.19426176
000040 fd e3 ad 3d 1d c6 27 3e d8 93 b1 bc 3d 16 99 bd
       0.08490751 0.16384168 -0.021676943 -0.07474945
000050 83 5e c4 3c 19 01 6b be 6b 1c 42 3e 58 a8 ae 3d
       0.023970848 -0.22949637 0.18956153 0.08528203
000060 ae 91 2f 3e 5f c4 15 bd 82 03 82 bd 53 dd 63 3d
       0.17145416 -0.036564227 -0.06348325 0.055630993
000070 5f ca 62 3d 90 28 16 3e c7 93 72 bb 27 d4 30 3e
       0.055368777 0.14663911 -0.0037014352 0.1726843
000080 0e bc 88 bd da 0d 99 bc 03 9b 68 3c b6 69 c0 bd
       -0.066764936 -0.018683363 0.014197114 -0.09395163
000090 e4 5d 9f 3e 85 fb be 3d 70 a4 01 3d 29 74 f8 bd
       0.3112632 0.09325317 0.03165096 -0.12131531
0000a0 8a 6f c9 3c 1e 3d d1 bd 19 58 e7 bc 90 af 78 3b
       0.024589319 -0.10216735 -0.02824025 0.003794644
0000b0 51 e0 00 3d 48 ef 77 bd 85 3d f3 3b 55 60 17 bc
       0.031463925 -0.06053093 0.007423105 -0.009239276
0000c0 e5 ed f2 3c dd c0 e4 bd 3a 92 4c bd 7e 9e 98 bd
       0.029654453 -0.11169598 -0.04994414 -0.07452105
0000d0 e9 87 58 3e 4e 98 65 3d 64 7d ea bc 0d 2a 5f bd
       0.21145596 0.056053452 -0.028624244 -0.054483462
0000e0 3d 76 2b 3c 70 8e 21 bd 54 9c 5a 3d 6b 30 31 bc
       0.010465202 -0.03944248 0.053371742 -0.010814766
0000f0 2a d3 8d 3c 03 fa b9 3c 8d 8b d7 bd 81 e0 b0 bd
       0.017312605 0.022702223 -0.10524664 -0.08636571

layers.0.fn.fn.sgu.norm.weight f4 [32]
000000 a8 3d 56 3e 79 55 cb 3d 2c 85 22 3e bc 2e db 3d
       0.20921957 0.09928412 0.15871114 0.10702273
000010 58 8b 90 3d 0f 0e 90 3e 41 1b 0f 3e d8 4e b2 3d
       0.07057828 0.28135726 0.1397524 0.087064445
000020 7d ca e9 3d 19 46 2f 3e 1e 86 7a 3e 08 1d 69 3e
       0.11415575 0.17116584 0.24465224 0.22764981
000030 b1 57 3e 3e 91 b9 1e 3e 51 eb 5f 3e 02 0d 80 3e
       0.18588139 0.15500475 0.2186711 0.25009924
000040 dd e6 87 3e 81 bb 07 3e 42 fe 39 3e cc 7e 3d 3e
       0.26543322 0.13255121 0.18163398 0.185054
000050 20 d9 c8 bc 0b 0e 66 3e 51 97 85 3e b4 10 37 3e
       -0.024517596 0.22466294 0.26092008 0.17877465
000060 c9 6b 81 3e ea 22 27 3e d3 44 c0 3d ea 20 83 3e
       0.25277546 0.16321912 0.09388127 0.2561105
000070 ef d9 bf 3d 35 a7 71 3e d6 46 01 3e 53 89 71 3e
       0.093677394 0.2359894 0.12624678 0.23587541

layers.0.fn.fn.sgu.norm.bias f4 [32]
000000 82 03 25 3d b0 8a 16 bd 0f b7 cd 3a 28 bd 01 3c
       0.04028655 -0.036753356 0.0015694815 0.0079186335
000010 a0 10 71 3d 60 18 a3 3b c1 03 bf bd 28 16 a6 3d
       0.058853745 0.004977271 -0.09326888 0.08109695
000020 2d b0 78 bc 2f 76 3b 3d d1 24 01 3e 24 7d 1e 3c
       -0.015178722 0.045767006 0.126117 0.009673391
000030 67 ee 86 3d 1f 1d bd 3d 07 be 79 3d 94 b3 88 3b
       0.065884404 0.0923407 0.06097224 0.004171798
000040 ca 6f 73 3c 10 69 24 bc fe 20 40 bd db ab bb 3d
       0.014858196 -0.0100348145 -0.046906464 0.09163638
000050 fd f8 b3 3c ce 2c b2 3d 64 09 b5 3c 8b 53 b3 3d
       0.021969313 0.08699952 0.022099204 0.08756169
000060 f7 08 82 3d 45 10 8a 3d 06 52 e1 bc 21 82 04 bd
       0.06349366 0.067413844 -0.027504932 -0.032350663
000070 d5 6b 46 bd ed 2f 31 3d 5b 55 f1 3d 0d 15 56 3d
       -0.04844268 0.043258596 0.117838584 0.05226617

layers.0.fn.fn.sgu.proj.weight f4 [98, 98, 1]
000000 ca 6f 3a 3d af 6f 34 3d 2c 19 f7 3c 11 1f 60 bd
       0.045516767 0.044051822 0.03016337 -0.054717127
000010 5e 78 c1 bb 17 30 61 bc e1 32 84 3c 06 be 33 3c
       -0.0059042415 -0.013744376 0.016137542 0.010970598
000020 d2 90 04 3d ae d5 b1 3d e4 80 0a 3e 7b 00 b4 3d
       0.032364674 0.08683334 0.1352573 0.08789154
000030 a0 aa b0 3c 2d d4 bc 3c f5 29 57 3d 6c 87 de 3c
       0.021565735 0.023050392 0.052530248 0.027164184
000040 dc 99 ca bd c4 2d bd bd b8 4e 3c bd d9 de b0 bd
       -0.098926276 -0.09237245 -0.04597351 -0.08636255
000050 17 2b 09 bd f2 34 37 3d 98 83 fd 3c 3f 66 91 3d
       -0.03348836 0.044728227 0.030946538 0.0709958
000060 cb 5a a8 3d ac b4 89 3d 7d 48 b1 3d cb ef fb 3d
       0.082204424 0.067239136 0.08656404 0.12301596
000070 35 27 84 3d 40 c3 53 3d 10 cd 8f bc 3a 69 1f 3d
       0.06452791 0.051699877 -0.017553836 0.03891871
000080 cb b5 39 3c 3d f3 62 3d 0c d2 80 3d 96 14 e3 3a
       0.011334847 0.05540775 0.06290063 0.0017324861
000090 68 fa 87 bd c1 fe e4 bc ba e3 20 bd d4 5c 66 bd
       -0.06639558 -0.027953507 -0.039279677 -0.05624087
0000a0 52 f5 3b 3d d7 18 c8 bc 45 98 88 bc 63 73 99 3d
       0.045888253 -0.024425907 -0.01667417 0.074927114
0000b0 9e 4e 4c 3d 7b 06 e9 3c 09 e0 2d 3b 8e 01 37 3c
       0.049879663 0.028445473 0.002653124 0.011169804
0000c0 7f 8d b2 3c 2b 85 b0 3b 98 7b f6 bc 9f 10 cf bb
       0.021795986 0.0053869686 -0.030088231 -0.00631912
0000d0 3c 5f 99 3d 45 41 8f 3c 4e ea f8 bb 71 ba ea bc
       0.07488868 0.017487178 -0.0075962907 -0.028653355
0000e0 3f 5c 3e bd 40 f9 b4 3c 7a de 08 3b a6 2a 9a 3d
       -0.04647469 0.022091508 0.002088456 0.07527666
0000f0 bb 68 3e 3b 1c ab ef bc 95 82 d0 bc 18 d5 61 bc
       0.0029054123 -0.029256396 -0.025452891 -0.013783716
000100 df ed 82 bd 65 5c 9c bd 6c 7e 88 bc b8 a5 9d bd
       -0.063930266 -0.0763481 -0.016661845 -0.07697624
000110 48 60 8b bd 8d 3d 45 bc ae 7a c9 bc c7 41 53 3c
       -0.068054736 -0.012038601 -0.024594631 0.0128941005
000120 5d e2 36 3d 6d 42 61 3d d5 b1 38 3d 26 1f b0 3c
       0.04464947 0.05499499 0.04509147 0.021499228
000130 3d b0 40 3c 11 a5 34 bb ee c2 2c 3d 85 e3 16 3d
       0.0117607685 -0.0027564208 0.042178087 0.036838073
000140 37 fb f1 bc d8 d6 3e bd 0c 1f f4 bc 15 e1 a1 3c
       -0.029538734 -0.04659161 -0.02979996 0.019760648
000150 a9 cc 38 3c 19 32 2f 3c 8c 46 6f 3b 78 c0 f2 3b
       0.0112792635 0.010693097 0.0036510555 0.007408198
000160 f4 5d 18 bc 1c f5 0a 3d 34 03 28 3d bd bb 38 3d
       -0.009299744 0.03392516 0.04101868 0.045100916
000170 8b cd 5e 3d f0 bc c1 bc 7a 43 2a 3d 66 c0 79 3d
       0.05439524 -0.023649663 0.041568257 0.0609745
000180 39 81 88 3d 85 be b2 3d 83 0b 0a 3e 4a 01 ff 3d
       0.06665272 0.08727745 0.13480954 0.12451418
000190 cb 08 b7 3c d7 5a f4 bd 81 40 ba bd df da 7c bd
       0.02234306 -0.11931389 -0.090943344 -0.06173217
0001a0 df bd 59 3c 1a 36 c3 bc 7d ac c5 3c e2 22 b2 bb
       0.013289898 -0.023829509 0.0241301 -0.0054362873
0001b0 7d 7c f2 bc 07 c2 89 bd 3e 08 a3 bc 5f b2 aa 3b
       -0.029600376 -0.06726461 -0.019901391 0.005209252
0001c0 2c 3c 98 bc 35 97 d1 bc 8c 95 38 bc a2 9e 34 bc
       -0.01858338 -0.025584796 -0.0112661235 -0.011024149
0001d0 e8 e0 3a bc 9d 29 e4 ba 5c ac db bc 7a e5 3b bd
       -0.011406161 -0.0017407421 -0.026815586 -0.045873143
0001e0 74 e6 dd bd c7 cd 38 bc 64 e7 13 3d a1 9a f6 3c
       -0.10834971 -0.01127953 0.036109343 0.03010303
0001f0 ac 88 9d 3d 0e 88 37 3d 35 0e d3 bb 21 9b c5 3c
       0.07692084 0.044807486 -0.0064409026 0.024121823
000200 fb 36 1a 3c 7b e2 be 3c 51 3a 1f 3d 3d db 00 3e
       0.009412522 0.023301354 0.038873974 0.12583633
000210 56 fd eb 3d 4f 68 a7 3d 35 29 c2 bb 2c 6c 00 3c
       0.11522929 0.08174192 -0.0059253224 0.00783829
000220 c8 01 ee bc b9 c5 ab bc 9b dc 42 3c 59 8c 83 bc
       -0.029053584 -0.020968305 0.011893417 -0.016058134
000230 82 38 e1 bc ec 74 d7 3c ea 98 13 3d 82 c4 73 bc
       -0.027492765 0.02630087 0.036034502 -0.014878394
000240 3e 48 29 3d 24 79 86 3d b5 6b df 3d e7 d1 0f 3e
       0.04132866 0.065660745 0.10909215 0.14044915
000250 dc ed bf 3d e6 0f 07 3d 68 a6 d3 3d 7c 7d 9f 3d
       0.0937154 0.032974146 0.10334474 0.07787606
000260 4b bc 80 3d 19 14 65 3d 4f e8 fa bc e9 12 b6 3c
       0.06285914 0.05592737 -0.030628351 0.022225814
000270 7b 2c 9a 3c d5 c4 7a 3d 98 24 4f 3d f5 35 8d 3c
       0.018820038 0.06122287 0.050572008 0.017237643
000280 d4 e1 b5 bc c7 d9 ce bc 55 0e 4f bd 53 5f 4d bd
       -0.02220241 -0.025250329 -0.050550777 -0.050139736
000290 e4 19 ce 3c 77 da 60 bd 69 cc 19 bd 79 75 cc 3c
       0.02515883 -0.054895844 -0.037548456 0.02495836
0002a0 52 6c 8f 3d cb 61 a4 3d e0 42 c4 3d f8 12 08 3d
       0.07003082 0.08026465 0.09583068 0.033221215
0002b0 98 19 1f 3d 34 c6 bc 3d d5 02 2a 3d fe 1d c3 3d
       0.038842767 0.09217492 0.041506607 0.09527205
0002c0 71 b5 1b 3e 18 bf eb 3d 63 fe 83 3d 13 e7 a5 3d
       0.15205933 0.115110576 0.06445005 0.081007145
0002d0 f7 06 78 3d 93 e8 9c 3d c3 a1 d7 3c 3d c8 26 3d
       0.060553517 0.076615475 0.026322251 0.040718306
0002e0 ce 1a a3 bc e0 1e b2 3d e8 d8 a5 3d 50 db bb 3d
       -0.019910242 0.08697295 0.08098012 0.0917269
0002f0 11 27 e2 3d 4d 73 0e 3e 16 74 25 3e 1e 30 bd 3d
       0.110426076 0.13911171 0.16157565 0.09237693
000300 88 1a ec 3d b6 73 02 3e 16 81 15 3e 2e 6c 0d 3e
       0.11528498 0.12739453 0.14600024 0.13810799
000310 10 e6 bd 3d 70 61 ae 3d a1 8d 07 3e e1 f0 36 3d
       0.092723966 0.085146785 0.13237621 0.044663314
000320 95 58 b2 bd 3b c1 a6 bc b8 97 51 3b c3 2e cd bb
       -0.08708302 -0.020355811 0.00319813 -0.006261678
000330 0b 48 49 3c 69 63 04 bd c1 3a 17 bd 76 4a ad bd
       0.012285243 -0.032321367 -0.036921266 -0.08461468
000340 a9 71 93 bd 2b f3 84 bd 0e ce 82 bd 91 1d 6d bd
       -0.07199413 -0.06491693 -0.06386958 -0.057889525
000350 50 c4 b8 bc 33 eb 58 3c 83 38 ac bc 0e 1b de bd
       -0.022554547 0.01323967 -0.02102304 -0.10845004
000360 02 ba 87 bd dd 32 ff bb 57 eb 28 bd ba 29 54 3b
       -0.06627275 -0.007788046 -0.041240063 0.0032373504
000370 32 72 35 3c bd 41 06 3d 7f 70 be 3d e3 c4 00 3d
       0.01107459 0.032777537 0.09298801 0.031437766
000380 bc cf bc bc 6d 8c 9b bc 01 3e 0d 3d 23 5a 6e 3d
       -0.023048274 -0.018987859 0.03448296 0.05819143
000390 f7 b2 4d 3d 95 ca e9 3d 08 ff cb 3d c5 cf 57 3d
       0.050219502 0.114155926 0.09960753 0.05268838
0003a0 e8 31 93 bc 08 c4 42 3d 9c f2 cc 3c e5 56 dc bb
       -0.017968133 0.04755023 0.025018029 -0.006724226
0003b0 7c 18 d0 3c 73 98 e7 3c ef a2 2f 3d 46 9c 77 3c
       0.0254023 0.028270936 0.042879995 0.015112942
0003c0 e8 36 2d bc ba 45 ae bd e1 ba 84 bc f4 5f 86 bd
       -0.010572173 -0.08509393 -0.016202392 -0.0656127
0003d0 6a 25 7c bd e1 38 0c bd 22 74 b3 bc c7 71 5c bd
       -0.06155912 -0.03423393 -0.021905962 -0.053819444
0003e0 20 ef d4 bc 35 02 4e bc ef b4 2d bc 33 d1 0b 3d
       -0.02599293 -0.012573768 -0.01060222 0.034135055
0003f0 e9 38 8a bd c7 ca 0a bd 6b 71 fc ba d9 6d 7d 3c
       -0.06749136 -0.03388479 -0.0019259875 0.015468084

layers.0.fn.fn.sgu.proj.bias f4 [98]
000000 5a 4c cc bd 9b 59 37 bd 84 0d 9d 3d c5 73 97 3d
       -0.099755004 -0.04476319 0.076685935 0.07395128
000010 fb 53 db 3d ed 4e ee 3d 27 d2 80 3d 0c a6 b2 3c
       0.107093774 0.11636148 0.062900834 0.021807693
000020 93 bc 32 3e e6 2e 1d 3e 48 8c 2e 3e 62 38 89 bd
       0.17454748 0.15349922 0.170457 -0.06700207
000030 2a 1a 67 3e 2b c7 1d 3e 4d 0b 63 3e 4e a6 88 bd
       0.22568575 0.15408008 0.2217228 -0.06672345
000040 56 16 62 3e 95 93 c2 bc a2 23 47 3e b7 c6 5e 3d
       0.22078833 -0.023752013 0.19447187 0.054388728
000050 d0 0a d7 3d c0 11 9f 3d 33 85 8f 3d be 8a 5d 3c
       0.10500109 0.077670574 0.070078276 0.013521848
000060 ec 8d 37 3e 85 7d 01 3c 5d 98 3a 3d 98 d7 78 3d
       0.17925233 0.007903461 0.04555546 0.06075248
000070 39 9a 2b bc b8 8a c2 3d fc 17 9e 3d 4a d6 18 3e
       -0.010473781 0.09499115 0.077194184 0.14925495
000080 f7 d9 dd 3d 61 9e 45 bc 46 b5 9f 3d 45 9c 0b 3d
       0.10832589 -0.012061686 0.07798247 0.034084577
000090 02 cc 20 3d 95 6c 48 3d fd 5a c5 3d 9b 85 49 3d
       0.039257057 0.048931677 0.09636495 0.04919968
0000a0 7f 2a 94 3d 41 83 c4 3d 84 7a 9b 3d 7e 43 88 3d
       0.07234668 0.09595347 0.075917274 0.06653498
0000b0 58 d8 1e 3d b6 3f 8e 3d 00 a3 c1 3c 3a f6 dc 3d
       0.03878054 0.06945746 0.023637295 0.107891515
0000c0 5a 24 94 3d 8c 90 81 bb 37 5e 53 3d b8 0d 87 3d
       0.07233496 -0.003953999 0.051603522 0.065944135
0000d0 58 ed a4 3d b0 c3 87 3d 50 9d 70 3d 07 98 3f 3d
       0.08053082 0.06629121 0.058743775 0.046775844
0000e0 26 05 83 3d 1e ec 21 3d d2 4a b6 3c f3 6d 8d 3d
       0.06397466 0.03953182 0.022252474 0.06905737
0000f0 64 2c 12 3d 1d 04 15 3d b0 a9 0e 3d 39 70 62 3d
       0.035686865 0.036380876 0.034829795 0.055282805
000100 4e 0c 23 3d d4 05 f5 3c ed cc 50 3d 36 89 30 bd
       0.039806657 0.029910006 0.050976682 -0.043099605
000110 77 c7 c8 bb ee a2 4a 3d 3f f0 42 3d e6 3c fc 3c
       -0.0061272937 0.049471788 0.047592398 0.030790757
000120 36 79 44 3d 71 5b 1d 3b f1 09 89 3c 21 8b be 3d
       0.04796716 0.0024010802 0.016728373 0.093038805
000130 2f 48 f7 3d 72 43 79 3d b1 97 c5 39 a0 27 a5 3c
       0.12074315 0.060855336 0.00037687787 0.020160496
000140 f2 a5 49 3d 8b 74 14 3d d3 9b 4e 3d 58 a7 6c 3d
       0.049230523 0.036243957 0.050441574 0.05777678
000150 56 5a 80 3d f8 aa a3 3d 12 03 75 3d 1d db 2d 3c
       0.0626723 0.07991594 0.05981738 0.010611323
000160 5c 29 95 3d 29 38 4d 3d 41 31 b4 3c a0 06 5a 3d
       0.07283279 0.050102387 0.021996142 0.053228974
000170 be e2 67 3d 85 00 60 3d 0e 9f a7 3c 37 50 fc 3d
       0.056612723 0.054687995 0.020461585 0.12319987
000180 35 a0 98 3d ce 86 ab 3d
       0.07452432 0.08375321

layers.0.fn.fn.proj_out.bias f4 [16]
000000 d2 0a d0 bc c8 13 1b 3a 36 5f fd ba 2d 88 dd bc
       -0.025395785 0.00059157284 -0.0019330743 -0.027042473
000010 63 4e 15 3c 2d fd 88 bc 39 44 cf bb e5 1f 0b 3b
       0.009112927 -0.016722286 -0.0063252714 0.0021228727
000020 25 40 59 3c aa b8 5f bc 88 88 d6 bb 1b 4c 20 3b
       0.013259922 -0.013654867 -0.0065470375 0.0024459425
000030 11 32 b4 bc 42 5e 6c bc 0b b6 94 bc 5c 83 a1 ba
       -0.02199653 -0.01442677 -0.018153211 -0.0012322473

layers.1.fn.norm.weight f4 [16]
000000 e1 f1 13 3f fe d9 ad 3e ff d7 4d 3e 6f c2 cc 3e
       0.5779095 0.33955377 0.20101927 0.3999209
000010 41 20 94 3f 1d 2b 32 3f 21 fb 92 3e 80 96 66 3e
       1.1572343 0.69597036 0.2870722 0.22518349
000020 cf 8e 63 3e 72 18 cb 3e 10 fe 3b 3f 97 83 ae 3e
       0.22222446 0.39667088 0.73434544 0.3408477
000030 bc f3 94 3e df cc 1e 3e e3 c0 88 3e a4 03 ed 3e
       0.29092205 0.1550784 0.2670966 0.4629184

layers.1.fn.norm.bias f4 [16]
000000 d4 d7 0b 3e 39 d4 f3 3d 3c 90 74 3c 45 4e 57 3a
       0.1365655 0.11905713 0.014926966 0.0008213262
000010 f8 c2 b0 bc e7 d0 15 3e ce 6e c5 3d 09 c7 5e 3e
       -0.021577343 0.14630471 0.09640275 0.21755613
000020 1b 08 38 3e 1e 29 a3 be 58 70 9e bd da 5c 31 3e
       0.17971842 -0.31867307 -0.077362716 0.17320576
000030 34 66 c5 3c d5 48 15 3e 9c 70 88 bb 58 96 6a bc
       0.024096586 0.14578564 -0.0041638147 -0.014318071

layers.1.fn.fn.proj_in.0.bias f4 [64]
000000 33 83 93 3e 6e 9c 9e 3d a5 47 49 3e ae 4c 4f bd
       0.28811035 0.0774468 0.19656236 -0.050610237
000010 da 31 79 3d fa 5b c7 bb c8 bf 07 be f6 10 d5 3d
       0.060838558 -0.0060839625 -0.13256752 0.10403626
000020 27 ee 3b bd 49 d7 8c bd 7d 31 dc bd f4 52 c8 3a
       -0.045881417 -0.06877 -0.10751627 0.0015283511
000030 4f 52 c0 bd 5f 7f 83 3d b4 bb c8 3d 2f e4 c7 3b
       -0.09390699 0.064207785 0.098014265 0.0061001997
000040 43 44 ca 3d 44 03 a0 bc 06 f2 0e bd 96 e8 59 ba
       0.09876301 -0.019532807 -0.03489878 -0.0008312551
000050 9b 0c 04 3d c1 b7 26 3e f8 9e b2 3c c7 e3 d2 bd
       0.032238584 0.16281034 0.021804318 -0.10297351
000060 53 0c a8 3c b8 fd b3 3d 3f ac 7d bd 04 e2 e6 3d
       0.02051369 0.087886274 -0.061931845 0.11273578
000070 e8 de 8a bc df 95 48 bd e7 28 b2 bd db de 07 3d
       -0.016951993 -0.048971053 -0.08699208 0.033171516
000080 43 2d 82 bb e7 af 82 3c ca a0 a8 3c 6b a7 9f 3d
       -0.003972681 0.015953017 0.020584483 0.07795604
000090 51 2e a0 bc 00 ea b0 be 9e eb 63 bd 4c 83 b3 bd
       -0.019553335 -0.34553528 -0.055644624 -0.08765277
0000a0 b2 58 20 3e 8c db b2 3e 42 a1 79 3e 0e ec e0 bd
       0.15658835 0.34933126 0.24377921 -0.10982524
0000b0 59 ac 0d bb 59 2b 3a bd d2 62 c2 bc a1 3f 92 3e
       -0.002161762 -0.045451496 -0.023728762 0.2856417
0000c0 f0 a5 7e bd 90 cc 96 be c4 4e ae bd ae 72 e4 bc
       -0.06216997 -0.29452944 -0.08511117 -0.027886715
0000d0 79 ee 9e be b4 1a 97 bc 38 e6 b1 bd 31 81 ca bd
       -0.31041315 -0.01844535 -0.08686489 -0.098879226
0000e0 b8 42 97 bd 51 26 cf bc a7 4c 3a bc 0e c9 d7 3c
       -0.073857725 -0.025286825 -0.011370814 0.026340988
0000f0 bb e5 5c be 02 14 b4 3d 89 7f da bb f4 1c 2d 3d
       -0.2157201 0.08792879 -0.0066680354 0.04226394

layers.1.fn.fn.sgu.norm.weight f4 [32]
000000 cc 51 60 3e 6b 5a 96 3e 14 5a 58 3e 62 df 5b 3e
       0.21906203 0.29365858 0.21128112 0.21471933
000010 12 7d 77 3e e3 b0 d8 3d 14 01 94 3e 6a 3b 3a 3e
       0.24168804 0.105806135 0.28907073 0.18186727
000020 f4 71 08 3b 0c e1 eb 3d 06 18 50 3e c3 8b 33 3e
       0.0020819874 0.11517534 0.20321664 0.17533784
000030 d8 fc 31 3e 58 63 63 3e 3f 29 1c 3e 42 ae 80 3d
       0.17381608 0.22205865 0.15250109 0.06283237
000040 13 84 4c 3e 5b 79 6c 3e dd 96 32 3e 01 1e 53 3e
       0.19972257 0.23093168 0.17440362 0.20616914
000050 dd 3b c3 bb c6 e5 70 3e 20 96 85 3e 8b aa 6b 3e
       -0.005958064 0.23525152 0.260911 0.23014276
000060 e2 62 65 3e 8a 5c 77 3e 31 4f 18 3e ab b5 83 3e
       0.22401002 0.24156395 0.14873959 0.2572454
000070 a6 ec 53 3e 2e 0c 7d 3e 54 63 21 3e 48 73 75 3e
       0.20695743 0.24711677 0.15760547 0.23969758

layers.1.fn.fn.sgu.norm.bias f4 [32]
000000 c0 83 84 3d 75 57 11 bd b3 a6 3d 3d 35 b9 5f 3d
       0.06470442 -0.035483796 0.046301555 0.054619987
000010 90 98 f8 bc 6f ec b1 bc 3d 12 00 bd 6b a9 d0 3c
       -0.030346185 -0.021719186 -0.031267393 0.02547141
000020 ff c7 74 bd 59 a4 c0 3d 82 0b fa bc 25 35 ed bc
       -0.059761044 0.09406347 -0.030523065 -0.028956005
000030 b7 15 de bc 90 6a 47 bd 8c fe 23 bb 12 ac 03 bd
       -0.027109964 -0.04868561 -0.0025023548 -0.03214652
000040 cd d5 81 bd a6 26 f0 bc 63 cc 9d 3d 40 81 03 3d
       -0.063396074 -0.029315304 0.07704999 0.032105684
000050 58 d7 07 3c f8 0b 40 3d d1 84 ed bc a2 82 54 3c
       0.008291088 0.046886414 -0.028993996 0.012970598
000060 01 01 b8 3c 86 3a 8e 3c 00 20 18 bd 02 14 04 bd
       0.022461416 0.01736189 -0.037139893 -0.032245643
000070 85 fb 43 3d 86 78 84 3c 23 0c 36 bc 90 bb 3b bd
       0.04784729 0.016170751 -0.011111292 -0.04583317

layers.1.fn.fn.sgu.proj.weight f4 [98, 98, 1]
000000 96 a0 f5 3d b2 50 01 3e 2d f6 bb 3a 1e 8c da bd
       0.1199352 0.12628439 0.0014340334 -0.106712565
000010 a6 2b f5 bd 57 88 a0 bd 93 21 86 bd 11 e9 1a be
       -0.11971216 -0.07838505 -0.065493725 -0.1512797
000020 06 b0 e4 bd 99 87 2e be 77 ae ca bd 21 da b9 bd
       -0.11166386 -0.17043914 -0.09896558 -0.09074808
000030 32 86 08 3b 22 67 23 bd a0 11 2d 3d 1b 47 63 3c
       0.002083194 -0.039893277 0.042253137 0.013871933
000040 9b 16 3a 3d d5 4e 66 bc 2e c7 1f 3d 32 8c 12 bc
       0.045431715 -0.014056881 0.039008312 -0.008944558
000050 a7 d6 39 3d 79 42 24 3d f6 f4 3c ba 09 37 0e bd
       0.045370724 0.040102456 -0.0007208133 -0.034720454
000060 17 aa e6 bc e6 79 25 bd 0a 1c 4c bc 77 fe 4b bd
       -0.028157277 -0.040399455 -0.012457857 -0.049803223
000070 8e fe 7f bd 1e f1 b4 bd 02 61 21 bd 51 8c 9f 3c
       -0.06249862 -0.08835052 -0.039399154 0.019476088
000080 21 4b 4f bb 01 d6 9c bd ba a8 2e 3d ca 00 19 bd
       -0.0031630474 -0.076580055 0.04264138 -0.037354268
000090 ea ee 3c 3d 75 45 8a 3c 60 3b c3 3c fa b6 97 bd
       0.046126284 0.016878823 0.023832023 -0.07407947
0000a0 b5 08 a0 3c 1a 13 8d 3d d8 43 eb 3c d0 02 16 3d
       0.019535402 0.06888409 0.028718874 0.036623776
0000b0 cc 7b e2 3c e1 b2 a4 3d 08 bc 50 3d b5 e2 fa 3d
       0.027646922 0.08041931 0.05096057 0.12250272
0000c0 3a 69 40 3d f9 cf 87 3d 72 c3 e5 bc 4f 8a 1c bd
       0.046975352 0.066314645 -0.028047297 -0.03821784
0000d0 7c 37 87 ba e1 86 2c 3d 44 b0 c4 3c fc 7b a1 3c
       -0.0010316218 0.042120818 0.024009831 0.01971244
0000e0 0b e9 0f 3c fe 5e 78 bc be 56 ae bd 55 28 a6 bc
       0.008783589 -0.015159367 -0.085126385 -0.020282904
0000f0 52 ed 35 bd 03 46 9b bd 32 38 bd 3c 32 34 b6 3d
       -0.04441578 -0.07581713 0.023098085 0.08896674
000100 cd bd 89 bb a7 88 a3 bb dc c3 21 3d c8 c5 f1 3c
       -0.004203534 -0.0049906555 0.039493427 0.029513255
000110 73 bd 60 bc d0 23 ad 3c 2b 48 59 3c e1 ba ec bc
       -0.013717043 0.02113524 0.013261835 -0.028897705
000120 2e e5 5c bd 28 8d 7e bd 36 cb 3c bd f9 4e 9b bd
       -0.0539295 -0.062146336 -0.046092235 -0.07583422
000130 1f a0 82 bd 24 62 72 bc 9f 51 bd bd 1a b8 ec bd
       -0.06378197 -0.014793906 -0.092440836 -0.11558552
000140 97 4e c4 bb 65 12 a3 bc 9a 51 6c 3d 13 1f 4d bc
       -0.005990814 -0.019906232 0.05769501 -0.012519616
000150 4f fe 75 bd ab ae c6 bd 39 10 b3 bd 4f 33 e5 bd
       -0.06005698 -0.09701284 -0.087433286 -0.11191427
000160 1b 09 37 3d 3c 64 45 bc 18 dd 87 3d c4 85 b1 bc
       0.044686418 -0.0120478235 0.06633967 -0.02167023
000170 56 f3 5a 3c e6 38 68 3c ae a3 89 3c bb 73 2d bd
       0.01336368 0.014173722 0.016801681 -0.042346697
000180 8f e2 e3 bb 22 8e a9 bd 4c 2a 18 bd 1f 50 e4 bb
       -0.006954498 -0.08279063 -0.037149712 -0.006967559
000190 44 a7 2a 3d 93 2e 0c 3e ef 37 48 3e 9d cc 1e 3e
       0.041663423 0.13689642 0.19552587 0.15507741
0001a0 ad d5 09 3d 4d 36 d7 bc 88 78 91 bb 33 3a 26 bc
       0.033651043 -0.02627101 -0.0044394173 -0.010145712
0001b0 7c 84 ae 3d a1 73 cb 3c 31 bf a2 3d 9e 7b d3 ba
       0.08521363 0.02483541 0.07946623 -0.0016134863
0001c0 58 38 4b 3d 7f ec 16 3d c6 30 fd 3c 21 94 14 3c
       0.04961428 0.036846634 0.030907046 0.00906852
0001d0 6f 1f 91 bd 60 8b ad bd 62 78 b3 bc dc 12 40 3b
       -0.070860736 -0.08473849 -0.021907989 0.0029308116
0001e0 ac bc 02 bd 33 11 dd bc 01 bb e4 3c cc a6 46 bc
       -0.031918213 -0.02698574 0.027921202 -0.012124728
0001f0 09 7b b6 3c 27 e7 b0 3c bb b3 bc 3c 3d 37 96 bb
       0.022275465 0.021594597 0.02303492 -0.0045842216
000200 4c 3a d2 bd 24 6a 60 bd 99 4b 45 bd cc 1a 79 bd
       -0.102650255 -0.054788724 -0.0481678 -0.06081657
000210 51 60 73 bc 13 bb 2a bd 6e 44 56 bd a0 7c 2c bd
       -0.014854507 -0.041682314 -0.052311353 -0.04211104
000220 d1 7d 5d ba b7 b8 06 3d be 2b 01 bd c0 3b 5e bd
       -0.0008449229 0.032891 -0.031535856 -0.0542562
000230 38 bf bb bd 48 01 a6 bd 4b 71 e8 bd d6 a2 87 bd
       -0.091673315 -0.08105713 -0.11349734 -0.06622855
000240 09 bb 6f bd 83 c5 27 ba 7c 34 fe bc 0f ab d6 bd
       -0.05852798 -0.0006399976 -0.031030886 -0.104818456
000250 4d c7 57 bd 2f 21 0c bd af bb 2e bd e4 2e 69 bd
       -0.052680302 -0.034211334 -0.042659458 -0.056929484
000260 c6 3a 84 bd b5 6e ad bd e4 fd a4 bd 22 35 d6 bd
       -0.06456523 -0.08468381 -0.08056238 -0.10459353
000270 ca 09 b6 bd 90 07 ed 3a 2b ec a1 bd 6b b6 90 bd
       -0.08888586 0.0018083919 -0.079063736 -0.070660435
000280 23 30 8f bd 64 03 b9 bc e8 be d7 bb 75 58 6a bb
       -0.06991603 -0.022584625 -0.006584037 -0.003575829
000290 aa 95 34 bd 4c b7 be 3c 4e 68 25 bd 2c a6 4b 3d
       -0.044088043 0.023280762 -0.040382676 0.04971902
0002a0 56 a9 ad 3d 3b 8f 7a 3c 15 1d 81 3d 2a 19 3d 3d
       0.08479564 0.015292938 0.06304375 0.046166576
0002b0 b4 75 f2 3d c9 7d e7 3c 16 c2 3a 3d 32 e8 08 3d
       0.11838856 0.028258221 0.04559525 0.033424564
0002c0 2c f7 b9 bc dd 83 b2 bd 43 dd 06 3a cc 6d d0 3b
       -0.022700869 -0.08716557 0.0005144665 0.006360745
0002d0 a3 30 73 3c 3f 55 d4 bd 38 d8 c1 bd d2 cd df bd
       0.014843139 -0.10367822 -0.094650686 -0.10927929
0002e0 2f 60 00 bd 28 b3 08 bd 94 63 19 bd 77 5c 0b bd
       -0.031341728 -0.03337398 -0.03744848 -0.03402373
0002f0 45 b0 2e 3c b0 c7 74 bd dc ca 4e 3d c0 57 0e bd
       0.010662143 -0.05976075 0.05048643 -0.034751654
000300 02 b7 b4 bb ea 31 97 bd a9 90 29 bc 5c cf 50 bd
       -0.0055149803 -0.07382567 -0.010349431 -0.050979003
000310 70 2f 7d 3c c7 e4 1b 3d bf 6c d2 3d f5 9c d0 3d
       0.0154532045 0.038059976 0.10274648 0.10186187
000320 7e bf cb 3d 01 53 bf 3d ec 61 b9 3d 79 d6 1b 3e
       0.099486336 0.093420036 0.0905188 0.15218534
000330 28 cd 3e 3d 4a 31 c1 3a 6e bb f1 3c 42 34 03 be
       0.04658237 0.0014739421 0.029508319 -0.12812904
000340 3d 53 6e 3c d0 1c 94 bc 53 41 04 3c bc 2b 6d bd
       0.014546213 -0.018080145 0.008072215 -0.057903036
000350 f6 6f 3a bc 84 ae df bc 74 4f 24 bd c5 6f c0 bd
       -0.011379233 -0.027304895 -0.040114835 -0.09396318
000360 fe 2c 93 bd 9a 1a 51 bd 25 72 06 bd b9 8e 14 be
       -0.07186316 -0.05105076 -0.0328237 -0.1450757
000370 5c 09 bc 3c 89 d2 a3 bd 34 16 97 bd 93 d1 d8 bc
       0.022953682 -0.07999141 -0.07377282 -0.02646712
000380 10 d0 62 bc ea 34 f3 bc 21 ad 3b bd 51 91 bd 3c
       -0.013843551 -0.029688317 -0.045819405 0.023140581
000390 75 f9 5f bd db 23 ca bc a7 b8 f3 bc 7a 66 0d bd
       -0.05468126 -0.0246753 -0.029751135 -0.034521557
0003a0 60 88 07 be 2a 3e 9c bd f4 98 cf ba 09 f7 6c 3c
       -0.13235617 -0.07629044 -0.001583843 0.014463195
0003b0 d8 9c e7 3c 2a 27 c6 3c 82 12 53 3d be 60 c2 3c
       0.028273031 0.024188597 0.051531322 0.02372777
0003c0 6b ce d4 3c 0c 1a f1 3a 47 76 0c 3c cc 37 42 3d
       0.025977334 0.0018394603 0.008573121 0.047416493
0003d0 f4 b0 13 3d 83 65 16 bd af f6 81 3c eb f1 2f 3c
       0.036057428 -0.036717903 0.015864698 0.01073883
0003e0 93 de f9 bb a4 89 52 3d 0a e2 ce 3b 93 61 3e 3d
       -0.00762541 0.051400796 0.006313567 0.046479773
0003f0 d3 9f d8 bc a0 8a c9 3c 2a 3a f8 3c 90 56 50 3b
       -0.026443398 0.024602234 0.030301172 0.0031789877

layers.1.fn.fn.sgu.proj.bias f4 [98]
000000 45 1d 5e 3d f3 f9 91 3d 7a c9 6e 3c 7e 74 b5 3d
       0.054227132 0.07127752 0.014574403 0.0886011
000010 87 b6 a8 3d 9b 83 30 3d 9a d9 8b 3d 09 2e b9 3d
       0.08237939 0.04309426 0.068286136 0.09041984
000020 db dd 42 3d b2 ea ca 3d 57 3e 8f 3d e2 ce dc 3d
       0.04757486 0.09908046 0.06994312 0.10781647
000030 3a 63 8c 3d 02 dd 96 3d c0 27 45 3d ac 89 c0 3d
       0.068548635 0.07366373 0.04813361 0.09401259
000040 f2 6f a9 3d d5 6f 0d 3e a5 cb 1b 3d fe 36 f9 3d
       0.08273305 0.13812192 0.038036007 0.12168692
000050 4c 70 e3 3d 24 cc 11 3e 45 e5 3a 3c db 21 f5 3d
       0.11105403 0.1423803 0.011407201 0.11969348
000060 9e 1d d3 3d a2 4d 80 3d 96 97 e1 3d 66 77 04 3e
       0.103083834 0.06264807 0.11015241 0.12936172
000070 4d 49 ee 3c e2 f5 b5 3d e8 74 5a bd e4 04 0f 3e
       0.029087687 0.08884789 -0.053334147 0.1396671
000080 a5 af be 3d 4d 78 00 3d 62 40 07 3e 8c 28 47 bd
       0.09310845 0.031364728 0.13208154 -0.048622653
000090 99 78 e7 3d 5a c7 01 3e 4e ce 88 3d 61 94 e8 3d
       0.11302299 0.12673703 0.066799745 0.11356426
0000a0 f0 84 c4 3d 67 d8 01 3e fc 39 f5 3d f5 41 fa 3d
       0.09595668 0.12680207 0.1197395 0.122196116
0000b0 9a 62 2e 3d 49 6b f7 3d 21 be c6 3d 47 da e7 3d
       0.042574503 0.1208101 0.09704233 0.1132093
0000c0 93 44 f1 3d 99 8b 79 3d 01 fc b8 3d 4e e9 dc 3d
       0.117806576 0.060924146 0.09032441 0.10786687
0000d0 f0 1b e0 3d cb fb f2 3d 03 dd 10 3e 65 9b 14 3e
       0.10942829 0.11864432 0.1414681 0.14512403
0000e0 4b b7 4e 3d 81 75 fb 3d f1 02 ac 3d f3 a9 ad 3d
       0.05046777 0.122782715 0.083989985 0.08479681
0000f0 2a 15 01 3e e3 55 d9 3d 19 74 c9 3d 95 aa 2f 3e
       0.1260573 0.10612085 0.09836597 0.17154916
000100 b1 7b a8 3d 33 60 d0 3d af 71 a5 3d ae f6 71 3d
       0.08226717 0.101745985 0.08078324 0.059073143
000110 99 6f cc 3d 43 13 fe 3d 23 cd a6 3d 86 9d 02 3e
       0.09982223 0.12406018 0.081445955 0.12755403
000120 dc 79 9e 3d 7a 74 be 3d 0d 55 14 3e de 1d c6 3d
       0.077380866 0.0929956 0.1448557 0.096736655
000130 cd 63 10 3e 64 a7 ba 3d 43 b9 aa 3d 85 fa c6 3d
       0.14100571 0.091139585 0.08336117 0.097157516
000140 79 42 9d 3d 5c 27 81 3d 25 aa dc 3d 3b a2 c5 3d
       0.07678694 0.06306335 0.1077464 0.09650084
000150 f6 08 b6 3d 3b 57 8e 3d 4a 28 e1 3d f0 93 c1 3d
       0.08888428 0.06950232 0.10994013 0.09452045
000160 96 49 a2 3d 67 7f b3 3d ce b8 0d 3e 2a 4f d2 3d
       0.07924192 0.087645344 0.13840029 0.102690056
000170 d3 2c bb 3d 82 ae da 3d 84 75 a0 3d 5c bd 6f 3d
       0.09139409 0.10677816 0.07834914 0.058530197
000180 2f a0 28 3d 80 4b 74 bc
       0.041168388 -0.014910579

layers.1.fn.fn.proj_out.bias f4 [16]
000000 24 cf 87 bc a4 95 66 3b 05 54 dd 3b 3d 96 ae bc
       -0.016578265 0.0035184408 0.0067544007 -0.021311874
000010 fe b3 4a ba 43 99 be bb 99 71 0b 3a e7 ef 8e 3b
       -0.00077325094 -0.00581661 0.00053193566 0.0043620947
000020 38 5f 81 3b 98 af a1 bb 75 a9 8b bc a0 2c 17 3c
       0.0039481185 -0.0049342625 -0.017048577 0.009226948
000030 3f cf 1f bc c2 7e 3f bb 99 52 3a 3a a2 7f f3 3b
       -0.009754001 -0.002921984 0.0007107645 0.0074309865

layers.2.fn.norm.weight f4 [16]
000000 8d d1 93 3f cf 51 8e 3f 43 70 f6 3e 7c 0c 8b 3f
       1.1548325 1.1118716 0.48132524 1.0863185
000010 09 20 da 3f 0f 6d 2c 3f d8 c3 29 3f 16 ed e6 3e
       1.7041026 0.6735391 0.6631446 0.45102757
000020 69 f3 82 3e 2d d2 79 3f 3d bd 63 3f 76 e7 35 3f
       0.25576332 0.9758633 0.8896063 0.71056306
000030 74 8d 6a 3f 7c d3 68 3f b7 d1 49 3f cc 5b 21 3f
       0.9162209 0.909477 0.78835624 0.63030696

layers.2.fn.norm.bias f4 [16]
000000 f6 66 a4 be 9c 9d 67 3e 0c 90 e8 3d 60 b9 95 bb
       -0.32109803 0.22618717 0.113556 -0.0045692176
000010 2c 68 e0 bd a3 64 11 3e 44 f1 4b 3d 20 e0 6d 3e
       -0.10957369 0.14198546 0.049790636 0.23230028
000020 c8 e2 1c 3e 91 99 96 3c 73 df b7 be 43 bb 79 3e
       0.15320885 0.018383773 -0.35912666 0.24387841
000030 a4 0f ec 3d 93 d0 bd bd 67 e0 14 3e aa 4b 6b 3e
       0.11526421 -0.09268298 0.14538728 0.22978082

layers.2.fn.fn.proj_in.0.bias f4 [64]
000000 04 86 76 bd c5 c8 f0 3a d4 0c f0 bd 53 d9 40 be
       -0.0601864 0.0018370381 -0.11721197 -0.18832903
000010 7d 93 ac 3d 3e 3c 3b 3d 1c 59 52 bd 39 46 07 3d
       0.08426569 0.04571175 -0.051354513 0.033025954
000020 3f 54 37 bc e6 f8 46 3e 9e b5 87 3d ae 08 91 bd
       -0.011189519 0.19430885 0.066264376 -0.07081734
000030 c8 79 be 3c 41 1b ab bd ba 2f e8 bd 8a ed de bd
       0.02325143 -0.08354808 -0.11337228 -0.10885151
000040 f2 2a 58 bd 4e c3 99 bd cf 13 9d 3c e7 b9 96 bd
       -0.05277533 -0.075079545 0.019174485 -0.07359677
000050 56 ea 8a 3b 89 14 40 3c 29 85 15 bd 9b 29 97 bd
       0.004239361 0.011723646 -0.036503945 -0.073809825
000060 50 6e 8c bb 5e cf e2 3d 1a a0 53 3e 5e 91 cb bd
       -0.004285611 0.110747084 0.20666543 -0.09939836
000070 e3 99 c7 bd b4 06 00 bd 31 1d 26 be 28 9d b5 3d
       -0.097461484 -0.031256393 -0.16222073 0.08867866
000080 05 34 1a be 46 8c b4 bd dd 9d 32 bc cc 02 1d bd
       -0.15058906 -0.088158175 -0.010901895 -0.038332745
000090 8d fd 2d be 28 ad 58 bc 02 1c 84 bd d7 2b a3 bc
       -0.16991253 -0.013224877 -0.064506546 -0.019918365
0000a0 83 04 b1 bd 52 1c db 3a 7b 0e a3 3c 60 0e 83 bd
       -0.08643439 0.0016716814 0.019904366 -0.06399226
0000b0 0f 49 c8 3d 2f 32 dd 3d fc 8a 83 3e 47 03 09 be
       0.0977956 0.108005874 0.25691974 -0.13380156
0000c0 83 1b 5e 3d 4d 3f 05 be 92 53 be bd 40 71 54 3b
       0.054225456 -0.13012429 -0.092932835 0.0032416135
0000d0 8b a9 b0 bd 10 e5 da bc 4c 5b 89 bd 1c c0 9a 3d
       -0.08626088 -0.026720554 -0.067068666 0.07556173
0000e0 d1 ef 50 be c9 16 e5 bb 23 af 69 bb a6 57 ff bd
       -0.20403983 -0.0069912416 -0.0035657368 -0.124678895
0000f0 3d 71 ca bd 22 f0 a9 bd ef 33 c1 3e ac c0 1e 3a
       -0.0988488 -0.08297755 0.37734935 0.0006055932

layers.2.fn.fn.sgu.norm.weight f4 [32]
000000 51 a5 88 3d ac c7 39 3e 2f 7e 11 3e 6a 16 bf 3e
       0.066721566 0.18142575 0.14208291 0.37321788
000010 09 47 4d 3e 7a 19 74 3e 2d 9a 89 3e 0a dd 5c 3e
       0.20046629 0.23837844 0.2687544 0.21568695
000020 19 37 98 3e 2b ca 5c 3e 8f 42 6f 3e f3 e4 61 3d
       0.29729536 0.21561496 0.23365234 0.055149984
000030 36 0b ca 3d 96 80 4a 3d cc 83 92 3d 2a b1 98 3e
       0.098654196 0.049439035 0.071540445 0.29822665
000040 94 3a 2b 3d 3f de 92 3d 66 dd 2b 3e 61 a1 68 3e
       0.04180391 0.07171296 0.16783676 0.22717811
000050 08 09 71 3d 8d 1f 1e 3e de 28 52 3e e5 3a 62 3e
       0.058846503 0.15441723 0.20523402 0.22092779
000060 3f 65 40 3e 47 50 81 3e 13 5c 58 3e a0 4d 40 3e
       0.18788622 0.2525656 0.21128874 0.18779612
000070 00 e3 11 3e 9e b1 5c 3e 8c 51 3d 3d bc 1c 77 3e
       0.1424675 0.2155213 0.046220347 0.24132055

layers.2.fn.fn.sgu.norm.bias f4 [32]
000000 ee 74 c1 bb ef e6 41 3d ce 0b 1b bd da 3b c2 3c
       -0.0059038317 0.047339376 -0.037853055 0.02371018
000010 2e f8 c4 3d df 6c c1 3d 40 fd 64 bd 7d b1 28 bc
       0.09617649 0.09444594 -0.05590558 -0.010296223
000020 97 71 f8 bd 01 6f 62 3c 04 c5 60 bc 98 06 ff bb
       -0.121310405 0.013820411 -0.013718847 -0.0077827685
000030 b3 7c 89 3d b5 bc 86 bc ef 8a 2c 3c 0b b8 96 bd
       0.067132376 -0.016447404 0.010531171 -0.07359322
000040 10 56 11 3e 2b 8a 5a bd d4 fa 6f bc 8a bf 20 3d
       0.14192986 -0.053354423 -0.014647204 0.039245166
000050 34 21 24 3d ff 08 74 3c 04 9f cb 3c 23 a3 03 3c
       0.040070727 0.014894723 0.024856098 0.0080345
000060 f1 9b ac 3c 77 55 46 3d f4 41 a3 3c 29 e7 e3 39
       0.021070452 0.04842135 0.01992891 0.00043469042
000070 26 b0 dc 3c 54 3a 2b 3d ed 27 4d 3e 36 50 52 3d
       0.026939463 0.041803673 0.20034762 0.051346026

layers.2.fn.fn.sgu.proj.weight f4 [98, 98, 1]
000000 97 a5 4a bd 5c 92 6a bd 0a 12 0f be 20 47 51 3d
       -0.049474325 -0.057268485 -0.13971725 0.05109322
000010 c4 91 f7 3d 8a ac f7 3d f2 55 bb 3d 6d 8e b3 3d
       0.120883495 0.12093456 0.09147252 0.087674
000020 20 88 8f 3d 09 3c 06 3e 77 c4 df 3d 43 02 c7 3d
       0.07008386 0.13108839 0.109261446 0.09717228
000030 f5 41 40 3e 11 28 d7 3c fe 4b e1 3d 24 6d d9 3d
       0.1877516 0.026264222 0.110008225 0.1061652
000040 c4 3c 89 3d 61 40 8d 3b 0c ea 99 3d 52 d0 23 3e
       0.06701043 0.004310653 0.07515344 0.15997437
000050 b6 0f a3 3d 53 dc 50 3b 89 6b aa bd c9 e8 dd 3d
       0.07961981 0.0031869605 -0.08321292 0.10835416
000060 57 9c 45 bd e6 e7 ce bd ae 0d 1e 3d 7f 06 8b 3d
       -0.0482448 -0.10102825 0.038587265 0.067883484
000070 38 67 a0 bd df be dc bd 86 7f 54 bd da a2 75 bd
       -0.078321874 -0.10778593 -0.05187943 -0.05996976
000080 73 47 e2 3c ba 0e b6 bd d3 05 44 3d 43 c7 1a bd
       0.02762196 -0.088895276 0.047857117 -0.037787687
000090 21 46 98 3c 3a 68 3e 3d 0f 94 6f bd 8b cf 8d bd
       0.018588128 0.046486117 -0.05849081 -0.06924351
0000a0 a8 69 d6 3d e5 ed 17 3c 0f 71 e2 3d b7 8b 9f 3c
       0.10469371 0.009273027 0.110567205 0.0194758
0000b0 d8 46 f2 bd bc 22 56 3d db 3c 50 bc b3 71 9f 3d
       -0.118299186 0.05227922 -0.012709822 0.07785358
0000c0 3d c1 a4 bc ac f6 1e bd cf f0 4c bd 55 85 c4 39
       -0.020111674 -0.038809463 -0.05003434 0.00037483373
0000d0 4f e0 46 3d be 8c 34 3d 86 f0 17 3d e8 9b f7 bc
       0.04855376 0.044079535 0.037094615 -0.03022571
0000e0 c8 30 3a 3c e1 89 be ba 50 d2 2c 3d 2a d7 da bc
       0.011364169 -0.0014536941 0.042192757 -0.026713926
0000f0 96 80 5b bd 81 8a aa 3c 66 3d 6b 3d 2e b5 cd bd
       -0.053589426 0.020817997 0.0574316 -0.10044323
000100 19 d0 f9 bc ee 37 f4 bd 79 7c 94 bd 07 35 3d 3c
       -0.030494737 -0.1192473 -0.07250304 0.011548287
000110 d0 fb 18 3d c8 d5 87 bd 76 3b 82 3d 34 26 99 bb
       0.037349522 -0.066325724 0.063589975 -0.0046737436
000120 52 10 1b 3b ce 86 1e bd 94 3a ec bc b0 08 0f bc
       0.002366085 -0.03870278 -0.028836526 -0.008730099
000130 c0 57 06 bd fa 23 e3 ba 57 c4 8f 3d 33 65 b9 3c
       -0.03279853 -0.0017329447 0.07019871 0.022631263
000140 f0 d7 0b bd 61 16 28 bd 3e 75 e2 bb 51 29 53 3c
       -0.03414148 -0.041036967 -0.006910949 0.012888269
000150 1b 6e 6c 3d 47 5a 17 3d ca 14 35 bc 5f 4d 3c bd
       0.057722192 0.03695133 -0.01105232 -0.045972224
000160 0f ce 35 bb 71 79 eb 3d 1f b7 ae bd 31 ca 56 bc
       -0.0027741229 0.114977725 -0.08531021 -0.01310973
000170 8a 39 2b bd 0f e5 85 3c cd fd 85 3c be f3 90 bc
       -0.04180292 0.016344575 0.016356373 -0.01769435
000180 e1 45 d6 bd 0e 88 c5 3c bc f3 1a 3c af 47 25 3c
       -0.10462547 0.024112727 0.009457525 0.0100878915
000190 23 a6 f5 bb b7 6b d9 bd 28 a6 b7 bc f3 00 19 bc
       -0.0074966117 -0.10616248 -0.022418097 -0.009338605
0001a0 d1 52 14 ba 6c f2 3e bb 2d 0d 74 bb e5 32 33 3d
       -0.00056580926 -0.0029136194 -0.0037239299 0.04374971
0001b0 a0 42 78 3d 06 4b 56 3c ec 71 6f 3d 8e 9d 13 bc
       0.060610414 0.01307941 0.058458254 -0.009009732
0001c0 12 82 d2 3c 42 46 c8 3d 43 2f 2a 3c 88 e9 3f bd
       0.025696788 0.097790256 0.010387245 -0.046853572
0001d0 dd b5 54 3c 30 17 e0 3c de cc 35 bc 4a ea ac bd
       0.012982813 0.027354807 -0.011096207 -0.084431246
0001e0 bd b9 a6 3b e2 c5 84 3d 08 7d 05 bd cf d8 c7 bc
       0.0050880597 0.06483056 -0.032589942 -0.024395375
0001f0 73 3a 92 3d 4b 2f 24 bc 75 e1 6d bd 4f 60 8a bd
       0.071400546 -0.010021041 -0.05807634 -0.06756651
000200 61 ce 33 bd f1 e6 fc ba 92 a9 9d bc 93 fe d6 bc
       -0.04389799 -0.00192949 -0.019245896 -0.026244437
000210 e1 9e 03 bd 55 38 7b 3d d4 b6 8d bc 74 a0 a9 bc
       -0.03213394 0.06133302 -0.017299093 -0.020706393
000220 39 aa 30 3d 81 cd 3d bd 04 18 8a 3d 92 f8 dd bb
       0.043131087 -0.046338562 0.06742862 -0.0067740167
000230 62 af 69 3d 5e 62 28 3c 0c d2 90 bc dc 4e d6 3b
       0.057052024 0.010277359 -0.017678283 0.0065401625
000240 3c 3f 20 bb b8 3a e6 3c 87 4b 01 bd d6 d5 30 ba
       -0.0024451753 0.028104171 -0.03156617 -0.0006745731
000250 50 bc 72 bd 84 c3 99 3d 6a fe 44 bd f5 8e 9d bc
       -0.05926162 0.07507995 -0.04809419 -0.019233206
000260 96 bd 51 bd de 7d a4 bd 03 0d 05 3e d7 12 cb 3c
       -0.051206194 -0.0803182 0.12993245 0.024789257
000270 da 5e 71 3d f4 d8 0b bb 83 03 9d bd 5e e2 8b 3d
       0.058928348 -0.002133903 -0.076666854 0.068302855
000280 25 ef ab 3d 85 34 cc bd 57 8c 46 bb 25 67 af bb
       0.083952226 -0.09970955 -0.0030296051 -0.005352872
000290 30 88 63 bc a4 a0 34 bb f2 5c a2 3d e5 5f a9 bd
       -0.01388745 -0.002756157 0.07927884 -0.082702436
0002a0 1e 75 1b 3d 84 53 f5 bc 85 56 e8 bb 9a cd 61 3b
       0.03795349 -0.02994705 -0.007090392 0.0034454823
0002b0 e3 f1 dc bb 29 c7 1c 3d f0 7d a9 ba c1 e6 02 3d
       -0.0067427023 0.03827587 -0.0012931209 0.031958345
0002c0 66 75 b5 3d 80 20 81 3d 71 e3 b5 3d e4 0c 74 bd
       0.088602826 0.06305027 0.08881272 -0.059582606
0002d0 05 83 81 3d 90 ae 31 3d 49 e6 73 3d c2 c8 ff 3d
       0.06323818 0.043379366 0.05954579 0.124894634
0002e0 38 49 a3 bd e2 8a 3a bd 0b 2f 07 be 15 c6 1e 3e
       -0.0797295 -0.045542605 -0.13201539 0.1550525
0002f0 78 86 09 bd 55 e2 ee 3b 9d aa 92 bd b1 98 67 3d
       -0.033575505 0.0072901645 -0.07161448 0.056542102
000300 ac 7b e1 bd 84 63 09 3e 12 02 0b be 03 e9 fb bd
       -0.11009917 0.13416868 -0.13575009 -0.12300303
000310 36 72 1b 3d 89 26 97 3d 8f 74 15 3d db e5 4e bd
       0.037950717 0.07380397 0.036488112 -0.050512176
000320 56 e5 a1 bd 3b ce a1 bd f0 74 c6 bd 11 45 99 bd
       -0.079050705 -0.079006635 -0.09690273 -0.074838765
000330 0a 2f 81 bd 22 e7 90 bd 6a 71 ac bd 2a 7a 88 bc
       -0.063078 -0.07075335 -0.084200695 -0.016659815
000340 a4 23 06 bd 91 f2 6e bd 40 b9 c1 bd 21 5a 8b 3b
       -0.032748833 -0.058336798 -0.09459162 0.0042526876
000350 49 11 b5 bd 9e 74 26 bd 78 dc 2b bd eb ba 4a bc
       -0.088411875 -0.04063856 -0.041958302 -0.012373666
000360 f0 0c 93 bd ec e0 c4 bd 22 d8 a4 3d 16 93 c4 bc
       -0.07180202 -0.09613213 0.080490366 -0.023995917
000370 02 3c 8c bc 91 5a 11 3e 1e 80 f7 bc 5c 02 91 bd
       -0.017118458 0.14194705 -0.030212458 -0.07080528
000380 94 a3 11 3d f0 7e 22 3e c3 47 8c 3d 01 15 05 3d
       0.03555639 0.15868735 0.06849625 0.032490734
000390 6e b0 c5 bc b2 bd 19 3e 12 87 4b bd d1 1c e8 3c
       -0.02413198 0.1501377 -0.04968936 0.028334053
0003a0 88 6d c4 3c 4b e0 3b bd 7a 57 34 3d e4 02 3e 3d
       0.02397801 -0.0458682 0.044028737 0.046389475
0003b0 c2 89 d8 bc ae e4 77 3c 03 9d 1d bd c0 50 2f bd
       -0.026432876 0.015130205 -0.038479816 -0.04280162
0003c0 33 71 26 3e 66 ec bb bd 74 66 db bc 89 b5 52 bc
       0.1625412 -0.09175949 -0.026782252 -0.012860664
0003d0 d8 b9 00 bd 40 8d bd 3d 6a 5c b8 bd f0 80 fc 3c
       -0.031427234 0.09255457 -0.090020016 0.030823201
0003e0 88 e4 75 bd 51 bb 31 bc 5c fb 60 bd 6d 6b dc bc
       -0.060032398 -0.010847882 -0.054927215 -0.026906693
0003f0 fe d8 73 3b 6e c0 7f 3b e3 30 cd 3c 8d 01 cb 3d
       0.0037208195 0.003902461 0.025047725 0.09912405

layers.2.fn.fn.sgu.proj.bias f4 [98]
000000 70 d0 a1 3d d9 35 17 3e 97 cc c0 3d a9 70 cd 3d
       0.079010844 0.14766635 0.094140224 0.10031254
000010 4f c9 e2 3d dc 0e 99 3d 4e b9 8f 3d 81 7b 86 3d
       0.11073553 0.07473537 0.07017766 0.06566525
000020 f5 fc 03 3d bb 3d 21 3d b7 61 74 3d 94 33 8f 3d
       0.03222366 0.03936551 0.0596635 0.069922596
000030 9f 69 7e 3d 3d b5 4b 3d af 82 84 3d 8b 83 1e 3e
       0.062112447 0.04973339 0.064702384 0.15479867
000040 a3 b0 b9 3d a1 41 fa 3d ad 63 18 3e df 37 45 3e
       0.09066894 0.12219549 0.14881773 0.19259594
000050 6e 82 04 3e f2 a6 0c 3e ee 6c 08 3e 70 b0 19 3e
       0.1294038 0.1373556 0.13322803 0.15008712
000060 81 31 16 3e c3 44 17 3e ad f2 03 3e 2c 34 0a 3e
       0.14667322 0.14772324 0.12885542 0.13496464
000070 d5 1c 04 3e 2d 7e fd 3d 45 b1 0b 3e b0 1c 0a 3e
       0.12901624 0.12377582 0.13641842 0.13487506
000080 06 4d 01 3e ed f1 b2 3d ec e8 d7 3d 85 27 f3 3d
       0.12627038 0.0873755 0.10542473 0.11872772
000090 b5 51 e0 3d f6 3a d9 3d 87 ae d9 3d ff d0 e2 3d
       0.109530844 0.10606949 0.106289916 0.11075019
0000a0 d7 d4 9d 3d 9e 12 b6 3d 2d 41 b6 3d fa 1a d5 3d
       0.077066116 0.0889027 0.0889915 0.10405536
0000b0 93 29 d0 3d ac e8 d2 3d 9f 30 ae 3d 41 8c 9f 3d
       0.1016418 0.10298285 0.085053675 0.07790423
0000c0 7c cf 99 3d 42 61 8d 3d bb 24 ba 3d 33 54 a3 3d
       0.07510278 0.06903316 0.09089037 0.07975044
0000d0 25 d0 8a 3d 0b 25 d2 3d 7b 8e ba 3d b7 98 25 3d
       0.06777982 0.10260972 0.09109207 0.040428843
0000e0 44 a8 7a 3d 74 a7 81 3d b0 47 9b 3d f3 22 0e 3e
       0.061195627 0.06330767 0.07582033 0.1388052
0000f0 f2 fd 0c 3e 19 df c9 3d fc a6 76 3d 4c f0 ca 3d
       0.13768747 0.098570056 0.060217842 0.09909114
000100 ea a4 32 3d 31 78 ea 3d 4c 6a 59 3d 15 bd d3 3c
       0.043614306 0.11448706 0.05307989 0.025846997
000110 f1 7b 9a 3c 62 b2 fe 3d 32 46 60 3d 36 be 0a 3e
       0.018857928 0.124363676 0.054754443 0.13549122
000120 88 cf 99 3d 1f 53 a7 3d a5 4b 64 3d 99 1e 1d 3e
       0.075102866 0.08170151 0.055736203 0.15343703
000130 a3 54 1b 3e 53 49 45 3d 59 75 05 3d 9e ef 57 3d
       0.15169005 0.04816563 0.032582615 0.05271875
000140 fb 67 59 3d 74 32 a5 3d c1 75 4c 3d 11 bf 22 3e
       0.05307768 0.08066264 0.049916986 0.15893199
000150 0c 8e cb 3d 53 46 6f 3c 50 24 14 3d fa db 02 3e
       0.09939203 0.014604169 0.036167443 0.12779227
000160 51 99 c0 3d 8e 12 29 3e 6c fa a8 bc fc 1b 0f 3e
       0.09404243 0.16510984 -0.020627223 0.13975519
000170 52 2d af 3d 1c 9a 01 3d 39 49 44 3d eb 16 8f 3c
       0.08553566 0.03164111 0.047921393 0.017466983
000180 f3 10 56 3c 63 64 98 3b
       0.013065564 0.004650639

layers.2.fn.fn.proj_out.bias f4 [16]
000000 ed 9b b9 bc e1 ef 87 3a 22 23 b2 ba 70 b9 43 bc
       -0.022657359 0.0010371172 -0.0013590793 -0.011946067
000010 d2 80 26 3c 99 e5 c1 b8 23 26 ac ba ff 64 9e 3a
       0.010162549 -9.245723e-05 -0.0013133924 0.0012084543
000020 96 c4 3b ba 9a 02 01 bc 12 04 7f bc 6f a3 bb 3a
       -0.00071627775 -0.007874155 -0.015564935 0.0014315675
000030 9a 84 9c bb a2 77 c4 bb 51 ae a6 bb 3c c1 14 3c
       -0.0047765495 -0.0059957067 -0.005086698 0.009079274

to_logits.0.weight f4 [16]
000000 75 16 44 3e 17 6b 25 3e 08 be 53 3e f1 f9 2e 3e
       0.19149192 0.16154133 0.2067796 0.17087533
000010 0c 6d 6b 3f 7c 6e e9 3e 63 ed 71 3e cb 4c 31 3e
       0.9196327 0.45592105 0.23625712 0.1731445
000020 5f d1 84 3e c1 2c b8 3b be 56 d8 3d 03 6f 50 3e
       0.25940987 0.0056205695 0.1056342 0.20354848
000030 dc ee 8d 3e aa c2 fe 3d 81 7e 09 3e f7 11 1a 3d
       0.27721298 0.12439473 0.13427164 0.03761479

to_logits.0.bias f4 [16]
000000 32 c0 35 3d 02 28 25 bc 43 2e 99 bc f2 e8 03 3d
       0.044372745 -0.010080339 -0.018698817 0.032204576
000010 53 22 49 bc d1 a4 70 3b 5e f8 d3 3c 95 e4 d3 3a
       -0.01227625 0.0036719332 0.025875267 0.0016166145
000020 c7 b8 08 3c c1 3b 76 3a fa 6d 34 3d ca e9 8c 3b
       0.008344836 0.00093930593 0.044050194 0.0043003308
000030 39 8a 1e 3c a5 77 e3 3c 13 0a cb bc 54 df 52 bd
       0.00967651 0.027767012 -0.024785077 -0.051482514

to_logits.2.weight f4 [2, 16]
000000 7b e0 02 3e 53 ec 65 3d 66 32 0c 3e ca 2c c7 3d
       0.12780945 0.05613358 0.136911 0.0972534
000010 88 88 4f bf 53 84 9e 3e 8e 5e fd 3d 46 fc 6e 3d
       -0.81067705 0.3096033 0.123715505 0.058346055
000020 42 dd 12 3e cf 09 0a 3c ba 07 39 3d 4d d6 c0 3d
       0.14342216 0.00842519 0.045173384 0.09415875
000030 0a b6 19 3e fe fa 50 3d 4a 3a 4e 3d bf ff 48 bc
       0.15010849 0.051020615 0.050348558 -0.012268006
000040 c8 44 f7 bd 33 23 a3 bd 3f df d6 bd 86 da ac bd
       -0.12073666 -0.07965698 -0.104917996 -0.084401175
000050 78 8c 4f 3f e6 6f 98 be 65 29 1d be 50 00 9a bd
       0.81073713 -0.29772872 -0.15347822 -0.07519591
000060 00 20 11 be e5 00 17 3c ac bb cd bc 2c 5e c4 bd
       -0.14172363 0.009216522 -0.025113903 -0.09588274
000070 27 85 26 be 82 ba 86 bd fd d1 6c bd 99 c4 87 bc
       -0.16261731 -0.06578542 -0.057817448 -0.016573237

to_logits.2.bias f4 [2]
000000 d3 bd f8 3c 1b a7 f6 bc
       0.030363953 -0.030108979
