KWS/Keyword-MLP/checkpoints/issai_medium.onnx (onnx, 913798 bytes, 66 tensors)

to_patch_embed.1.bias f4 [64]
000000 97 d8 18 3d 8c 6e ae 3d ab 9c fa 3c 7a ae 37 3e
       0.03731593 0.08517179 0.030592283 0.17937651
000010 6c 2f 7a bd 70 a9 d5 bd 56 19 e9 bd ba 3c 3b 3e
       -0.06108038 -0.10432708 -0.113817856 0.18284884
000020 18 24 8f bd d2 42 57 be 1c 1c b4 3d ff f7 09 be
       -0.06989306 -0.21021584 0.08794424 -0.13473509
000030 db b3 0e be 6d 10 41 3e 0f 97 52 be 1f 06 1f 3e
       -0.13935797 0.18853922 -0.20565437 0.15529679
000040 c1 2e 51 be 40 ca 1d bd 6b 46 5c 3e 2b 40 6d be
       -0.20427991 -0.03852296 0.21511237 -0.2316901
000050 0f 9c 63 3d f9 5f 20 3d 36 42 6a 3c e6 66 a1 3e
       0.05556875 0.039154027 0.0142980125 0.31523818
000060 56 5c 56 3b d8 2a 86 3e 83 9b 01 bd 0b 34 43 3e
       0.0032708845 0.26204562 -0.03164245 0.19062822
000070 7b 73 b6 bd 86 fb e0 3d b9 ce ed 3d b6 e2 08 be
       -0.08908745 0.10985474 0.11611695 -0.13367733
000080 60 fb 2e be fa dc 6c 3d e9 d2 4a be 86 b5 56 3e
       -0.1708808 0.057827927 -0.19807018 0.20967683
000090 0b 57 10 3e 6a b3 3e 3e 15 d6 90 bd 71 ba 7f 3d
       0.14095704 0.18623129 -0.07072083 0.062433664
0000a0 62 ac 1c bb cc 9d 55 3d 49 6b 19 be 34 4b 09 3d
       -0.002390646 0.05215244 -0.14982332 0.033518985
0000b0 09 3e 38 3d 9d 95 4c 3c ac de a4 bd 9e 90 b4 3c
       0.044981036 0.012486842 -0.08050284 0.022041615
0000c0 8c 12 9f bd 1b cc cb 3d 95 f2 30 bd 1d ea 7b bc
       -0.077672094 0.099510394 -0.043200094 -0.015375641
0000d0 f3 1a 15 bd b2 5f b3 3d 23 f8 32 be 8b 05 da bd
       -0.036402654 0.08758487 -0.17477469 -0.106455885
0000e0 73 e1 68 3c 55 be a1 3a 1e 81 1b 3e 19 f0 08 3e
       0.0142139075 0.0012340049 0.15185973 0.1337284
0000f0 e1 4d c1 bd 67 76 9d 3c ca d1 fe 3d 61 ac fa bb
       -0.09438682 0.019221498 0.12442358 -0.0076499437

layers.0.fn.norm.weight f4 [64]
000000 34 79 14 3f bf c0 c5 3e ae 41 76 3e 27 2a 8e 3e
       0.5799744 0.38623616 0.24048492 0.27766535
000010 77 bc d3 3e b8 a8 9a 3e 87 ea 98 3e 24 c5 f2 3e
       0.41354725 0.30206847 0.2986643 0.4741603
000020 cf fd d4 3e 5d 78 b1 3e 38 49 07 3f e6 cc f0 3d
       0.4159989 0.34662142 0.528461 0.11757831
000030 5c f7 c7 3e 4e f0 b4 3e 0e c0 21 3e 72 b2 91 3e
       0.39055908 0.35339588 0.1579592 0.28456455
000040 8e 2a e9 3d 09 3b ac 3e c8 e1 6a 3e 03 1f 99 3e
       0.1138507 0.3363879 0.22937691 0.29906473
000050 57 59 12 3e 99 3d a1 3e 21 5f c3 3e 8c ee 52 3e
       0.14291893 0.31492308 0.38158515 0.20598811
000060 43 67 97 3e 04 e8 71 3e 2f 87 06 3f 53 06 6e 3e
       0.2957097 0.23623663 0.52550024 0.232446
000070 23 f1 f9 3e b6 9b 9f 3e f2 ae cb 3e d3 c2 ea 3d
       0.48816785 0.31173486 0.3978191 0.11462941
000080 36 91 29 3e 61 bf 03 3f 40 8b cc 3e 4e ca f0 3e
       0.165593 0.51463896 0.3994999 0.47029346
000090 79 63 3e 3e 5e 23 8b 3e e1 89 9c 3e f6 d6 cc 3e
       0.18592633 0.2717542 0.30573943 0.40007752
0000a0 ed 76 70 3e 8b 93 ff 3e 62 4c 6a 3e 2f 12 a6 3e
       0.23482867 0.49917254 0.228807 0.32435748
0000b0 db ba 66 3e b2 8a ca 3e 0e f2 43 3e 5e 6b a6 3e
       0.22532217 0.3955894 0.19135305 0.3250379
0000c0 3b 40 ba 3e ba c6 c4 3e 43 25 26 3e 2c d5 98 3e
       0.3637713 0.38432866 0.16225152 0.29850137
0000d0 0d bd b6 3e 5f 69 90 3e b3 e8 cc 3e 75 77 b8 3e
       0.3569111 0.28205392 0.40021285 0.36028638
0000e0 2a 16 04 3f 26 30 e5 3e 64 5b 8a 3e 93 86 96 3e
       0.5159632 0.44763297 0.2702285 0.29399547
0000f0 01 98 9c 3e 21 a3 95 3e a1 59 65 3e 09 5f b0 3e
       0.3058472 0.2922602 0.22397472 0.34447506

layers.0.fn.norm.bias f4 [64]
000000 9e 57 bf 3c 4b 9f e0 3c 3a d1 72 bd 82 57 28 3d
       0.023357209 0.027419707 -0.059281565 0.04109908
000010 78 7b bd 3b 9e f2 2d bc 98 c8 a0 bd 5b e9 dd 3c
       0.005782541 -0.0106169265 -0.0785076 0.027088812
000020 bd 0e 72 bc fc 94 1b bd 6a f0 9b 3d cc 5e bd bb
       -0.014774022 -0.03798388 0.07614215 -0.005779123
000030 3b b8 cf 3c d4 6f a6 3d bd a4 ab bd 81 fd 78 3d
       0.025356403 0.08126798 -0.08381031 0.060788635
000040 42 5e cb bb f8 f3 ba bc f9 a3 eb 3c 40 91 60 bd
       -0.0062063048 -0.022821411 0.028764712 -0.05482602
000050 83 89 56 3d fd 76 58 3c bb 31 1f 3a e0 8e ac 3d
       0.052377235 0.013211963 0.0006072779 0.08425689
000060 e6 99 41 3b e5 c7 73 3b 7c 98 0a 39 83 2c c4 3c
       0.0029541194 0.0037198004 0.0001321751 0.023947006
000070 2d 3d 96 bc 11 67 b5 bb bf b5 58 3c 4e a4 01 bd
       -0.018339718 -0.005535968 0.013226925 -0.031650834
000080 90 e9 ce 3c a9 dd f5 bc 20 cd a0 bd da f8 87 3c
       0.025257856 -0.030012922 -0.078516245 0.016598154
000090 5e 93 d7 bc b3 57 c8 ba f8 93 9b bc 8e 3b 67 bd
       -0.026315387 -0.0015284925 -0.018991455 -0.05645328
0000a0 27 d6 66 bd e5 36 82 bc ce 75 5c bc af 85 b5 3d
       -0.056356575 -0.015895316 -0.013455821 0.08863389
0000b0 83 f4 2b 3d 22 3f c1 bb 39 d2 d3 3c 1e 0f 0b 3d
       0.04198123 -0.0058974186 0.025857078 0.033949964
0000c0 df 16 b1 bc 8c 64 54 bd dd 66 78 3c e2 11 19 3c
       -0.021617351 -0.0518537 0.015161243 0.0093426425
0000d0 cf e9 89 3d a6 89 2d 3d 51 2e 3d bd 7d ab 99 bd
       0.067340486 0.0423676 -0.04618675 -0.07503412
0000e0 ea d0 19 bb d7 70 92 3b c2 88 39 3d 55 54 31 3c
       -0.002347047 0.004469018 0.045296438 0.010823329
0000f0 da f9 09 bd 0f e1 a6 3c 53 d7 a0 3d 7f b4 c3 bd
       -0.033685543 0.020370988 0.0785357 -0.09555911

layers.0.fn.fn.proj_in.0.bias f4 [256]
000000 20 bf 4e 3b 15 d8 9b ba 53 2a ee 3d 0f 93 d3 3c
       0.0031547025 -0.0011889959 0.116291665 0.025826959
000010 70 ec 12 bd 28 c9 78 bd 19 34 b3 3c 20 f7 58 bd
       -0.035870016 -0.060738713 0.021875428 -0.05297005
000020 cd 86 6d 3b 3f 23 8d bd e4 15 c4 bd 42 e0 d9 3d
       0.0036243678 -0.06891488 -0.09574488 0.10638477
000030 5c 53 e3 bd 1f 82 2d 3c f1 0e ae 3d ea a1 aa 3d
       -0.11099884 0.010590105 0.084989436 0.08331664
000040 f4 93 70 3d d2 92 0e bc 1d 30 ce 3d 8d fb 38 bd
       0.05873485 -0.008701997 0.10067771 -0.045161773
000050 1f ca 78 3d bc 82 3e 3e 06 43 46 bd 30 91 e8 bc
       0.060739633 0.18604559 -0.048403762 -0.028389543
000060 41 55 7b 3d 5a b7 a8 bd 63 ca 14 3c ac a7 7d 3d
       0.0613606 -0.082380965 0.009081456 0.061927482
000070 a5 10 fb bd ed 3d 29 3e e2 f0 e4 bc d6 96 70 3d
       -0.12259034 0.16527529 -0.027946893 0.0587376
000080 f0 ed 3e 3d 95 06 47 3b 1e f7 f1 3c 24 00 05 3e
       0.046613634 0.0030368913 0.02953678 0.12988335
000090 b3 89 e6 3b 40 81 a2 bd 10 57 0e 3d c8 08 02 bc
       0.007035458 -0.07934809 0.034750998 -0.007936664
0000a0 8b de b5 3d db 4d 40 3c 57 e0 49 3b 9b 94 d7 bd
       0.08880337 0.011737312 0.0030803883 -0.10526391
0000b0 8f ca e4 bc 18 9c 5e bc 53 1c 91 3d 88 da 01 3e
       -0.027928619 -0.01358702 0.070854805 0.1268102
0000c0 e8 b6 96 bd 28 6c e6 ba 8c 69 69 3d dc 4d 82 bd
       -0.07359105 -0.001757984 0.056985423 -0.06362507
0000d0 e2 62 16 3e c1 87 da bc 7b 9e 16 bd 47 b4 3c bc
       0.14686158 -0.02667606 -0.036772233 -0.011517591
0000e0 cc df 1f 3e df 31 c6 3d 86 b8 de 3c 7d db a1 3d
       0.15612715 0.09677481 0.027187597 0.07903192
0000f0 28 97 4b 3d 30 72 30 bd 77 b1 6a bc 32 e5 81 bd
       0.0497047 -0.043077648 -0.0143245375 -0.06342544
000100 f6 58 59 3d 05 e3 17 3d 87 1a ed 3b 52 82 ac be
       0.053063355 0.037081737 0.0072358283 -0.33693177
000110 32 5f 21 bd 05 eb 49 bd e8 fe 84 bd 56 71 92 3b
       -0.039397426 -0.049296398 -0.06493932 0.004469077
000120 bd 82 b7 3c 2d ad c3 bc 45 d0 50 bd 38 4b 05 3c
       0.022401208 -0.023886288 -0.05097987 0.008135609
000130 ac a0 85 3d c0 85 0f 3e a1 7e dd 3c 7d 7f 8a 3d
       0.06524786 0.14015865 0.02703792 0.06762598
000140 3d 7b 91 bd fd 1c 18 3c 11 15 99 bd ab 75 3a 3b
       -0.07103584 0.009284255 -0.07474721 0.0028451483
000150 eb e8 d8 bd 36 50 8c bc 44 0b 24 3c 87 dc ef 3c
       -0.105913006 -0.017128091 0.010012452 0.02927996
000160 0e 1a 86 bc 59 97 8e bc c9 8e 01 be 9e 6e 29 3d
       -0.016369846 -0.017406153 -0.12652124 0.04136526
000170 d2 21 34 be 42 e6 2d bd 40 f5 a8 3d 7e 87 be bc
       -0.17591026 -0.04245592 0.08249903 -0.023257967
000180 76 71 2f 3c 61 47 0a be b0 e8 0a bd d3 88 2f bd
       0.010708204 -0.13503791 -0.033913314 -0.042855095
000190 75 11 39 bd 7e e3 5a bd 37 88 46 bd d7 e6 db 3c
       -0.045182664 -0.05343961 -0.04846975 0.026843471
0001a0 5f fb ff bd e0 55 4a 3d f9 b4 3a bc e0 02 3f 3c
       -0.12499117 0.049398303 -0.011395686 0.0116584
0001b0 dd 20 43 3c 49 a0 cc 3a 0e ed 0e 3d c7 16 9a 3c
       0.011909691 0.0015611734 0.03489404 0.01880969
0001c0 cb 80 2d 3c 0b 7c eb bc 36 69 52 bc a4 2d 8a bb
       0.010589789 -0.028745672 -0.012842467 -0.0042168666
0001d0 1e 10 d3 3c 9a 9e c4 3d e8 a9 2c 3d 84 50 7a ba
       0.025764521 0.09600563 0.042154223 -0.0009548741
0001e0 83 24 3f 3d 16 a8 dd bc 32 fc 0c bd d2 f1 49 3c
       0.04666568 -0.027057689 -0.0344202 0.012325721
0001f0 f1 c3 d5 3d d3 78 96 3c 90 c7 83 3c d6 20 1b bd
       0.104377635 0.01836816 0.01608637 -0.03787311
000200 03 83 2e bd 0f 0b 6f bd c2 3d c9 bc 22 4d 4c bd
       -0.04260541 -0.058360156 -0.024565581 -0.049878247
000210 16 8e 64 be ec fc 83 bd da 47 ef 3d f8 73 4d bd
       -0.22319826 -0.064447254 0.116836265 -0.050159425
000220 7e 11 38 3c 50 9e 60 bd 34 f8 d2 3c 85 89 a1 bb
       0.011234639 -0.05483848 0.025753118 -0.0049297237
000230 b0 bd 99 bd 4a cc ae bd 44 05 f6 3b 0d 3b 81 bd
       -0.07506883 -0.08535059 0.007507952 -0.06310091
000240 c3 7f 89 bd f4 ea 34 bd fa 1a 3b bc bb 30 90 bb
       -0.06713822 -0.04416938 -0.011420006 -0.0044003404
000250 af bb a4 bd 3e ee 4c 3d 5f 3c cf 3c 60 cd a0 bd
       -0.0804361 0.050031893 0.025297342 -0.07851672
000260 6d 91 82 bd 47 fc af bb 85 f0 3c bd 14 89 a6 bd
       -0.06375394 -0.00537065 -0.046127815 -0.08131614
000270 9b c6 5b bd b2 8a b9 bc c9 d5 26 3b 7f 8e 1c 3b
       -0.0536562 -0.022649143 0.0025457016 0.0023888645
000280 a1 9a c1 bc 95 12 06 3d 88 19 16 3c 70 da 99 3d
       -0.023633303 0.032732565 0.009161361 0.07512367
000290 7d a4 92 3d 4b e7 01 3d c3 40 b2 3d ea 67 b0 bc
       0.0716028 0.03171472 0.087037586 -0.021533925
0002a0 2d b4 00 bd 07 30 42 bb 43 96 c0 3c 50 8e 9e bd
       -0.03142183 -0.0029630677 0.02350915 -0.07741988
0002b0 f0 f4 0d bd 5c 22 1d 39 c4 36 5f bc 05 83 2d 3d
       -0.03465742 0.00014985487 -0.013623897 0.042361278
0002c0 cc 7f 35 3c 87 88 dc bc 4d c1 0d bd 3f 15 39 3e
       0.011077832 -0.02692057 -0.034608174 0.18074511
0002d0 bf 08 47 3c c2 6c c2 bd 20 1b 94 3d 5b 21 b3 bd
       0.012148081 -0.094934 0.07231736 -0.087465964
0002e0 75 55 26 bd 0c 84 27 bd ad 82 ea bd 6b 3d c8 bd
       -0.040608842 -0.040897414 -0.11450706 -0.097773395
0002f0 f0 9b 9c 3e ab 95 25 3a b7 28 b5 bd 44 1e e9 bc
       0.3058772 0.0006316553 -0.08845656 -0.028456815
000300 23 39 63 bd b2 55 6c bd 45 8b 0b 3d 11 c2 2a bd
       -0.05547441 -0.057698913 0.034068365 -0.041688982
000310 a4 1d 2f bc 86 5c 27 bc 99 6b 45 3d a7 0a 26 3d
       -0.010688219 -0.01021493 0.048198316 0.040537503
000320 ee 0d 3d 3b ee 0f 49 bd d9 28 24 bd df f1 88 bc
       0.0028847414 -0.049087457 -0.040078018 -0.016716896
000330 78 73 86 bc 6b 81 ed ba 8b b1 c6 bd f8 ad 8f bd
       -0.016412482 -0.0018120235 -0.097018324 -0.07015604
000340 af 52 40 bc e5 73 39 3d 07 7f 52 bd 65 a9 99 bd
       -0.011738463 0.04527654 -0.051390674 -0.075030126
000350 d9 4d 18 be 99 32 53 3d 12 24 ec bd de 5c 69 3d
       -0.14873447 0.051561926 -0.11530317 0.05697333
000360 40 29 cc bd b2 36 22 3d 7d cd 09 3e 53 78 73 3d
       -0.09968805 0.039602943 0.13457294 0.059440922
000370 7a 4f ff 3c 8b 15 87 bc 0e 9b 07 bd 9e d2 a2 3b
       0.031165827 -0.016489765 -0.033106856 0.004968955
000380 a4 30 94 bd b4 cf 78 3c 0b 3e 5e be 87 fc f9 bc
       -0.0723584 0.015186239 -0.21703355 -0.030515922
000390 61 03 ae bc dc e5 38 bd a5 42 34 be 01 1b ea 3b
       -0.021241846 -0.045141086 -0.17603548 0.0071443324
0003a0 c5 1c 68 bd 73 66 04 3b e5 88 80 bd 19 32 21 bd
       -0.05666806 0.0020202666 -0.062761106 -0.039354417
0003b0 a3 83 18 3d 2f 68 19 bd 52 c5 5f bd a2 4d 44 3d
       0.037234914 -0.037452873 -0.05463154 0.0479256
0003c0 8c 66 0f bd 1f 32 81 bd e6 8a c2 bd 2f 97 14 3d
       -0.035009906 -0.06308388 -0.09499149 0.036276992
0003d0 66 59 bb 3d b1 aa 3d bd f0 2b 1a 3b 8d f8 fb 3b
       0.09147911 -0.046305362 0.0023524724 0.0076895417
0003e0 b3 32 7d bc 06 48 fd bc 1a f6 4a bc 0f 23 94 bc
       -0.015453982 -0.030918133 -0.012387777 -0.018083123
0003f0 e0 c6 4f bd a2 7e 29 3c d0 ee 67 bc b4 04 24 bd
       -0.05072677 0.010345133 -0.014156058 -0.040043548

layers.0.fn.fn.sgu.norm.weight f4 [128]
000000 ee 95 e6 3d b8 73 00 3e 1b 1c 18 3e f9 97 54 3c
       0.112590656 0.12544143 0.14854471 0.012975686
000010 09 a4 a1 3c c5 39 04 3e 82 6c 76 3d 02 5a a9 3d
       0.019731538 0.12912662 0.060162075 0.08269121
000020 9d dc 04 3e e2 b0 d6 3d 2a 2a 24 3e 3c 48 05 3e
       0.12974782 0.104829565 0.1603171 0.13015836
000030 42 c3 dd 3d 81 6c 93 3d 77 b8 37 3e 51 6e fd 3d
       0.10828258 0.0719843 0.17941462 0.12374557
000040 cb d0 12 3e 57 ed f7 3d 52 46 17 3e a0 74 95 3d
       0.1433746 0.12105816 0.14772919 0.07297635
000050 d6 8c fd 3d d5 d3 0e 3e 8f 70 cb 3d ca ba db 3d
       0.12380378 0.13947995 0.09933578 0.107289866
000060 e5 75 30 3e e0 2b 05 3e 76 06 1c 3e 12 00 f1 3d
       0.17232473 0.13005018 0.1523684 0.117675915
000070 c8 86 c0 3d c1 66 38 3e 03 87 8f 3d 6f 68 d8 3d
       0.094007075 0.18007948 0.07008173 0.10566794
000080 04 1a 34 3e 5a 2e 0c 3e d8 bd 31 3e d1 e1 fd 3d
       0.17588049 0.13689557 0.17357576 0.12396587
000090 bf f4 a1 3d bd 14 93 3d f0 eb b5 3d cc 9c e1 3d
       0.0790801 0.0718169 0.08882892 0.11016235
0000a0 35 7b 10 3e 00 31 b5 3d bb 7f d6 3d 45 01 da 3d
       0.141095 0.08847237 0.104735814 0.106447734
0000b0 6a de 2d 3e ee be 46 3d cd 4c 15 3e 54 57 25 3e
       0.16979375 0.04852193 0.14580078 0.16146594
0000c0 50 9a 06 3e b9 f4 06 3e 12 8f fc 3d ac ed 08 bc
       0.13144803 0.13179292 0.12331976 -0.008357447
0000d0 8f 58 46 3e 75 98 5b 3d 8c b8 f2 3d 79 78 e8 3c
       0.1936972 0.05361219 0.11851606 0.028377758
0000e0 0c ab 2d 3e 18 92 01 3e c4 dd 9f 3d 01 53 1d 3e
       0.1695978 0.12653387 0.0780597 0.15363695
0000f0 7d 09 6a 3d 86 8d 12 3e 98 28 e7 3d 61 f9 fe 3d
       0.057137955 0.143118 0.112870395 0.12449909
000100 1a 0d a8 3d a1 3d b8 3d 2e 85 07 3e 2d f9 7d 3e
       0.08205624 0.0899613 0.13234398 0.24802084
000110 0d 6f c6 3d 4f d9 b6 3d 52 04 d9 3d 90 17 c6 3d
       0.0968915 0.08928167 0.10596527 0.09672463
000120 8c ce 9c 3d e6 5c a5 3d 45 bc c0 3d 32 86 de 3d
       0.07656583 0.080743596 0.094109096 0.108654395
000130 7a 7d da 3d d1 84 37 3e 7c 04 cb 3d d4 08 bd 3d
       0.10668464 0.17921759 0.09912965 0.092301995
000140 b9 9f d4 3d 4c 1e 0d 3e d5 71 f9 3d c9 91 ed 3d
       0.10382027 0.13781089 0.12179915 0.11600072
000150 11 27 b5 3d fd 94 32 3d 94 39 c9 3d d8 53 10 3e
       0.08845342 0.043599118 0.09825435 0.14094484
000160 90 1f e1 3d 08 fe ff 3d a2 7a f9 3d c0 20 02 3e
       0.10992348 0.124996245 0.121815935 0.12707806
000170 0e 3e 2d 3e b5 24 ff 3d 25 8a 13 3e 26 7b e0 3d
       0.16918203 0.12458173 0.14408167 0.10960989
000180 27 52 83 3b 76 55 c4 3d ae 5b 01 3e 93 13 b5 3d
       0.004007596 0.09586613 0.1263263 0.08841624
000190 a8 df ad 3d 55 d4 bc 3d 2a e9 82 3d 22 0a ca 3d
       0.08489925 0.092201866 0.06392129 0.09865214
0001a0 7b f3 da 3d 21 8d 0e 3e ba 26 5f 3e f0 21 2e 3d
       0.106909715 0.13921024 0.21792117 0.042512834
0001b0 f9 41 d9 3d df 2d cf 3d 68 66 cb 3d 52 76 5d 3d
       0.106082864 0.10116171 0.09931642 0.054067917
0001c0 e2 cf 1e 3e 7c af 25 3d 53 57 b6 3d 3e dc c8 3d
       0.15508988 0.040450558 0.089033745 0.09807633
0001d0 67 6e bd 3d bd 4b 29 3e 51 19 32 3e 26 1e 20 3e
       0.09249573 0.16532798 0.1739247 0.156365
0001e0 89 b9 e3 3d 62 02 7e 3d 6b d6 81 3d 60 d9 ce 3d
       0.111193724 0.06201399 0.06339725 0.10100055
0001f0 fb d3 21 3e 68 71 cc 3d 72 80 10 3e 3c 03 1d 3e
       0.1580352 0.09982568 0.14111498 0.15333265

layers.0.fn.fn.sgu.norm.bias f4 [128]
000000 a5 70 5b 3d 2a b6 62 3d 96 a2 b7 3c 05 87 00 bd
       0.053574223 0.055349506 0.022416394 -0.031378765
000010 ea c4 ab bd b1 2a 1a 3d 37 cf 9c bc a9 ab a4 bd
       -0.08387168 0.03763837 -0.019141776 -0.08040554
000020 88 2c 36 bc 0b 4d e7 3c 5f 41 f2 3c 00 0b 31 3c
       -0.0111190155 0.02823498 0.029572187 0.010805845
000030 69 96 33 bd 89 07 ec bc f9 c1 66 bc 9a 37 16 bc
       -0.043844614 -0.028812187 -0.014084333 -0.00916853
000040 d7 91 0c bc 7d 05 83 bc ff be 81 3d f0 29 57 bd
       -0.008579693 -0.015993828 0.06335258 -0.05253023
000050 b1 24 15 3b f7 0c 01 3d b4 dd 04 bc 61 89 6d bd
       0.0022757465 0.031506505 -0.008109499 -0.057992343
000060 aa 77 1d bd 6b c6 dc bb f6 b0 54 3d 08 be 03 3d
       -0.0384442 -0.0067375205 0.051926576 0.03216365
000070 19 f1 69 bd d5 9b 0c 3d d8 fa 8f bb ad 00 28 bd
       -0.057114694 0.0343283 -0.0043939166 -0.04101627
000080 ce 22 7e 3d c3 d4 b1 3c 19 27 1b bd 61 a0 30 3d
       0.06204491 0.021707898 -0.037879083 0.0431217
000090 d8 88 46 bc 29 76 6b bd 39 96 cc bc 99 ba f0 3c
       -0.012117587 -0.057485733 -0.024973975 0.029385852
0000a0 5c 79 a0 bc 85 23 8f bc c0 1f 33 bd 8b 1f 4a bd
       -0.019589119 -0.017472992 -0.04373145 -0.049346488
0000b0 30 03 81 3d 66 4c dc bc b4 81 31 3d bf 00 75 3d
       0.06299436 -0.026891898 0.043336585 0.059815165
0000c0 6b ee 4a bd 08 62 bc bd 28 68 0c 3d 22 6e 7b bb
       -0.04954378 -0.091983855 0.03427902 -0.0038365205
0000d0 a0 80 95 3d 3f f0 42 bd 18 9e 71 bb 98 78 92 bc
       0.07299924 -0.047592398 -0.0036867913 -0.01787977
0000e0 f9 8b 8f 3d cc 8a 04 3d 1d 0e 00 bc ff 00 2e 3d
       0.070091195 0.03235893 -0.007815865 0.04248142
0000f0 07 02 b2 bd 5b 00 4a 3d 78 03 9c bd a9 55 50 bd
       -0.08691793 0.049316745 -0.07617849 -0.050862942
000100 41 66 5c bd d5 2e 2b bd 61 e1 4d ba b2 30 49 3d
       -0.053808454 -0.04179271 -0.00078537135 0.049118705
000110 e7 b9 c7 bc ff 5e 80 bd 57 81 8d 3d a2 e3 23 bd
       -0.024380637 -0.06268119 0.06909435 -0.04001201
000120 68 c8 ec bc 53 30 4f bd dd 03 89 3c e9 32 17 bd
       -0.028904155 -0.050583195 0.016725475 -0.036913786
000130 c9 93 f9 bb f1 9d bf 3d 58 e2 b2 bd 53 0d a4 3c
       -0.0076164943 0.09356297 -0.08734578 0.020025885
000140 01 63 da 3b 6c 9f 47 3d 12 27 85 bd d3 6e ae bd
       0.006664634 0.04873602 -0.06501593 -0.08517232
000150 5e 5d 9e bd bd 84 4c 3d 78 d6 a2 3c d4 68 98 3c
       -0.07732652 0.049931277 0.019877657 0.018604673
000160 51 f4 62 bd 09 04 0e 3d bb a4 e1 3c 6f d1 77 bc
       -0.05540878 0.034671817 0.02754437 -0.015125616
000170 50 83 da bd 5c 67 a1 3c 79 b5 a3 3d a4 be d9 3c
       -0.10669577 0.019702606 0.079935975 0.026580162
000180 f4 0d 4e 3c d8 72 83 3c 8d 7c ec bd 4a e7 5d bc
       0.012576569 0.016045973 -0.11547194 -0.013543913
000190 89 f4 34 bd 59 ff 4b bd 22 7e 02 3b 80 65 03 3d
       -0.04417852 -0.049804065 0.0019911607 0.03207922
0001a0 8c ec 0b 3d 4e 56 a3 3b ef 82 08 be 83 f8 30 bc
       0.034161136 0.0049846536 -0.13331197 -0.010801437
0001b0 be 11 2d 3a ce 03 9f bb 5e 1f 16 3c c0 d8 7d bd
       0.000660207 -0.0048527485 0.009162752 -0.061974287
0001c0 e3 21 da ba 19 33 ea bd e2 be d2 bd 02 e8 5a bc
       -0.0016642179 -0.11435527 -0.10290314 -0.013360979
0001d0 f9 3b 31 bc 34 6f 7c bb 04 e2 ca 3b bc bf f2 3c
       -0.010817521 -0.003851843 0.006191494 0.029632442
0001e0 05 23 53 3d 46 9e a9 3b 10 74 f4 bb 0c 39 ed ba
       0.05154707 0.0051763384 -0.007460125 -0.0018098666
0001f0 e2 54 65 3d c3 88 be bc d9 68 f0 bd ec 4c 81 bd
       0.055989154 -0.023258572 -0.11738748 -0.063135

layers.0.fn.fn.sgu.proj.weight f4 [98, 98, 1]
000000 03 5e b6 bd 5f c2 46 bd c6 e1 ea bc 36 19 33 bc
       -0.0890465 -0.04852521 -0.02867211 -0.010931304
000010 16 0a 7b 3b 91 dd 33 3c 47 5f 93 3d 74 bb 4c 3d
       0.0038305572 0.0109781185 0.07195907 0.049983457
000020 22 27 6f 3d c4 15 5d 3d 80 13 35 3d 1b 88 05 3d
       0.05838693 0.053975835 0.04420805 0.032600503
000030 73 bf cc 3b 3a cc 7e 3d c5 4f 92 3d 6c 66 1a 3d
       0.0062484085 0.062206484 0.07144121 0.037695333
000040 3d d8 d0 bb 17 c2 ba 3c f0 9d 1f 3d 84 66 2d 3d
       -0.006373434 0.022797627 0.03896898 0.042334095
000050 08 dd 25 3d 1c c3 91 bb f7 67 d5 bc f1 74 c1 bc
       0.040493995 -0.0044483077 -0.02605055 -0.023615332
000060 5e 69 eb 3c 96 ba d3 3c 5a 3b b4 3c c0 a3 03 bd
       0.028736766 0.025845807 0.022000957 -0.032138586
000070 af c5 da bc 23 64 6b 3d 28 72 01 3d 68 14 11 3d
       -0.026705591 0.057468545 0.03160301 0.03541985
000080 e3 a3 a4 bd 77 61 82 bc f1 ad e2 3b c4 08 04 bd
       -0.080390714 -0.015915615 0.006917708 -0.032234922
000090 d1 3b 05 bd 64 43 f2 bc 26 bc 60 bd 88 fb 1a bd
       -0.03252775 -0.02957315 -0.054866932 -0.037837535
0000a0 30 5a 86 bb b1 f0 20 bd 2c 9b 39 bd f4 ac a0 bd
       -0.0041001067 -0.03929204 -0.045314 -0.07845488
0000b0 14 c8 0b bd eb a1 56 bd 93 1b 79 3c cc f0 a0 3c
       -0.034126356 -0.05240051 0.015204328 0.01964607
0000c0 41 ec be 3c c9 64 d6 3b 75 e6 37 bd a4 c9 a6 bd
       0.023306014 0.0065427762 -0.044897515 -0.08143929
0000d0 9b 27 79 bd 38 dc b8 bc f1 c4 00 bd 77 7d ab bc
       -0.060828786 -0.022565946 -0.031437818 -0.02093385
0000e0 3e a2 58 bd 7b eb 50 bd 3a 12 a2 bd 42 db 91 bd
       -0.0528891 -0.05100582 -0.07913633 -0.07121898
0000f0 cc d9 1f be 7d 05 cb bd 7e fa 31 be 85 28 9f bd
       -0.15610427 -0.09913156 -0.17380711 -0.077714
000100 8a 91 d9 bb d3 c8 ad bd b9 6b 9f bd 1b 4b ce bc
       -0.006639664 -0.0848557 -0.07784218 -0.025182297
000110 5b 7c 4b bd 5a 7d 8e bc 4e f0 a7 bc 81 d0 2e bd
       -0.04967914 -0.017393757 -0.020500328 -0.042679314
000120 5f ef 64 bd 43 65 8d 3c d0 ef 7f bd 0a 08 33 bd
       -0.055892345 0.0172602 -0.062484562 -0.04370884
000130 72 79 1e bd ef 7a 47 bd 50 35 24 bd 16 6e 8c 3c
       -0.038690038 -0.048701223 -0.040089905 0.017142337
000140 17 fa 51 3d 0b ef a2 bc 0a 45 63 3c 21 04 b4 3a
       0.051263895 -0.019889375 0.013871441 0.0013734141
000150 a3 d2 3a ba 6c 24 29 bd 0c 17 85 3c cc 26 0a 3d
       -0.0007126724 -0.0412945 0.016246341 0.033728406
000160 3c 98 6a 3c 31 44 7b bc 5e ba e8 3c f9 c1 af bc
       0.014318522 -0.015336082 0.02840918 -0.021454798
000170 94 97 70 bd 5b c6 30 bd d6 81 07 bd 58 ab 46 bb
       -0.058738306 -0.043157917 -0.033082806 -0.0030314531
000180 de 81 cc 3b c0 e3 40 3c 04 82 82 bc cf 07 88 bc
       0.0062410673 0.01177305 -0.015931137 -0.016605286
000190 d1 fa e0 3c 21 ea d2 bd c4 85 38 be b2 44 39 be
       0.027463349 -0.10298563 -0.18019778 -0.18092611
0001a0 4e 98 92 bd 75 9f 12 bd dd 8f 3a 3b 6b fd 00 bd
       -0.07157956 -0.0357966 0.0028467097 -0.03149168
0001b0 e9 6e ac 3b 5e dc f7 39 b3 52 78 bd c0 6c b0 bc
       0.005262245 0.00047275698 -0.060625743 -0.021536231
0001c0 4a 2a 27 bd 32 e2 94 bd 76 60 17 bd f2 9b 64 bd
       -0.040811814 -0.07269706 -0.036957227 -0.055812784
0001d0 47 1c 52 bd 6a fa a7 bd 9d cd 5a bd 78 be 17 bd
       -0.0512965 -0.082020596 -0.053418744 -0.03704688
0001e0 97 11 a5 bc f1 20 13 3c 2e d7 46 3d 6f 7e 1e 3d
       -0.020149989 0.008980022 0.048545055 0.038694795
0001f0 ec d0 07 3d 0a 6f c0 3b f4 7b 80 bb 3d ea 88 3d
       0.033158228 0.005872612 -0.0039210264 0.066853024
000200 87 3e a8 3d 68 b0 a6 3d 2a 0d b2 3b d6 50 42 3d
       0.08215051 0.081391156 0.005433698 0.047440372
000210 70 db 81 3c 48 89 c0 3c 27 ad 8f bc 8e 98 90 bc
       0.015851706 0.02350296 -0.01753862 -0.017650869
000220 b4 6d 11 bc 98 60 6e bc ff 81 e4 3c 49 1c 3a 3c
       -0.008876253 -0.014549397 0.027894018 0.011359283
000230 44 39 f7 bc 7d e5 7e 3c d7 b0 4d ba 64 70 4b bd
       -0.030178674 0.015557644 -0.00078464806 -0.04966773
000240 cb b2 e5 3b a4 12 9f ba 93 ca ba 3d 2d 19 4f 3d
       0.007009839 -0.0012136293 0.09120669 0.05056112
000250 e9 54 0c bc 3c 85 b7 bc a4 10 0f bd b5 bf 8d bb
       -0.008565166 -0.022402398 -0.03492798 -0.004325832
000260 98 25 b0 bc 10 63 1d bc 2d 97 7d bc 7d 4b 65 3c
       -0.021502301 -0.009606138 -0.015477938 0.013995049
000270 05 af 65 3c 17 b5 10 bb b3 78 67 3c 5d 5f ed 3c
       0.014018779 -0.0022080594 0.014127898 0.028976137
000280 83 ce 95 3c 25 10 80 3c 53 7b a9 3c c5 1d c7 bc
       0.018286949 0.015632698 0.020688688 -0.024306187
000290 5e ff 8e bd 2b d2 4a bd 6e 64 01 bd 40 00 b9 3a
       -0.06982301 -0.049516838 -0.031589918 0.0014114454
0002a0 2f 8e b0 bc f5 ae 39 bd bd 84 69 bd 8f f7 7d bc
       -0.021552173 -0.045332868 -0.057011355 -0.015500917
0002b0 8c c7 98 bd 04 3b 52 bd dd 7b 3c bd 45 89 33 bd
       -0.074599355 -0.051325813 -0.046016563 -0.043832082
0002c0 73 ea 34 bd 8e 15 a9 bc 60 87 8d bc 01 6a ab bb
       -0.0441689 -0.02064016 -0.017276466 -0.0052311425
0002d0 f6 a9 19 3d 4b b7 15 3c 34 7c 81 3c 14 7e 9a bc
       0.037515603 0.009137939 0.015806295 -0.018858947
0002e0 82 87 b2 ba b1 5c 98 3b e9 97 dc 3c 20 bc ad bc
       -0.0013620707 0.0046497216 0.026927905 -0.021207869
0002f0 c7 a9 8e 3c 6d 7c 60 3c 4b 3e e8 bb b3 da a7 b8
       0.01741494 0.01370154 -0.007087504 -8.0039164e-05
000300 de 9f c9 3c 06 fd 65 3b 62 25 ab 3c 4f 96 23 3d
       0.024612363 0.003509344 0.020891849 0.039938267
000310 70 37 e0 3c b7 37 eb bc 61 c3 a4 3b c5 b1 d3 bb
       0.027370185 -0.02871309 0.005028174 -0.0064604008
000320 cb cd 7a bd 37 65 48 be e8 fa e6 bd e9 cc 09 be
       -0.061231416 -0.1956986 -0.11278325 -0.13457073
000330 bc 69 9e bd 2c 39 4e bd 1c a6 bd 3c c2 ad 9b bb
       -0.07735011 -0.050347492 0.023150496 -0.004750938
000340 cb 7a e9 bd 1b ab a9 bd c0 15 a4 bd 6e d0 b2 bd
       -0.11400374 -0.08284589 -0.08011961 -0.08731161
000350 b9 85 38 bd a2 ec a1 bd 1f 1a 25 bd c7 bc ad bc
       -0.045049403 -0.07906462 -0.040308114 -0.02120818
000360 8e f2 04 3c db 06 1a bd 59 be 91 3c 3f 05 49 bc
       0.00811447 -0.037604194 0.01779096 -0.012269317
000370 24 47 2f bd 41 45 62 bc 46 bb 94 bc 74 97 c4 bd
       -0.042792454 -0.013810457 -0.018155705 -0.095992
000380 87 bd 84 bd 56 e1 5a 3c 98 ff ac 3b 18 b1 5c bc
       -0.06481462 0.013359388 0.0052794926 -0.013469957
000390 44 e2 76 bd 26 f3 a1 3b 56 56 d9 bb b2 bb 3f 3d
       -0.060274377 0.0049423156 -0.0066326065 0.04680986
0003a0 ef cd bc 3b 36 24 80 3c dc 6e 34 3d 71 bb c2 3c
       0.005761854 0.015642267 0.044051036 0.02377102
0003b0 05 c3 8e 3c 1a 89 57 3d 20 57 f8 3b ba 6d d7 bb
       0.017426977 0.052620985 0.0075787455 -0.0065743597
0003c0 d8 8d 00 3d 3b e3 3a 3c 47 2c 00 3d ab 24 aa 3c
       0.031385273 0.011406715 0.031292226 0.020769438
0003d0 c5 4a ad 3d e6 95 86 3d 76 1b c2 ba 1a 66 28 bc
       0.08461527 0.065715596 -0.0014809209 -0.010278249
0003e0 df ec 87 bb 7f 54 f9 3c 65 c5 12 3b f2 64 33 3c
       -0.0041481103 0.030435799 0.0022395488 0.01094936
0003f0 e1 b6 12 3c 20 5d e4 3c 38 0a c9 3c 98 8c 30 ba
       0.008954735 0.027876437 0.024541005 -0.0006734817

layers.0.fn.fn.sgu.proj.bias f4 [98]
000000 d3 4a 9f 3d 8b bb 61 bc 20 17 12 3d 86 88 85 3d
       0.077779435 -0.013777624 0.035666585 0.065201804
000010 35 b9 00 3d f8 23 47 3d c4 90 60 3d e3 38 20 3d
       0.031426627 0.048618287 0.05482556 0.03911675
000020 1f f0 6b 3d de 9f 41 3d ba 31 a4 bc c3 9f bb bc
       0.057602044 0.0472716 -0.020043243 -0.022903329
000030 35 3e 7f 3b ad 0b 15 3c d7 5b cb 3b c6 e6 04 3d
       0.003894699 0.009097022 0.0062060165 0.032446645
000040 a5 88 bc 3c 79 c1 7f 3d e2 49 87 3d 34 21 cc 3d
       0.023014376 0.06244037 0.06605889 0.099672705
000050 ea 1e 05 3d 23 b1 ce 3c be 9a 8b 3d e0 9c 2a 3d
       0.032500185 0.02523095 0.06816624 0.041653514
000060 51 6f 75 3d 76 4d 80 3c 76 49 a1 3d 2d 3a 3a 3d
       0.059920613 0.015661936 0.0787534 0.045465637
000070 0b 60 af 3d bf 2a 90 3d 6a d1 38 3d 9a 72 88 3c
       0.085632406 0.07039403 0.045121588 0.016656209
000080 2d 7f 7a 3d f2 56 0c 3c 41 44 31 3d d6 89 97 3d
       0.06115644 0.008565651 0.043277983 0.07399337
000090 01 4c 69 3d 4d f9 30 3d a3 e7 ac 3d 0f af b5 3d
       0.05695725 0.0432065 0.08442619 0.088712804
0000a0 3f 9c 50 3d d2 af eb 3d eb 4c 82 3d 87 d4 71 3d
       0.050930258 0.115081444 0.06362327 0.059040572
0000b0 17 84 26 3d 3c 45 32 3d d6 78 a1 3d 85 50 82 3d
       0.040653314 0.04352306 0.07884376 0.06363014
0000c0 31 11 a7 3d 1b 65 a5 3d 9b 4c a6 3d f9 be cd 3d
       0.08157576 0.08075925 0.0812008 0.10046191
0000d0 aa 3b 8a 3d 2e 8d e0 3d ec fc a0 3d 2f 91 9f 3d
       0.06749661 0.10964428 0.07860741 0.077913634
0000e0 a1 83 92 3d 25 94 e7 3d fe e1 ca 3d 14 68 ac 3d
       0.071540125 0.11307553 0.09906386 0.08418289
0000f0 32 59 b0 3d 11 fe 1a 3d 0b d9 67 3d 4a 19 22 3d
       0.08610763 0.037839953 0.056603473 0.0395749
000100 0b 29 ea 3d e4 37 d6 3d af 54 81 3d 09 a1 c1 3d
       0.114336096 0.10459879 0.0631498 0.09454543
000110 22 00 46 3d 60 f4 56 3d ff 17 e2 3d 7b d0 bc 3c
       0.04833997 0.052479148 0.11039733 0.02304863
000120 4d 92 eb 3d f5 bc f0 3d 75 e2 c8 3d 8f 0f b4 3d
       0.11502514 0.11754791 0.09808818 0.0879203
000130 1b e9 af 3d 88 71 36 3d e2 8a c9 3d b4 d2 ad 3d
       0.08589383 0.044541866 0.09840943 0.08487454
000140 2a d3 e6 3d bc 02 98 3d 36 68 0b 3d fe 44 aa 3d
       0.11270745 0.074223965 0.03403493 0.083139405
000150 c6 24 4c 3d 7c d1 83 3d 6b 73 a9 3c d0 2a d8 3d
       0.049839757 0.0643644 0.020684918 0.10555041
000160 ad dc 23 bc 2f 89 80 3d 00 78 2e 3d 1f c4 39 3d
       -0.010001344 0.06276166 0.04259491 0.04535305
000170 ea 3b d8 3d a9 87 0a 3c 4d e9 ef 3d ab e4 09 3c
       0.10558303 0.008455195 0.117144205 0.008416335
000180 d6 37 74 3d e3 a1 fe 3d
       0.05962356 0.12433221

layers.0.fn.fn.proj_out.bias f4 [64]
000000 41 c7 63 3c 7e 09 91 bb a8 37 c2 bb 3e 4d a7 3c
       0.013902486 -0.0044261804 -0.005927045 0.020422574
000010 16 b3 83 ba 8b db 33 bc db 99 44 bc cf 83 03 3d
       -0.0010047879 -0.010977636 -0.011999573 0.032108124
000020 07 f1 91 bc 9a 3e 7e bc 9d d8 86 3c ac 45 e2 bb
       -0.017815126 -0.015517855 0.016460711 -0.006905278
000030 d5 83 92 bc e8 87 83 3c 1b 17 77 bc 21 e9 df 3c
       -0.017885128 0.016056016 -0.015081192 0.027332844
000040 ed ae f1 bb c3 23 89 bc 96 c8 04 3a f4 b0 ad bc
       -0.007375589 -0.016740685 0.000506529 -0.021202542
000050 f9 a1 f0 ba ef 2a e3 3b e8 d6 96 3b 23 fe 91 3c
       -0.0018358818 0.0069326083 0.0046032555 0.017821377
000060 90 c7 5b bc 01 0c 12 3c 0d 1e af 3c a0 7b f8 3b
       -0.013414279 0.008913995 0.021376634 0.0075830966
000070 0c 7b 09 bc c8 ab b9 3c 7a 1c ba 3c 6e c2 63 bc
       -0.008391153 0.02266492 0.022718657 -0.013901336
000080 2a 7d 1f bc b7 08 2f bc 84 ef d4 bc 02 74 53 3c
       -0.009734431 -0.01068323 -0.025993116 0.012906076
000090 ed 48 23 3b 87 0b 21 3c 4e 1a 14 bc 51 71 5f bc
       0.0024915293 0.0098294085 -0.009039475 -0.013637857
0000a0 71 45 1f bb 56 1c 11 bc db 30 f8 bb dd fc a5 3b
       -0.0024302865 -0.0088568535 -0.0075741834 0.005065544
0000b0 5b 6a 35 3c 2b dd 67 3b 76 39 21 bb 0b 92 12 bc
       0.01107272 0.003537963 -0.00246009 -0.008945952
0000c0 17 73 df bb e7 d6 23 bc ef 58 3c 3b e9 4c e4 3a
       -0.0068191397 -0.009999967 0.0028739532 0.001741794
0000d0 3a 70 aa 3b cd 01 66 3c c0 4b 90 bc 92 b4 00 bc
       0.0052013667 0.014038515 -0.017614245 -0.007855551
0000e0 1b ef 63 bc cf bc 98 3c 75 d9 a4 3c 78 53 ce 3b
       -0.013911988 0.018644718 0.020123223 0.0062965713
0000f0 f3 cb bd 3b 91 41 04 3c 4a 56 93 3c 86 1f d6 ba
       0.005792135 0.008072273 0.017985482 -0.0016336299

layers.1.fn.norm.weight f4 [64]
000000 80 01 12 3f 36 62 c9 3e 46 7a 16 3e 2b 06 b7 3e
       0.5703354 0.39332741 0.14695081 0.35746893
000010 07 48 b4 3e 8a bf 9a 3e ed c8 ba 3e 67 c0 b3 3e
       0.35211203 0.30224258 0.3648142 0.3510773
000020 a0 df cf 3e 62 5b 86 3e 1e 61 cd 3e 67 f0 2b 3e
       0.406003 0.26241595 0.40113157 0.16790925
000030 07 c2 81 3e 92 a4 86 3e d7 6d 25 3e ea 2d 97 3e
       0.25343344 0.26297432 0.16155182 0.29527217
000040 bb 0b 01 3e 43 c8 25 3e 16 3c d9 3d ca a3 e0 3e
       0.12602131 0.16189675 0.106071636 0.4387496
000050 99 95 4a 3e d4 81 55 3e a4 fe 85 3e c9 a0 b3 3e
       0.1978363 0.20850307 0.26170838 0.35083607
000060 37 d6 8e 3e 1a f6 ba 3e 21 60 e5 3e 24 6f 93 3e
       0.27897808 0.36515886 0.44799903 0.2879573
000070 b9 e1 d2 3e da 5c cb 3e d9 9c be 3e e2 ae 02 3e
       0.41187838 0.39719278 0.3722904 0.12762025
000080 52 49 32 3e 66 27 e9 3e db 98 0e 3f b2 87 f3 3e
       0.17410782 0.4553787 0.5570199 0.47564465
000090 27 9e b9 3d eb e2 b7 3e e4 fc db 3e 2d 8e aa 3e
       0.09063368 0.35915312 0.42966378 0.33311597
0000a0 07 48 61 3e f4 fc 98 3e d6 d0 1c 3e de e3 cd 3e
       0.22000133 0.29880488 0.1531404 0.4021291
0000b0 94 e5 a4 3e 78 1e a4 3e 7d 7e ca 3e cf 52 37 3e
       0.32206404 0.32054496 0.39549628 0.17902683
0000c0 de aa f6 3e e2 26 e2 3e db 09 50 3e 2d 64 66 3e
       0.48177236 0.4417029 0.2031626 0.22499152
0000d0 dc 3a ad 3e 8b f6 81 3e 2b 9f c9 3e 2d e4 28 3e
       0.3383397 0.2538341 0.39379248 0.16493292
0000e0 ff a0 11 3f 3f e5 b6 3e 9d 75 fa 3d 50 fc 85 3e
       0.56886286 0.35721776 0.12229464 0.26169062
0000f0 a9 60 00 3e 33 25 e9 3e 1e df a7 3e fb 79 b2 3e
       0.12536873 0.45536193 0.32787412 0.3485869

layers.1.fn.norm.bias f4 [64]
000000 16 06 c5 3c c4 f8 66 bc b6 27 35 3b 96 aa 5a 3d
       0.024050754 -0.014097396 0.0027642078 0.05338534
000010 2f 2f b6 3c fa 29 6f bd 89 3d 1d bd 70 c1 e5 bb
       0.022239296 -0.05838964 -0.038388763 -0.007011585
000020 9c 63 b7 bc 5a 7c 15 bd 23 23 ec 3c e3 8a fe 3c
       -0.022386365 -0.036495544 0.028825348 0.031072086
000030 dc 3c 2a 3d fc b7 21 3d 3f 21 c2 bc 05 38 ba 3d
       0.041561946 0.0394821 -0.023697494 0.09092716
000040 ce e7 18 bc dc c2 fd bc 3d 28 58 bb 9f 8b 64 bc
       -0.00933261 -0.030976705 -0.0032982968 -0.013949304
000050 97 15 d2 3c 5f ad ba bc 4b 32 40 3c 87 f6 6d 3d
       0.02564506 -0.022787748 0.011730741 0.058096435
000060 6f 39 b2 bb ce a2 8c ba 08 66 27 bb 95 30 54 bc
       -0.0054389755 -0.0010729672 -0.0025542993 -0.012951036
000070 85 d9 5f 3d c4 0a 62 3d 80 9a 8c 3c ff a3 83 bc
       0.054650802 0.05518605 0.017163515 -0.01606941
000080 49 2d d3 3c 6b c9 19 bd 1c 01 c6 bd f6 87 ac bc
       0.02577843 -0.037545603 -0.0966818 -0.021060925
000090 de 32 30 3d 39 6e 50 3c 1b 5e 2f bd f9 41 36 bd
       0.04301726 0.012721592 -0.042814355 -0.04449651
0000a0 7d f1 06 3b 98 f5 f1 bc 10 ae c2 bc 13 bf 9d 3c
       0.0020590716 -0.029536054 -0.02376464 0.01925615
0000b0 5a 8d 57 bc 32 ab e6 bc 67 bd 8f 3c bc 76 46 bc
       -0.013156259 -0.028157804 0.017546369 -0.012113269
0000c0 3e 68 6d 3d 3e dd 2a bc 55 44 fe bc 34 eb 0a 3d
       0.05796074 -0.010428725 -0.031038443 0.033915713
0000d0 0c c5 4e 3d 42 43 bf bb e7 ae 55 bd 91 f3 0e 3c
       0.050480887 -0.005836875 -0.052168753 0.008725063
0000e0 e4 b0 e8 bc 07 3c 1b 3d a7 f4 bf 3c ce 81 45 3c
       -0.02840466 0.037899043 0.023432089 0.012054874
0000f0 32 94 b0 bc 69 30 5a 3d 53 16 3e 3d e9 c3 c9 bd
       -0.02155504 0.053268824 0.04640801 -0.0985182

layers.1.fn.fn.proj_in.0.bias f4 [256]
000000 7d e6 1a bd 45 e0 8a bd 97 6b f5 3d 42 4f 0b be
       -0.037817467 -0.06781057 0.11983412 -0.13604453
000010 fb e2 c5 bc c9 2e 10 bd 5c 19 e1 3d 6e f9 a6 bc
       -0.024156084 -0.035200868 0.10991165 -0.02038261
000020 68 d2 5c bd a0 ce 85 bd cf f9 7b bd 13 64 fb 3b
       -0.053911597 -0.06533551 -0.061517533 0.007671842
000030 b3 5c eb bb 21 5f d2 bc ce cd 02 3d 51 5c 01 bc
       -0.0071826815 -0.025680127 0.031934552 -0.007895545
000040 0c ef 57 3b 97 a0 e6 3c 62 5e 69 bc 14 36 1b 3d
       0.003294888 0.028152747 -0.014243694 0.03789337
000050 2b 06 4f 3d 3e 8d 26 3e c2 f9 9a 3d 37 15 11 bc
       0.05054299 0.16264817 0.07567169 -0.008855156
000060 0e 6a f3 bc 72 ec b1 3c db 1c 4f 3d dc 97 b2 3c
       -0.029713657 0.021719191 0.050564628 0.021800928
000070 53 f2 b4 3d e8 38 90 bd 00 97 f0 bd bf ba b6 3d
       0.08835282 -0.07042104 -0.11747551 0.08922338
000080 a3 50 88 3d 50 24 1c 3c 1d c5 37 bc 7c cd 9e 3a
       0.06656005 0.009530142 -0.011216429 0.0012115682
000090 22 ef 9e bd b1 3a a8 3c 8f f6 4c 3d 9c d8 07 bd
       -0.07760455 0.020535799 0.050039824 -0.03316556
0000a0 e9 45 4b 3e ea 15 07 bc e2 76 69 3c 51 b6 b2 3c
       0.19850887 -0.008244971 0.014249535 0.02181545
0000b0 0e 17 bd 3a f0 01 27 3d 08 c2 a7 3d 89 bd 45 bc
       0.0014426426 0.040773332 0.081913054 -0.0120691145
0000c0 37 8b e2 3d 56 4e 84 3c 7d eb 4f 3d 4a 67 83 bd
       0.110617094 0.016150635 0.05076169 -0.06416185
0000d0 59 49 bd 3c fb 25 84 3c eb af 18 3d 03 da fa 3d
       0.023106264 0.016131392 0.037277143 0.12248614
0000e0 b6 0c 68 bd 65 fe 81 bd 06 cc a2 3c 56 ba c6 3d
       -0.056652747 -0.0634735 0.019872677 0.097035095
0000f0 87 f9 8b 3c f2 e7 06 3d 50 ca 08 3e ce 64 95 3d
       0.017086757 0.032936044 0.13358426 0.072946176
000100 55 7b 8b bd 90 8a d9 bd a8 80 d6 3b 75 6e 4d bd
       -0.06810633 -0.10622132 0.0065460987 -0.05015417
000110 d9 b3 0d bd e5 f0 f3 bc 48 b2 09 bd 57 b2 b7 3c
       -0.034595344 -0.029777953 -0.033617288 0.022423906
000120 a0 47 45 bb b3 83 94 3d 0b 90 85 3c 5f 61 8b 3d
       -0.0030102506 0.07251682 0.016304037 0.068056814
000130 55 e7 b0 3d 89 d6 cd 3c 36 2a 4e 3d cc 1a a3 bd
       0.08637873 0.025126712 0.050333224 -0.079640955
000140 15 53 23 3c 8e cf 37 3d 16 35 5a 3d 1d fe 13 bd
       0.009968539 0.044875674 0.053273283 -0.036131013
000150 04 2a b2 3b 4d 95 0e bd 9e 49 31 bc 11 8c a1 bc
       0.0054371376 -0.034810353 -0.010820774 -0.01972011
000160 76 ce f2 b8 83 98 e9 3c 3a 97 fc bc 8c 13 76 bd
       -0.000115779156 0.028515106 -0.03083383 -0.060077235
000170 94 b5 3d bc ae 5e 8c bd 79 12 a6 bd 35 fe 6b bd
       -0.011578936 -0.06853996 -0.08108992 -0.057615478
000180 50 c6 ff 3d 46 f1 5a 3d e0 70 6b bd 00 f5 ab bd
       0.12488997 0.053452753 -0.057480693 -0.083963394
000190 f1 2a 22 3d 8b ea 17 bd 3f dc 64 3d 0a 6b 97 bc
       0.039591733 -0.037088912 0.055874106 -0.018483657
0001a0 d9 cd ec 3b 6a 51 55 3d 95 d2 0b be 0d ff ed bc
       0.0072266874 0.052079596 -0.1365455 -0.029052282
0001b0 ce 29 5c bc 2e dd bf bd ee d5 c5 3d 8e a5 e9 bc
       -0.013437701 -0.093683586 0.096599445 -0.028521325
0001c0 71 eb 06 3c 76 84 0c 3d da d8 b1 bd c2 72 3b 3d
       0.008234845 0.034306012 -0.08683939 0.04576374
0001d0 f4 70 7c 3d 5e ca 86 3d df e9 6b bd 98 c6 ad 3c
       0.061631158 0.06581567 -0.057596084 0.021212861
0001e0 d9 83 45 bd 05 45 de 3c dd 73 64 bd 21 93 50 3c
       -0.048221443 0.02713252 -0.05577456 0.012730391
0001f0 c7 87 5c bd 0b b1 9d bd b8 45 1f bd fd 51 4f bd
       -0.053840425 -0.07699784 -0.03888485 -0.0506153
000200 ad fa da bc 24 d6 75 bd 71 c5 30 3c 9b bd 5b bd
       -0.02673086 -0.060018674 0.010789261 -0.05364762
000210 d3 16 c7 bc 60 86 aa bd 1d d8 65 bd d2 19 17 bd
       -0.024302876 -0.08326411 -0.056114305 -0.03688986
000220 c4 b9 c6 bd a9 cd a9 3c ad 37 84 3e e8 db 81 bd
       -0.09703401 0.02072795 0.25823727 -0.06340772
000230 0d 9f 40 bd db 97 d0 bc 80 d7 94 3d 2a 23 9b bc
       -0.047026683 -0.025463035 0.07267666 -0.018937666
000240 a4 7a 79 3d 54 6a 1c bd 78 9d 39 3c 70 f8 b9 bd
       0.060907975 -0.03818734 0.011329047 -0.09080589
000250 98 29 90 bd d0 b8 2a bc f6 6e 2f bd b0 51 d7 3b
       -0.070391834 -0.010420039 -0.04283043 0.006571017
000260 f0 77 3b 3c 1d bd 8a 3c 99 ec 61 bd 66 eb 81 bc
       0.01144217 0.01693588 -0.055157278 -0.015859317
000270 2d da 19 bd e5 83 4b bd bc d6 b2 bd d2 72 a9 bc
       -0.037561584 -0.04968633 -0.087323636 -0.020684633
000280 c1 a0 ac bc 74 a3 2a bc 7f 3a 18 bd 0b 63 d3 3b
       -0.021072747 -0.010414947 -0.03716516 0.006451016
000290 8d 07 2f be de 59 1e bd 30 2c 0a bd 5b eb 2d 3b
       -0.17092724 -0.038659923 -0.033733547 0.0026537988
0002a0 63 d2 9d 3c 63 e4 80 bd 85 45 4a bd ed 21 9a 3a
       0.01926536 -0.06293561 -0.049382705 0.0011759378
0002b0 50 50 f1 bc da c4 92 3d 37 ca e5 bc fb a2 a7 bd
       -0.029457241 0.07166453 -0.028050525 -0.08185383
0002c0 28 ad c6 bd de 00 26 bd 77 90 24 bc 2b 7e 40 bd
       -0.09700996 -0.04052817 -0.010044209 -0.046995323
0002d0 b3 09 2c 3c 60 4a 31 bd 01 2a e7 bd 23 71 9e bc
       0.010500359 -0.04328382 -0.112873085 -0.019341057
0002e0 21 45 09 3c 74 8c e6 ba 80 e5 8d bc cd 28 6e bc
       0.008378298 -0.0017589466 -0.017321348 -0.014536095
0002f0 d4 ca e4 bd de cd f3 bc a2 a3 15 3d da 07 d0 3c
       -0.11171499 -0.029761251 0.036533006 0.025394369
000300 d6 5c f9 bd 69 9d 36 bd 0d 26 95 bd cc 5c 3e bd
       -0.1217591 -0.04458371 -0.07282648 -0.046475217
000310 63 94 5a bd d2 dd 02 3d 1b 24 c7 3c 34 5e 8d 3d
       -0.05336417 0.031949826 0.024309209 0.069027334
000320 13 f5 cd bc 4c 45 26 3c 63 32 1d bd c1 d1 ed bb
       -0.025141275 0.010148358 -0.03837813 -0.0072576706
000330 e9 60 df 3c fe 99 aa bc 85 fe 09 bd 26 7e e2 3c
       0.02726789 -0.020825382 -0.033689994 0.027648043
000340 82 42 e7 bc 56 f7 ae 3c 14 a6 f6 bd 8c af a4 3c
       -0.028229956 0.021358173 -0.12043396 0.020103239
000350 b1 e0 c8 3c b3 50 77 3c 01 3b 5c bc 25 2f 9d bc
       0.024521204 0.015094924 -0.013441802 -0.01918752
000360 00 99 fd bc 5e 0a 78 bc 74 ba f3 3b 8c 78 83 bd
       -0.030956745 -0.0151391905 0.0074379984 -0.06419477
000370 6d 4b 10 bd 2e 65 23 3d fa 94 08 bd 87 76 90 bb
       -0.03522818 0.039891414 -0.0333452 -0.004408661
000380 5f a5 74 bb 0c 78 63 3c 71 35 81 bd 84 a6 3e bd
       -0.0037330014 0.013883602 -0.06309021 -0.04654552
000390 2d 5e 8a bd a6 8c 11 3e a1 f6 b2 bd c6 d5 59 3c
       -0.06756244 0.1421381 -0.08738447 0.013295596
0003a0 a9 72 58 3d cd 6e 13 bb 4c e5 c0 bd 65 2b b0 bd
       0.052843723 -0.0022496462 -0.09418735 -0.08602027
0003b0 a6 c5 f2 bc 60 21 09 bd 75 be 5b bd b1 c0 d4 bd
       -0.029635262 -0.033479095 -0.05364843 -0.103883155
0003c0 31 b3 58 bd 79 dc 4d bd 4f 5b 97 bc 1b e4 50 bd
       -0.052905265 -0.050259087 -0.018476157 -0.05099879
0003d0 d8 78 b3 bc e7 0d aa b9 52 de b1 bc 5b 83 5f 3c
       -0.021908209 -0.00032435285 -0.021712456 0.013642157
0003e0 df e2 98 bd 62 85 50 3b 5d 69 b7 bc 5a 53 b1 bb
       -0.07465147 0.0031817784 -0.022389108 -0.0054115476
0003f0 c9 e3 3c bd fa 61 82 3e 4a 5a 3c 3d 71 50 4e bc
       -0.04611567 0.25465375 0.045984544 -0.012592421

layers.1.fn.fn.sgu.norm.weight f4 [128]
000000 05 2f 1c 3e fa 51 e5 3d f3 b3 1a 3e 69 ee 9b 3d
       0.15252312 0.111972764 0.15107708 0.076138325
000010 a8 23 11 3e 1f 08 84 3d 7f cd 0d 3e ca 40 3c 3d
       0.14173758 0.064468615 0.13847922 0.045960225
000020 8f 98 6a 3d f6 ce 1e 3e 5c 53 9d 3c cc aa 39 3e
       0.057274397 0.15508637 0.019204788 0.1813156
000030 b1 f7 d5 3d 65 0d 17 3e b7 dc b7 3d 14 30 c1 3d
       0.10447634 0.14751203 0.08977645 0.09432998
000040 27 b2 04 3e bf 18 12 3e 5d e2 d0 3d 9c 51 9f 3d
       0.12958585 0.14267252 0.10199425 0.07779238
000050 9c 7f c0 3d ec 3e 38 3e 8d cc 1d 3e ee 61 fd 3d
       0.093993396 0.17992753 0.15410061 0.12372194
000060 dc d3 d7 3d 5a db 06 3e 5e 1c 85 3d e0 05 02 3e
       0.10538456 0.13169613 0.06499551 0.12697554
000070 c5 13 2f 3e ce 98 7f 3d 3d a3 db 3d 29 39 06 3e
       0.17097385 0.062401585 0.107244946 0.13107742
000080 92 94 0b 3e 28 3e f2 3d d6 e3 bc 3d 4f 32 09 3e
       0.13630894 0.118282616 0.09223144 0.13398097
000090 44 00 8a 3d 6f 39 f8 3d d4 8b 21 3e 04 91 0e 3e
       0.06738332 0.121203296 0.15775996 0.13922507
0000a0 b8 d7 38 3e b6 36 0a 3e d4 5c 15 3e 6c a2 98 3d
       0.1805104 0.13497433 0.14586192 0.074528545
0000b0 58 05 3c bc 4a 4c da 3d d5 b2 ba 3d 24 5f 00 3e
       -0.011475883 0.10659082 0.09116141 0.12536293
0000c0 00 a1 45 3e 76 2c 9d 3d 99 56 11 3e 50 5c e5 3d
       0.19299698 0.07674496 0.1419319 0.11199248
0000d0 b7 9f ed 3d 8e 34 1b 3e 0a 7a b9 3d ee 7f 24 3e
       0.11602729 0.15156767 0.0905648 0.16064426
0000e0 e2 ce 03 3e 6f 56 ca 3d fb cc 43 3e b3 6d 8b 3d
       0.12871888 0.09879767 0.19121163 0.06808033
0000f0 cf ff eb 3d 1f 73 0f 3d c7 17 0a 3e ee 38 04 3e
       0.11523401 0.035021897 0.13485633 0.12912342
000100 74 f7 a3 3d f9 aa 26 3e d5 43 9c 3d a2 d4 15 3e
       0.08006182 0.16276158 0.076301254 0.14631894
000110 29 91 06 3e 15 c3 c2 3d 7b 64 15 3e 2d 75 08 3e
       0.13141312 0.09509865 0.14589112 0.13325949
000120 51 51 05 3e f7 69 1b 3e 8c 85 10 3e f4 66 1f 3e
       0.13019301 0.15177141 0.14113444 0.15566617
000130 51 67 20 3e ae d1 04 3e 21 8e 2b 3d bc b1 1d 3e
       0.15664412 0.12970611 0.04188359 0.15399832
000140 90 38 13 3e 1f 97 55 3d 4d d5 b9 3d 5f ea a6 3d
       0.14377046 0.052146073 0.09073887 0.081501715
000150 56 89 03 3e 7e 71 da 3d 51 ad 1b 3e 20 a6 e5 3d
       0.12845358 0.10666178 0.15202834 0.112133265
000160 cb b5 f4 3d 12 40 c3 3d c2 b4 0d 3e 7d 20 ae 3d
       0.11948737 0.09533705 0.13838485 0.085022904
000170 e3 71 11 3e b4 81 c7 3d d1 b7 ee 3d f0 99 85 3d
       0.142036 0.09741536 0.11656154 0.06523502
000180 87 7a 00 3e f3 56 09 3e f5 1f d5 3d 85 67 dc 3d
       0.1254674 0.13412075 0.10406486 0.10761932
000190 ad 87 f9 3d 06 b2 3e 3d 2d 36 b0 3d c4 b4 a4 3d
       0.12184081 0.046556495 0.08604083 0.08042291
0001a0 e9 2c 0e 3e 36 4d c2 3d ff 47 84 3d 8c 66 ff 3d
       0.1388432 0.09487383 0.06459045 0.12470731
0001b0 3d 16 06 3e 9e f6 17 3e 41 c5 12 3e b1 70 49 3d
       0.1309442 0.1484017 0.14333059 0.049179737
0001c0 f2 04 1a 3e 29 f0 bf 3d 17 b0 03 3e 0e cb db 3d
       0.15040949 0.09371979 0.12860142 0.10732089
0001d0 e2 d1 1a 3e 6c d4 1d 3d 2b 9f bf 3d 99 d6 0c 3e
       0.15119126 0.03853266 0.09356531 0.13753738
0001e0 ab 3d f8 3d f5 14 00 3e 46 2a b9 3d 53 6f 0f 3e
       0.12121137 0.12507994 0.09041266 0.1400731
0001f0 46 3b c6 3d 2d ee c4 3c c0 4b 1d 3e 7d bf de 3d
       0.09679274 0.024039352 0.15360928 0.10876367

layers.1.fn.fn.sgu.norm.bias f4 [128]
000000 08 c5 43 3d 0d bc 17 bd 95 86 48 3d e6 46 a3 bd
       0.047795326 -0.037044574 0.048956472 -0.07972507
000010 b7 b8 ad bc 3d b4 a2 bc 95 83 d7 3c cf 3d c2 bc
       -0.021206243 -0.019861335 0.02630786 -0.023711113
000020 a1 b1 29 bd 37 4d 46 3c f2 7c f9 bc a5 32 40 3d
       -0.041429166 0.01210337 -0.030455086 0.0469233
000030 21 4d cc 3c fe 66 aa 3c 2b 31 0b bd 84 b4 cc 3c
       0.024939122 0.020801064 -0.033982437 0.02498842
000040 9d 87 14 bc d0 e5 51 bc f3 0e 37 bd 47 e5 c8 bc
       -0.009065536 -0.012811139 -0.04469199 -0.02452339
000050 76 c5 00 bc 1e c0 51 3c 07 93 db 3c e1 d9 e6 bb
       -0.007859578 0.012802152 0.026803507 -0.007045016
000060 d4 04 0d bc a5 53 0c 3b 9b b9 83 bd cf b0 4a 3c
       -0.008607108 0.002141216 -0.06431886 0.012371256
000070 6c ac bd 3c 32 9c 30 3c 8b b1 8e bd d0 d1 8f bd
       0.023153506 0.010779427 -0.069674574 -0.070224404
000080 1d 4e 2a 3c 37 05 ab b9 7b c9 79 bc a5 7b 39 bb
       0.0103946 -0.00032619547 -0.015245791 -0.0028302458
000090 a7 f6 26 bd e5 0f ea bb d5 6b 45 bb e3 63 a3 ba
       -0.04076257 -0.007143008 -0.0030124087 -0.0012465682
0000a0 7f e7 2e 3d 1f 3e bc bc 7a 58 bb bd 54 3b 5e bc
       0.04270124 -0.02297884 -0.09147735 -0.01356395
0000b0 cc a2 c1 bd 1c ba ce 3c 3c b7 5b bc 9b 70 b6 bd
       -0.09454879 0.025235228 -0.013410386 -0.089081965
0000c0 7a 17 52 3c e9 e3 ce bc 18 08 e6 3c ce 15 2a 3c
       0.01282298 -0.02525516 0.028080031 0.010381175
0000d0 74 93 71 bb 08 a0 4d 3c 3c 27 8f bd 28 dc 1e 3d
       -0.003686157 0.012550361 -0.06989905 0.038784176
0000e0 fa 61 a0 bb 50 7c 6d bd 3f ed 9d bc 28 46 80 bd
       -0.004894492 -0.05797988 -0.019278167 -0.06263381
0000f0 85 5e 9c bd c9 23 1f bd ff 62 0a bb 64 88 c7 3c
       -0.07635216 -0.038852487 -0.0021116135 0.024357028
000100 6d 14 05 bd 4e f1 35 3d b8 ef 37 bd 1b 50 1b 3b
       -0.032490183 0.04441958 -0.044906348 0.002369887
000110 cf f4 79 bd 32 bb 3a 3a 57 6f 51 3d 7b 35 bb 3b
       -0.061024483 0.0007123231 0.051131573 0.0057131625
000120 6f 6f fe bb 8d a1 1e 3d 18 26 8a 3c 9d 7c a7 3c
       -0.0077647488 0.038728286 0.016863868 0.020445162
000130 83 34 40 3d 6c a5 2f 3d 66 05 dd bc 66 7e 89 bb
       0.04692508 0.042882368 -0.026980113 -0.004195976
000140 95 4c 29 3d 88 52 17 3d 0a f4 91 bd 68 14 9f bc
       0.0413328 0.036943942 -0.07126625 -0.01941891
000150 ed 92 73 3b b5 fe 3a 3c b1 19 9b 3c bb 6f 31 bb
       0.0037166432 0.011413266 0.018933149 -0.0027074653
000160 b6 e4 76 bd 29 03 9b bc 8e c6 c7 3c 03 78 0f 3c
       -0.06027671 -0.018922405 0.02438667 0.00875664
000170 81 5a 48 bc 3a ef dc 3c 7e 70 fd bc 4f af 2b bd
       -0.012228609 0.02696954 -0.03093743 -0.041915234
000180 75 fd 5e 3d f0 ff 64 3c 1a 1c e6 bc 59 66 8d bc
       0.054440934 0.013977036 -0.028089572 -0.017260717
000190 23 93 12 bd cf 70 1e bd c7 45 8d bd 30 98 6c 3d
       -0.03578485 -0.0386818 -0.068980746 0.057762325
0001a0 06 30 6c 3d 44 d5 22 3d 47 80 9a bd e9 1b 7b 3c
       0.057662986 0.039754167 -0.07543998 0.0153264785
0001b0 5b 35 69 3d 37 df 55 bd 90 5d 23 3d d7 6f ec bc
       0.05693565 -0.052214827 0.03988415 -0.028861923
0001c0 88 73 91 bd 0b 70 7b bc 30 03 6f bc 35 dc 9c 3c
       -0.07102114 -0.015346537 -0.014588162 0.019147972
0001d0 63 65 84 3c 74 68 bd 3d ef 52 99 3a 84 47 a4 bc
       0.016161626 0.092484385 0.001169769 -0.020053633
0001e0 55 8b ce bc 32 2f 08 3b 80 ee f4 bc d7 6e 39 3d
       -0.025212923 0.0020780084 -0.029898882 0.04527172
0001f0 8b bd b4 bb 53 76 04 bb 88 42 5f bc 66 f1 b9 3c
       -0.0055157593 -0.0020212128 -0.013626702 0.022698116
