KWS/Keyword-MLP/checkpoints/issai_small.onnx (onnx, 457192 bytes, 66 tensors)

to_patch_embed.1.bias f4 [32]
00000000: 26a5 06be c920 843d 76d1 5abe d4bd 483d
00000010: 1600 813d a366 d83c a1be 9f3d cd5f df3d
00000020: be99 17be fc7e 11be 2d45 ae3d 5c5b fdbc
00000030: bbac 34bd 7f35 6cbd 4a61 6cbe 6399 d8bc
00000040: 4091 f23d 7479 693d 658e a9bd b51f 0bbe
00000050: ae57 5a3d e8dd 6bbe 98ff 01bd 9934 00be
00000060: 5924 823c 48c4 9c3e 44bd 74bc 7ce2 d73c
00000070: fc48 8dbe 6af1 473d 0d56 543e 4957 89bd
-0.13148937 0.06451566 -0.21368966 0.04900916 0.062988445 0.026416129 0.078000315 0.109069444
-0.14804742 -0.14208597 0.08509288 -0.030927353 -0.04411004 -0.057668205 -0.23083988 -0.026440328
0.118441105 0.057000592 -0.08279113 -0.13586314 0.053306274 -0.2303387 -0.031737894 -0.12520064
0.015886473 0.306185 -0.014937703 0.026353113 -0.27594745 0.048814215 0.20735951 -0.067061014

layers.0.fn.norm.weight f4 [32]
00000000: 8c3e 173f c733 073f c50b 483e 7a79 a23e
00000010: bbed f93e 5b25 ff3e 826e b63e 9889 f83d
00000020: 03d1 613e 1c12 c63e c7d2 e93e af5d 0a3f
00000030: 5429 c53e 8a05 f83e 386e 6e3e 1ed3 983e
00000040: 40d1 e93e df97 0c3f c351 8f3e fb20 c93e
00000050: c6b5 b63e 4f7a c93e cef6 b23e 0875 933e
00000060: 7c17 153e 90ce d73e 78a4 c33e 64de 6a3e
00000070: d043 b43e 57db d53e 50bb 8b3e 6fb1 bc3e
0.59079814 0.5281338 0.1953574 0.31733304 0.48814186 0.49833187 0.35631186 0.12135619
0.22052388 0.3868569 0.45668623 0.540492 0.38508093 0.48441726 0.23284233 0.2984857
0.45667458 0.54919237 0.27992067 0.39282975 0.35685557 0.39351127 0.34953922 0.28800225
0.1455974 0.42149782 0.38211417 0.22936398 0.35207987 0.41768906 0.27291346 0.3685412

layers.0.fn.norm.bias f4 [32]
00000000: 97fb af3c 0e94 24bd b6be 05be dffc 083a
00000010: 9bf2 fbbc 8e3c 32bd 366f 1b3d 85b9 163d
00000020: 6ede b6bd 9687 b0bc 945c adbd a68b 013d
00000030: 8f6b 73bd 345c b83d e165 9bbd 80ad d53d
00000040: c29c 923d eb19 373c b551 80bd 78e8 7abd
00000050: 8445 e53c c63a 33bd 4825 4e3d bb6c 7cbd
00000060: eaf2 cb3c de5e 3ebc 9cf2 f43c 1586 8e3c
00000070: 88e0 e9bd a9c0 4a3c 106d d93d b75b 6b3d
0.021482272 -0.04018026 -0.13061032 0.0005225669 -0.030755332 -0.04351478 0.037947856 0.03679802
-0.08929144 -0.021549027 -0.084649235 0.03162732 -0.059428748 0.09001961 -0.07587791 0.10433483
0.071588054 0.011175613 -0.062655844 -0.061256856 0.02798725 -0.043757223 0.050328523 -0.06162713
0.024896104 -0.011619298 0.029900841 0.01739792 -0.11419779 0.012375035 0.10616505 0.057460513

layers.0.fn.fn.proj_in.0.bias f4 [128]
00000000: c178 9cbd 9d6f 9c3d cc60 d43d 9143 c93d
00000010: 7363 a13b ebdc 313d 83b6 b1bc 40ca c13d
00000020: bab3 213c 979e 2fb9 021b 063e 7bc6 de3c
00000030: 229f af3d b8eb 133d 592c 733d 281f 94bb
00000040: 0091 0bbe cc48 4d3e e1f5 33bd 578a e5bc
00000050: 04d3 10bd b494 723e b59d 6bbd 1913 4dbb
00000060: 1d6b a5bd 5a58 b9bd f7d0 953d 2280 c43d
00000070: 00bc f7bb cb01 0cbe 6b4b adbd 5633 8fbd
00000080: 2247 193d 8b67 71bd 6780 ae3a 8dac 983d
00000090: a9cc a63d ae73 d3bd a483 12be 779b 25bb
000000a0: b7f4 443d 752b 4e3d 037b fa3c 03e7 3cbd
000000b0: 343d 7dbd af7c 3c3e 99e6 683e 8135 8ebd
000000c0: b7b6 d43c 1dc1 81bd 1bad a73b a609 863d
000000d0: 169e 063e 0f48 d73c 7eb1 c7bb 44cc 13be
000000e0: 0b74 113d 2453 c9ba 0abc 51bd 5d37 d83d
000000f0: 7d69 cd3c acce 9fbc b75b 0f3e 7f21 60bc
00000100: bb98 32be 836a 2a3c 36a8 b03e 2daa 1d39
00000110: 6b98 0bbc 6ba3 08bd e275 81bd 8a65 0abe
00000120: 2960 d638 68ee ffbc 90e1 cbbc 0614 2dbc
00000130: 31a7 b83b 9af9 5c3d 47ec 9fbd 245f 243b
00000140: 57a7 683b d54d e43c 4c3e b9bd de92 d8bd
00000150: 6c0a c2bc 3b1d 31bc aae0 a23c c63e 233c
00000160: 7616 0d3c 4092 e2bc ae1d 20bd 34f4 76bd
00000170: 441f 4dbd 87ba 15bd d358 b13d fa88 a6bc
00000180: 3ab7 dcbc a495 5f3e 1823 b7bd e5d9 88bd
00000190: b2ac 403c 0614 e2bc 0b12 d1bc e5fb c83d
000001a0: ed0d 803d 0373 373d 2ded 28bd b2c7 6ebd
000001b0: 9f7e 8e3d d6b5 7fbd cf1b 123d ec72 75b9
000001c0: 235c 5c3d 3ff9 24bd 4668 97bd e435 5cbc
000001d0: 0313 dfbc 9f87 63bd 8211 a1bc 33c1 b3bd
000001e0: 54e1 b7bc 9984 a63c 9bd0 93bd 45f4 3f3d
000001f0: c7e2 47bc b059 da3d a40b 6d3c 939c e3bd
-0.076402195 0.07638476 0.10370025 0.098273404 0.0049251853 0.043423574 -0.021693474 0.09462404
0.00986951 -0.0001674838 0.1309624 0.027194252 0.08575274 0.03611347 0.059368465 -0.0045203157
-0.13629532 0.20047301 -0.04393566 -0.028020067 -0.03535749 0.23689538 -0.057523448 -0.00312919
-0.08077071 -0.09050055 0.073152475 0.09594752 -0.007560253 -0.13672559 -0.084616505 -0.069922134
0.037421353 -0.058936637 0.0013313413 0.074547864 0.081445046 -0.103247985 -0.1430803 -0.0025269666
0.04808494 0.050334413 0.030576235 -0.046118747 -0.061825946 0.18406938 0.22744216 -0.06943799
0.025966031 -0.063356616 0.0051170713 0.06544809 0.13146242 0.026279477 -0.0060941568 -0.1443339
0.035511058 -0.0015359861 -0.05120472 0.10557435 0.025074715 -0.019507729 0.1399983 -0.013679861
-0.17441075 0.010401371 0.34503335 0.00015036082 -0.008520226 -0.033358973 -0.063213125 -0.13515297
0.000102222264 -0.03124161 -0.02488783 -0.010563856 0.005635165 0.053948976 -0.07808738 0.0025081122
0.0035500133 0.027869144 -0.09045085 -0.10574888 -0.02368661 -0.010810192 0.019882519 0.009963697
0.008611312 -0.027657628 -0.039090805 -0.060291484 -0.050078645 -0.03655484 0.0865952 -0.020328987
-0.026942838 0.21834427 -0.089422405 -0.06682185 0.011759924 -0.027597439 -0.025521299 0.0981367
0.06252656 0.044787418 -0.041241813 -0.058295913 0.06957745 -0.06242927 0.03567105 -0.00023407832
0.053798806 -0.040276762 -0.073929355 -0.013440583 -0.027230745 -0.05554926 -0.019661669 -0.08777084
-0.022446312 0.0203269 -0.07217523 0.046863813 -0.012200064 0.10661638 0.014468107 -0.111138485

layers.0.fn.fn.sgu.norm.weight f4 [64]
00000000: 23b9 3c3d 95f5 1e3e 920e c73d 59e5 3c3e
00000010: 6215 2a3e 1101 073e be37 b63d 73d6 f13d
00000020: 122c f73d a770 113e 4d29 313e 8e46 b53c
00000030: 390b 4f3e 6872 283e 13da 283e 31e4 a83d
00000040: 8079 263e 73d1 3d3e c0b8 d93d 6e8f 8e3d
00000050: b7d2 c23d c164 153e 3e45 123e cd95 9f3d
00000060: 9661 ec3d 46df 0f3e d118 1d3e 74c2 0a3e
00000070: 1b57 aa3d 904f 013e 8961 cc3d c79e c43d
00000080: 82f6 0a3e 8b66 a73d 7573 aa3d 56f2 283e
00000090: 5151 413e 87b7 d33d a47d c93d 46c3 083e
000000a0: 92fe 343e 82de 9f3d 32bd 1c3e 78b2 0f3e
000000b0: 0c54 26bd e5a1 0d3e 5c9d 4d3e 126e aa3c
000000c0: 6cf2 213e abb5 ef3d 8543 133e 853f 083e
000000d0: d978 273e c56d ee3d cf67 523e 8c28 103e
000000e0: 6e6a 103e 46ba 823d 07c5 f83d f9e9 0e3e
000000f0: 6dc2 ad3d 6d2c 293d e5d2 0e3e 4787 e53d
0.046074998 0.1552337 0.09719576 0.18446864 0.1660972 0.13184 0.08897351 0.11808481
0.120689526 0.1420313 0.17300911 0.02212837 0.20219125 0.16449893 0.16489439 0.08246649
0.16257286 0.1853693 0.106309414 0.06960951 0.09512847 0.14589216 0.14284226 0.07792244
0.115420505 0.14050016 0.15341498 0.1355074 0.08317395 0.12628007 0.09979541 0.09600597
0.13570598 0.081738554 0.08322803 0.16498694 0.18878676 0.103377394 0.09838417 0.13355741
0.17675236 0.07806112 0.15306547 0.14032924 -0.040607497 0.13831289 0.20079559 0.020804439
0.15815133 0.11704572 0.14381225 0.13305481 0.16354693 0.116420306 0.20547412 0.14077967
0.141031 0.06383185 0.12146955 0.13956441 0.084843494 0.041302133 0.13947637 0.11207443

layers.0.fn.fn.sgu.norm.bias f4 [64]
00000000: 6a49 983d 75e4 bb3c 0388 c4bc 020c e23c
00000010: f416 ff3c 56d6 483c e063 d53d 36c2 6f3c
00000020: 6e2b d0bc 1050 113d 2e7f c2bc 122a 913d
00000030: d337 86bc d29f dbbc 44c9 a23b 9d81 58bb
00000040: 803e 463d 3963 8f3d 44c3 94bc b1d9 4e3c
00000050: c32b b4bd a869 9a3d 5819 1e3d 526d c8bc
00000060: 9d1b 32bd 7a46 bebc 7ce4 0cbd c318 8c3c
00000070: db9e 3a3d a260 3f3d e75d 383d d636 bd3d
00000080: b690 34bd 9c9d 3d3e 4abc b33d dbbb 343c
00000090: 95f0 293c 7a3e 463d 46b7 843d 0cfa 273d
000000a0: 69f4 38bc b095 863d 036c 0d3d 862c b13c
000000b0: 9f6a a43d 55ba 133d 02ea b03c fced b53d
000000c0: 2625 cfbc 32a2 403d ddf6 9a3c ae46 05bc
000000d0: 7d6a 20bb 65a2 eabc 9150 c13d 85e9 bebc
000000e0: 361f 253b eb0e 8b3d e26e 113d f299 f8bb
000000f0: 2fde cd3c 64f4 24bd a199 0f3d 0c52 313d
0.074358776 0.022936085 -0.023990637 0.027593616 0.031138875 0.012258133 0.1041944 0.014633706
-0.025411334 0.035476744 -0.023742285 0.070881024 -0.016384041 -0.026809607 0.0049678404 -0.003303624
0.04839945 0.07001347 -0.018159516 0.012625144 -0.087974094 0.075396836 0.03859839 -0.02446619
-0.043483365 -0.023226965 -0.034397587 0.017101651 0.045561653 0.046723016 0.045011427 0.09238975
-0.04408332 0.18517154 0.08776148 0.011031116 0.010372301 0.048399426 0.06480269 0.041009948
-0.011288741 0.065715194 0.034526836 0.021627676 0.08028149 0.036066372 0.021595959 0.088832825
-0.025286268 0.04702968 0.018916542 -0.008134527 -0.0024477534 -0.028641889 0.09439195 -0.02330471
0.0025195605 0.06789955 0.035506137 -0.007586711 0.02513036 -0.04027213 0.03505862 0.043291137

layers.0.fn.fn.sgu.proj.weight f4 [98, 98, 1]
00000000: 027a 163e 0e64 a93d 444f 793d 0196 2bbd
00000010: 1cfb 48bc 1837 003b 80e6 e43c 07ce fa3c
00000020: b70b 853b 00e3 68bc 8145 a6bc 691b 3b3c
00000030: 9d37 9f3c 68e4 d4bb 9558 7a3d 200b 923d
00000040: 2cb5 0ebd 169b 87bc 0208 43bd 804b 26bd
00000050: acc4 27bd 2d27 c2bd 72bc f1bd 7aa8 acbd
00000060: 5770 63bd c947 71bd bf25 44bc 0429 e83c
00000070: b5a5 cd3c 9cf6 223d a099 813b b867 a2bc
00000080: 9c88 c0bc af38 5bbc 3265 9cbb 17ae 7ebc
00000090: 67fa a23c 3d72 5abb c39a 853d 7351 193d
000000a0: 9ff9 0dbd 9b2f 2c3d bd98 ebbb 6877 1bbc
000000b0: 825d 433d 57a6 e13c 8257 893c 3512 523c
000000c0: c118 473d 2432 5f3d ec4f 883d e977 963c
000000d0: 9da7 c43c 7946 603c d3c6 933b b916 b73c
000000e0: b3e5 693d ba01 843c b07f b43c dae9 bc3c
000000f0: f90e 9f39 41c2 083d 296a 0f3d 15b7 703c
00000100: 735a d2bc b382 1c3d b68b 1c3d b796 9c3c
00000110: 6f0e b13d 2d14 aa3d 74b2 973d 555e c83d
00000120: b1a6 943d 1e60 733d bb1b f6bb 3239 d63c
00000130: 3ca3 b03d a3ad 023e ae2f 003e 6578 d73d
00000140: f89b 9e3d dc44 8c3d d59b 043d 0863 9b3d
00000150: 18ed 823d 0eb6 413d 3e99 673d 8a8f 013d
00000160: ae2e fc3c a55a 843d 529f 483d 2387 a63c
00000170: 7cca c738 cb2b aabb c672 da3c 6f4b 503d
00000180: f520 6f3d aeee 543d 0201 1e3e 7ab5 9e3d
00000190: ce21 473d e180 5abd e3c7 9cbd 05f0 803a
000001a0: 8fc1 343c 2286 17bd 1a7b b4bd 3673 0fbe
000001b0: 6561 0fbe 5683 d8bd 01a9 b7bd 2f34 2abd
000001c0: ecc2 04bc 3d68 8f3c f5f9 36bc e49e 36bc
000001d0: c90e 81bd ba12 bbbc 2d89 09bd c68b 94bd
000001e0: 3ba7 8abd 7c56 b3bb c69e b13c b568 b83c
000001f0: afe6 b53d 65ba 643d 06f9 dd3c 8ad9 d9bc
00000200: 048e efbc a67c 3cbc caa5 a1bc 2728 6cbd
00000210: 7865 c2bc d0ec 28bc 530c 25bd 03e6 b3bd
00000220: 4bc9 54bc 3813 303c 86db c8bc 66c1 9e3b
00000230: 6f82 04bd 4c06 6c3c 142e 29bd 26f9 8fbd
00000240: 4ac0 c5bd adf1 e2bd e58e 9cbd 9d20 81bd
00000250: 9fe8 73bc 3683 89bd 0201 15bd 100a 61bd
00000260: dff2 a8bd e32e 03bd c0b4 73bd 30e2 acbc
00000270: e391 26bd aef5 dbbc 332d 83bd 8bcb 43bd
00000280: aeca e5bc 90c5 23bd d5ca 7ebb 8208 b23c
00000290: 0543 bdbb 1ec5 eb3b 044b 0f3d 849b 253d
000002a0: a756 87bc 10e3 7b3d 8ef8 d13b 673c 4dbd
000002b0: a921 83bd 45a7 4cbd b94d e6bc 25ca 29bc
000002c0: f093 423c c251 db3c d748 4fbc 584e 123d
000002d0: 06ff 043d 31da b53c f395 f63c 16e7 873b
000002e0: ddae adbb 6131 d83c e518 ae3c 42ee d73c
000002f0: 588f e63c 8990 043d 3da0 503d e41d 133d
00000300: f4d2 593d 82c1 903d 7f0e a03d 618e a33d
00000310: 7e8a 763e 499d 433e a87b 983c c0ef 54bd
00000320: af15 d0bd 94a1 88bc 4d9d ccbb bd5c 1dbd
00000330: ae3d 8c3c d09d db3b 553d 08bd e903 46bd
00000340: 202e a9bc d1ed 1abd a77c a9bb 2d58 0c3d
00000350: e0a8 ac3b b015 7a3c 0d18 e0ba 7962 eebb
00000360: 0f37 08bd febd 71bd bb43 71bc 79d2 13ba
00000370: 3f80 34bd 94c6 17bd 64ca 0bbd 1f1a 5bbd
00000380: 9bd2 11bd d407 51bd f988 63bc 6fe3 2a3d
00000390: d2e0 57bc 8ac7 b9bc 41d0 d93c 3ed1 7c3d
000003a0: e526 643c dbb7 963c b035 c73c e2fb e7bb
000003b0: 2974 603d e4d8 a73d 1b41 8c3c 12de a7bc
000003c0: cd53 033d 9ddc f7bb 9645 393c 3ee3 aa3c
000003d0: 9a1f 6c3d 93fe 833d 500a 853d 763f 983b
000003e0: 259a 13bd f53d a7bc 8acd 59bb 4e52 3e3d
000003f0: d625 7b3d 6cef d83c 96d4 cd3d 2cd9 bd3d
0.1469498 0.08271037 0.06086661 -0.0418911 -0.0122669 0.0019564088 0.027941942 0.03061582
0.0040602344 -0.014214277 -0.020296814 0.011420109 0.019435698 -0.0064969547 0.061119635 0.07131028
-0.034840748 -0.016553443 -0.04761506 -0.040599346 -0.040959045 -0.094801284 -0.11803521 -0.08430572
-0.055527057 -0.05890635 -0.01197189 0.02833987 0.02510343 0.039785966 0.003955081 -0.019824848
-0.02350264 -0.013380214 -0.0047728056 -0.015544436 0.019894792 -0.0033332251 0.06523659 0.03743119
-0.034661885 0.042037588 -0.0071898387 -0.009488918 0.047696598 0.027545137 0.01676536 0.012821724
0.04860759 0.054491177 0.06655869 0.018367724 0.024005705 0.013688677 0.0045097857 0.022349702
0.057103824 0.016114105 0.022033542 0.023060728 0.00030338 0.03338838 0.03501335 0.014692088
-0.025677895 0.038210582 0.038219176 0.019114835 0.08645331 0.083046295 0.07407084 0.097836174
0.07258356 0.059417836 -0.00751063 0.02615032 0.086248845 0.1276155 0.12518188 0.1052101
0.077445924 0.068490714 0.032375176 0.07587248 0.06392878 0.04729276 0.056542628 0.03163103
0.030783977 0.064626016 0.048980065 0.02032811 9.526775e-05 -0.005193209 0.026666056 0.05085319
0.05838104 0.051985435 0.15430072 0.07749458 0.048616223 -0.053345565 -0.07655313 0.0009837156
0.011032476 -0.036993153 -0.08812542 -0.14008793 -0.14001997 -0.10571925 -0.08967782 -0.041553672
-0.008103114 0.01750576 -0.011167993 -0.011146281 -0.06301648 -0.022836078 -0.033578087 -0.07253222
-0.06770178 -0.005472956 0.021682154 0.022510866 0.0888189 0.055841822 0.027096283 -0.026592989
-0.029242523 -0.011504328 -0.019732375 -0.05765548 -0.023730025 -0.010310367 -0.040294956 -0.08784106
-0.012987445 0.01074677 -0.02451874 0.0048448322 -0.032350954 0.014405798 -0.04130371 -0.07029943
-0.09655817 -0.11081252 -0.076444425 -0.063050486 -0.014887004 -0.067144796 -0.036377914 -0.054941237
-0.08249449 -0.032027137 -0.05949855 -0.021103948 -0.040666472 -0.026850548 -0.064051054 -0.047801536
-0.028050747 -0.039983332 -0.0038878222 0.021732572 -0.0057758116 0.007195129 0.03498365 0.040431514
-0.016520811 0.06149584 0.006407804 -0.050106432 -0.064029045 -0.04996421 -0.028113233 -0.010363136
0.011876091 0.026772384 -0.012651644 0.035719246 0.03246977 0.022198768 0.030100798 0.0041474206
-0.0053003863 0.026390733 0.021252105 0.026358727 0.028144524 0.032364402 0.050934065 0.035917178
0.053179696 0.07068159 0.07815265 0.07986141 0.24076268 0.19102968 0.018613651 -0.051986456
-0.10160386 -0.016678609 -0.0062443377 -0.03841852 0.017119255 0.0067021623 -0.033261616 -0.048343573
-0.020651877 -0.037824456 -0.0051723304 0.03426378 0.005269155 0.01526396 -0.0017097011 -0.0072749224
-0.033255633 -0.05901908 -0.014725621 -0.0005638968 -0.044067618 -0.037054613 -0.03412856 -0.053491708
-0.03560124 -0.051032856 -0.013887637 0.041720804 -0.01317616 -0.022678155 0.026588561 0.061722986
0.013925289 0.018398216 0.024317592 -0.0070795873 0.05479828 0.081956655 0.017120888 -0.020491634
0.03206234 -0.007564141 0.0113080945 0.02086031 0.057647325 0.064450406 0.064961076 0.004646237
-0.036035676 -0.020415286 -0.0033234083 0.04646521 0.06131538 0.026481353 0.10050313 0.09269938

layers.0.fn.fn.sgu.proj.bias f4 [98]
00000000: 66db ce3d e137 5e3d 926c ac3d b04e 673d
00000010: 4ac2 eb3d f91e 0e3e 4661 a83d 58b3 153c
00000020: 1e60 ad3d eac4 a03d f713 783d d8dd 463d
00000030: cf92 673d ab21 753d 053f d83d 2d73 d53d
00000040: 6d44 993d 9e2b 5c3d 2d56 203d 1abb 383d
00000050: e68f 7d3d 39f4 413c 1cd5 243c 74ab 283d
00000060: 097a 163d 5795 e33c 347e 8f3c 1877 363d
00000070: 8d4c 0b3d 17e1 c93c 6799 ae3d 11a0 4c3a
00000080: c1b2 cd3d 5333 cb3d 7b9b 003d 2a9a 583d
00000090: db55 393d 6ecc 8e3d 56f4 bb3d 6b7e ff3d
000000a0: 5e70 a43d db5f a43d 5a93 393d 3ff5 933d
000000b0: 9e75 8f3d 1dc1 f43c dcb5 c03d fc5c a83d
000000c0: 9831 cb3c 5878 ec3b aed7 843d b42c c73d
000000d0: 59c2 8e3d 3375 8c3d c2a6 7f3d 9cd4 c43d
000000e0: 617e bc3d e9d0 d63d 73da 103d c476 4cbc
000000f0: 967f e13d d910 1c3d 71f8 513c eb0f 073e
00000100: 9383 c23d f7a2 4b3d cf79 bf3d a6d1 553d
00000110: 26c1 983d c5a5 423d 685d cf3d 650c 173d
00000120: 41d5 193e ec2c ea3d 3740 2f3e 9090 dc3d
00000130: 424d a93d bac1 c33d 2036 a73d 1927 163e
00000140: 7998 053e 7e75 f23d f88c 263d 6ae9 d93d
00000150: 5a30 453d 8a43 c63c e2d2 c23d 7288 fa3d
00000160: 9fc5 f93d 1026 ed3d 95cc d73d c483 9b3d
00000170: 2e7c 883d c505 ee3d c905 e63d fe56 6f3d
00000180: ded3 d13d fd0c eb3d
0.10100441 0.05425251 0.08419146 0.056471527 0.11511667 0.13879003 0.082216784 0.009136997
0.084655985 0.078500584 0.060565915 0.04855141 0.056536492 0.05984656 0.10558895 0.10422359
0.07483754 0.053752534 0.039144684 0.04510031 0.06190481 0.011838012 0.010060575 0.041179135
0.036737476 0.027781172 0.017516233 0.04454717 0.03400855 0.024643464 0.08525353 0.0007805834
0.1004386 0.09921899 0.031398278 0.052881397 0.045247894 0.069725856 0.09177463 0.12475284
0.08029245 0.080260955 0.04530654 0.07224511 0.070048556 0.02987724 0.09409687 0.0822086
0.024803922 0.0072164945 0.0648645 0.09725323 0.069706626 0.068582915 0.062414892 0.096108645
0.09203792 0.10489065 0.03536458 -0.012479488 0.11010663 0.038102005 0.012815581 0.13189666
0.09497752 0.049715962 0.09349405 0.05220189 0.07458715 0.04752137 0.10125238 0.036877055
0.15022756 0.114343494 0.1711434 0.107697606 0.08266689 0.09558435 0.081646204 0.14663352
0.13046445 0.11838816 0.040661782 0.10640223 0.048141815 0.024202127 0.09512879 0.12233056
0.12195896 0.115795255 0.10537068 0.07593492 0.066643104 0.11622194 0.11231572 0.05843257
0.102454886 0.11477087

layers.0.fn.fn.proj_out.bias f4 [32]
00000000: e7b8 a53a 4e27 843b f6b6 fdbc bd4e a43c
00000010: ffc4 823c 69e2 72bb 0aab 4d3a a82c 9d3c
00000020: bd75 20bc 1b7b 6d3a b4b9 e7bc 1294 8cbc
00000030: 29e3 2bbb 2ff9 22bc 4600 05bc da65 ae3c
00000040: 2deb 293c 169e 8a3b ab98 96bc 9182 eaba
00000050: 068b 46bc 9fcc d6bb 40b7 fb3b a866 52bc
00000060: bd93 df3b f0f9 963b b8b6 f73c 90e6 96bb
00000070: 1966 90bc a999 a93c a20c 983c 6344 613c
0.0012643606 0.004033006 -0.030971032 0.020057077 0.015963076 -0.003706122 0.0007845616 0.019186333
-0.009793696 0.00090591767 -0.028286792 -0.01716045 -0.0026227927 -0.009947105 -0.008117741 0.021288801
0.010371012 0.004230271 -0.018383345 -0.0017891695 -0.012118107 -0.0065551545 0.007681757 -0.012841858
0.0068230317 0.0046074316 0.030238494 -0.004605122 -0.017626809 0.020703154 0.018560711 0.013749215

layers.1.fn.norm.weight f4 [32]
00000000: 49b5 1e3f 7e5e f93e 12f3 d83d 2a97 973e
00000010: 04f6 c03e 57a6 123f b42c 453e 16d6 253e
00000020: fa00 963e 7b6e b63e d2d7 f73e 1380 bc3e
00000030: 4a52 8a3e 363b ca3e a739 373e 0d83 a33e
00000040: 9168 ab3e 67f4 b43e 1bb4 853e 2dd5 0a3e
00000050: 610d 663e 3f13 593e e369 8b3e bdee cb3e
00000060: b30a 883e fec7 9f3e d32b 973e 683b 163e
00000070: f595 b63e 3092 dd3e ab48 c13e 7d90 973e
0.6199537 0.48704904 0.10593237 0.29607517 0.37687695 0.57285064 0.19255334 0.16194949
0.2929762 0.35631165 0.48406845 0.36816463 0.27015907 0.394983 0.17893086 0.3193592
0.33478215 0.35342714 0.26113972 0.13557883 0.22466041 0.21198748 0.27229223 0.3983058
0.26570663 0.3120727 0.29525623 0.14671099 0.35661283 0.43275595 0.37750754 0.29602423

layers.1.fn.norm.bias f4 [32]
00000000: 5b4f bb3c 2d95 48bc 7568 95bd d7b7 ccbc
00000010: 3649 03bd 421d 273b 4dcd d23d f10c 3c3b
00000020: 175d 94bc f991 933c a6d8 e5bc 7807 c4bb
00000030: 4f72 dcbc cd5e 863d 7105 08be 092d 66bd
00000040: adaa 823d 5ce2 193d 5770 fabc 282b d4bc
00000050: dce6 5a3c dd49 0bbe 7571 61bc a34f 79bd
00000060: 0c71 c1bc 0446 693d 6a51 243d e086 e3bc
00000070: a829 a6bd dce2 36bd f5b0 813d 7b33 883c
0.022864988 -0.0122425975 -0.07295314 -0.024990005 -0.03205224 0.0025499617 0.10293064 0.0028694237
-0.018110795 0.018013941 -0.028057408 -0.0059823357 -0.026909975 0.065610506 -0.13283326 -0.056195293
0.0638021 0.03756939 -0.030571146 -0.025899485 0.013360705 -0.13602395 -0.01375996 -0.060866963
-0.023613475 0.056951538 0.040116705 -0.027774274 -0.08113414 -0.044649944 0.0633258 0.01662611

layers.1.fn.fn.proj_in.0.bias f4 [128]
00000000: 6c13 4e3d 6388 3c3d d4ae 2e3d daf6 643a
00000010: d360 a83d b7e9 a73d d4fe 82bc 1ee3 a73c
00000020: fa41 07bd 96f5 15bd 2968 1b3e e430 8d3c
00000030: 554f 6a3d 3177 e23d c133 de3d 46d2 eebd
00000040: fafd b2bd ee6b 153d e6c8 dc3d f346 4b3d
00000050: 4d4f 79bd 032a 463e 631a e5bc 8c0f a73b
00000060: 71e4 a3bd 5ee3 82bd 73a1 8f3d 1f6d acbd
00000070: f1aa aabc 9de7 133b 6820 e8bc 8415 ce3c
00000080: 2496 633d 561f 32bd aa8f 52bd 2d1d 48bc
00000090: 6f39 093e 508c 78bd 2f74 773c c7cd 2d3e
000000a0: 141a 50bd d0b7 e43c 59b4 07bd 8f7f 963d
000000b0: fad9 423c c0c6 de3c 0abb a83d 0ff7 563d
000000c0: 00de 0e3d b9a7 423d 51f3 263d 0c3b b5bc
000000d0: 5e1b 1ebb 0de1 9fbd fcd6 bb3d e9cd 20bc
000000e0: 47df 87bd fd71 fb3c 2907 ad3d 7684 e23d
000000f0: 20d1 93bc 92bc 853d a75e ff3c 4a0c 30be
00000100: 6aa3 43bd 732c d7ba b1ff 4a3c 9c95 2dbc
00000110: a02d b23c 87d6 f6bc d890 75bc bfe9 bcbb
00000120: b8e7 98bc d75c 0ebd adb7 b7bd e41a c43b
00000130: a6df 0e3d 8e58 d33b 9e2a a1bc 70d9 313d
00000140: a136 853d 3475 cebd 6052 34bd 0456 9b3c
00000150: 79a8 ebbd 1c2f c7bd 88c4 7dbc 32dd 733d
00000160: fae9 a5bd b082 79bd b571 d33d d752 ddbc
00000170: 4738 b0bc dfcd cfbc f9dc dfbc 9017 36bd
00000180: 0360 a8bd 06e7 26bd 9aea 89bd 5b59 813e
00000190: 8585 1dbd e12d b0bd d4b0 c2bd 09f5 d93b
000001a0: 1314 7abc 3f03 11bd caeb 6ebd 9b32 2bbb
000001b0: 5c87 673b 1bf5 b6bd 9180 08bd 521d 5a3b
000001c0: cd22 b6b8 28ab 23bd 552c e3bc 9dd4 c0bc
000001d0: 1114 bb3e a133 4a3d 9b64 01bd 1f83 a03e
000001e0: 41c8 fdbb cb34 c03e 36c3 77bc b179 9bbd
000001f0: 1b33 f9bb e8b6 4abd 1854 b83b 4ede dbbd
0.05031149 0.046028506 0.042647198 0.00087342935 0.08221593 0.081988744 -0.015990652 0.02049404
-0.033021905 -0.036611162 0.15176453 0.017235227 0.057204563 0.1105789 0.10849715 -0.116612
-0.087398484 0.036479883 0.10780506 0.04962821 -0.060866643 0.19351964 -0.027966684 0.005098289
-0.08002556 -0.06391023 0.07013216 -0.08419251 -0.020833464 0.0022568472 -0.028335765 0.025156744
0.055563107 -0.043486916 -0.05140654 -0.012213987 0.13400815 -0.060680687 0.015103384 0.16973029
-0.05080612 0.02791968 -0.033130977 0.073485486 0.01189279 0.02719438 0.082388 0.052481707
0.034879684 0.047523234 0.04075939 -0.022122882 -0.0024125199 -0.07806597 0.091718644 -0.009814718
-0.06634384 0.030694002 0.08448631 0.11060421 -0.018044055 0.065301076 0.031173063 -0.17192188
-0.047763266 -0.0016416445 0.012390063 -0.010594752 0.021750271 -0.030131591 -0.014988147 -0.0057651694
-0.01866518 -0.034756508 -0.0897058 0.005984651 0.034881257 0.0064497655 -0.019673642 0.043420255
0.0650456 -0.100809485 -0.04402387 0.018961914 -0.11506743 -0.09725782 -0.015488751 0.05953712
-0.08101268 -0.06091565 0.10324422 -0.02701704 -0.02151121 -0.025366722 -0.027327048 -0.044456065
-0.08221438 -0.040747665 -0.067342 0.25263485 -0.038457412 -0.08602501 -0.095063835 0.006651525
-0.015263575 -0.035403486 -0.058330335 -0.0026122693 0.0035328483 -0.08933469 -0.033325735 0.0033281636
-8.6849184e-05 -0.03995815 -0.0277311 -0.023538882 0.36538747 0.049365643 -0.031590085 0.31350037
-0.0077448194 0.37540278 -0.0151222255 -0.0759157 -0.007604969 -0.04949084 0.005625259 -0.10735761

layers.1.fn.fn.sgu.norm.weight f4 [64]
00000000: d084 3b3e 42c2 133e 0376 2c3e aafa 053e
00000010: 4cf6 323e 1b1d 313e a5e8 093e 15ba 1d3e
00000020: 8a1a 0a3e 0872 f23d c3e7 293e dbb5 013e
00000030: 9a02 093e 8354 3a3e 6376 133e fa13 0f3e
00000040: b28d 073e c536 153e a271 943d e578 ad3d
00000050: 23de dc3d a979 263e c5b7 093e 1861 0a3e
00000060: dd6f 3f3e 7c9d 323e 6e9f 8a3c 8575 0a3e
00000070: e5e7 313e 30e2 373e 13f2 2e3e d981 2f3e
00000080: d59c 273e dcb2 103e 42f3 1e3e d586 383b
00000090: a120 0c3e c995 153e 6261 403e 6da7 123e
000000a0: 5d7b ed3d 26ce 1c3e f7cb 313e 3aa5 373e
000000b0: 82c1 1c3e 9f31 0e3e 492d b53d 6c00 183e
000000c0: cba5 253e 2d58 093e cbb0 053e fb1f d03d
000000d0: aaf5 333d 885d 1e3e 842e 233e 2391 5b3d
000000e0: 6079 253e 7503 1f3d f750 213e 8284 b33d
000000f0: 9b2b 203e b375 253e 6cbd bf3d f11f 083e
0.18312383 0.14429572 0.16841893 0.13083902 0.17476767 0.17296259 0.13467653 0.15403016
0.13486686 0.11838156 0.16592316 0.12667029 0.13379899 0.18196301 0.1440063 0.13972464
0.13237646 0.14571674 0.07248236 0.084703244 0.10784557 0.16257347 0.13449009 0.13513601
0.18695016 0.17442888 0.016921725 0.13521393 0.17373617 0.17957377 0.17084531 0.17139377
0.1636842 0.1413073 0.15522483 0.0028156538 0.13684322 0.1460792 0.18787149 0.1432168
0.11595795 0.15313014 0.17362963 0.17934123 0.15308192 0.13886116 0.08846528 0.14843911
0.16176526 0.13412543 0.13055722 0.1016235 0.043935455 0.15465367 0.15935713 0.05360521
0.16159582 0.038821656 0.15753542 0.08765508 0.15641634 0.1615818 0.09362301 0.13293435

layers.1.fn.fn.sgu.norm.bias f4 [64]
00000000: f8ac c23c f499 22bc e2be b33c 9e78 083d
00000010: 1337 a53c 5287 bf3c 3c7b f8bc 8fbb 2b3d
00000020: 1a77 70bb 8284 5cbd 65c0 d83c aa2d bc3b
00000030: f0e9 643c 9ea2 fd3c b78a a7bc 946e 92bc
00000040: 38bc ecbc fdd0 d53c f9fc c63c 60a6 a73c
00000050: 899c c839 3c78 263d 0752 13bd abf3 f63b
00000060: f26c b03a 4e2a df3b 2970 e23d a503 89bd
00000070: aa8d 383c d8f4 bebc 615e 2e3c 39dd e73c
00000080: 8bf9 123d 0856 63bd 634e 8b3c 006b 113e
00000090: 97b7 4b3d c238 603c e6c9 82bb fc19 a13d
000000a0: 6ac6 d73d 2bb4 12bd 30a2 103b 4d28 cf3c
000000b0: 7a5d 8f3d 8f85 b03c f9ba 663d 01ec 743c
000000c0: 3dcc 09bc 4309 d7bc bae6 793c 2050 ec3c
000000d0: 30d4 f23c 2358 9f3c ce41 14bd 9b9c bb3d
000000e0: 284c 313c c263 3b3d c98a aa3c cf3b 61bc
000000f0: b96f 57bc f2c2 cebc fcb4 22bd 15bf c8bd
0.023764119 -0.009924401 0.021941606 0.033318155 0.020167863 0.023379955 -0.0303322 0.041926917
-0.0036692084 -0.053837307 0.026458928 0.0057427483 0.013971791 0.030961331 -0.020451887 -0.017874993
-0.028898343 0.02610063 0.024290549 0.020465076 0.000382636 0.04064201 -0.0359669 0.0075363717
0.0013460203 0.006810463 0.11056549 -0.06690148 0.011264244 -0.02331011 0.010642619 0.02830373
0.035882514 -0.055501968 0.017005151 0.14200974 0.04973563 0.013685407 -0.0039913533 0.07866284
0.10535891 -0.035816353 0.0022069328 0.025287772 0.07000251 0.02154806 0.056330655 0.014948846
-0.008410511 -0.026249534 0.015252763 0.0288468 0.029642195 0.019451207 -0.03619557 0.091607295
0.01082138 0.045749433 0.020818131 -0.01374717 -0.013149195 -0.025239442 -0.03972338 -0.09802071

layers.1.fn.fn.sgu.proj.weight f4 [98, 98, 1]
00000000: 7a7e 153e 4d48 bd3d a7bb aabb dfc8 e3bc
00000010: b70a e2bc c472 9dbc 45f1 55bd 006e 2fbd
00000020: c5c1 8dbd d264 ffbd b543 c7bd 5d05 e1bd
00000030: 7014 83bd 0e57 67bd b1fe d8bc ae6c 8abd
00000040: dca6 a9bd 2431 93bd 278a 063c 0f3c dfbc
00000050: ad35 0cbd 8f3b 23bd 8a2b f43a dfe4 1c3c
00000060: b259 c0bb a8b1 503c 7367 be3c 25f2 1e3d
00000070: f992 3e3d 1ad4 373d 7400 2a3c 2bc6 433c
00000080: 8bc2 243d bed4 813d b656 1a3b 7476 8fba
00000090: 19d4 dabb 235c 0cbc c8be 05bc ba78 27bd
000000a0: d001 16bc 531d 3bbd eeeb 993d 90d0 5c3a
000000b0: ec1d 923d 6caf 7b3d 2831 113d 840e b1bc
000000c0: f47d 8e3d 47b9 1d3d f3e8 46bd fe4e 51bc
000000d0: c388 4bbd b32b 11bc 3167 43bd e848 49bc
000000e0: a1de 543d d087 39bc 3bab 9dbc 3535 2c3d
000000f0: ec35 14bd 4141 d0ba 7153 6ebd cffd 57bc
00000100: 0dc4 bd3c cde4 8f3d fc31 3db9 80af 053c
00000110: 2bec 01bc ed78 82bb 0a62 97bd 683c 8dbd
00000120: 3c9a 92bd 211a 58bd 259c d0bc c717 4cbd
00000130: 8bf9 85bb 644b df3c 936e 0db8 79a6 a23a
00000140: cc45 5e3c 1198 c23c 39b8 3bbd 48b4 cabc
00000150: 336d eb3c 9f4a 8d3c 4701 d83c becd f83c
00000160: 8cca 103d 51f8 643d 6c67 c33d 68f9 323d
00000170: 3920 973d 3b12 773d d9a7 713b d07f 4c3b
00000180: a738 e73c f49c 693d 7f4e 0a3e 534e beba
00000190: be20 603c 1417 903d b317 f13c 1b3e 4f3d
000001a0: feaf c03c f62f e73d e2b8 483d 255e b1bb
000001b0: 47ef 373d 87e3 50bc a54c d03c 2166 c7bc
000001c0: ef84 76bc b21e febc 9382 8a3b e19e 25bd
000001d0: 5639 903c a579 9b3c 31e8 913c 4b32 1bbd
000001e0: 38dc fdbc aaa2 22bd bf02 d1bd 70ff b3bc
000001f0: 1305 443d e84f 7a3d 4e50 c63b cab6 5f39
00000200: d1a8 e23a 1501 9a3c 3791 80bb 0eb0 4c3d
00000210: 075e 813d accb 4e3d ad56 db3b 5007 8ab9
00000220: f36c b5bc 2b53 e4bc fb43 f5bc 2834 29bd
00000230: 9081 4d3c 3d99 703c 73c0 383d 30fb 943d
00000240: 63eb 6a3d 0adb 8d3d 84c3 713d 7528 d83d
00000250: f5a2 8a3d d2ea 8d3d 93ca ba3d 86d6 863d
00000260: 64dd 613d 7db9 cc3d 0d08 833d 13a9 d03d
00000270: e0af a23d f0bf d73d a72e a73d fa70 843d
00000280: fe8c bf3d ae2b 663d 8bd7 553d 4efa 353c
00000290: 8cff d33d 7a11 de3d 9f8b b93d 36b2 df3d
000002a0: 3a97 7c3d 6201 a43d 4582 e73d d938 003d
000002b0: 6366 323c 4e5d 1a3d 6d5e e33d 1eb1 a13d
000002c0: 5fe2 2c3d da92 3c3d 7ebb 14bd 73e4 6e3c
000002d0: e211 a5bb df95 ca3c d542 b53b d18c 733d
000002e0: 785a 933d 1a91 913d 1cf8 a43d 9721 6e3d
000002f0: db83 353d b08d 373d fb18 083c 5e42 803c
00000300: 8c3f 48bd 9fcf 97bd 63c9 44bd e259 9dbb
00000310: 388f 58bd c943 333c 37b0 10be 1e10 d8bd
00000320: 9bc5 d2bd e77f 99bd b6c4 31bd 82f6 033d
00000330: 6ef2 ffbb 5be0 4ebd 4154 7ebd cc10 0fbd
00000340: 514b ffbc d385 9bbd 01f5 b5bd c1a8 bfbd
00000350: 9fa0 bdbd b4ec e2bc c918 a4bd 7bef a7bd
00000360: 6fcd e9bc 80db d03c b888 c9bc 7825 26bd
00000370: e126 70bd d9ae 1bbd da52 583c 3722 063c
00000380: 6699 603b 6178 19bc 19ee 56bb 9e05 d43b
00000390: 5a86 dfbc d922 75bd 9965 0bba 48f0 2a3b
000003a0: cdd5 75bb a50b 6a3d 4e5c 9a3c ed60 693c
000003b0: 1b10 e03b e653 173d 6ad4 ad3d f8d2 893d
000003c0: 0989 3e3d f0f2 f13c a90c 933d 9544 a43d
000003d0: 98f4 2c3d 101a 4c3d ca0a ed3b aeb4 9d3d
000003e0: 65a9 50bc b146 c5bc e8c2 6abd 5c77 38bd
000003f0: ef31 533d c0d1 2e3d ad66 0b3d 1837 963d
0.14599028 0.09242306 -0.005210358 -0.027805744 -0.027593 -0.019219764 -0.052232046 -0.042829514
-0.06921724 -0.12470402 -0.09729711 -0.10987351 -0.064003825 -0.056479506 -0.026488634 -0.0675901
-0.08283779 -0.07187107 0.008211649 -0.027250318 -0.034230877 -0.03985172 0.0018628698 0.0095760515
-0.0058700675 0.012737669 0.023242688 0.038805146 0.046526883 0.04488001 0.010376085 0.011949102
0.040224593 0.063394055 0.002355022 -0.0010945336 -0.006678116 -0.008566889 -0.008163162 -0.04088662
-0.009155706 -0.045682263 0.07515703 0.0008423412 0.071346134 0.061446592 0.03544727 -0.021613367
0.069576174 0.038506772 -0.048562 -0.012775181 -0.049690973 -0.008860516 -0.047705833 -0.012285449
0.051970128 -0.011323884 -0.019246688 0.04204293 -0.036184236 -0.0015888588 -0.058185045 -0.013183071
0.023164773 0.07026062 -0.00018043065 0.008159518 -0.007929842 -0.0039817006 -0.07391746 -0.06896287
-0.07158324 -0.052759293 -0.02546508 -0.049827363 -0.0040885857 0.027257629 -3.372e-05 0.0012409232
0.013566446 0.023754152 -0.045829985 -0.024744168 0.028738594 0.017247496 0.026367797 0.030371543
0.035349414 0.055900875 0.095412105 0.043694884 0.07379193 0.06032012 0.0036873727 0.0031204112
0.028225256 0.057034448 0.13506506 -0.0014519192 0.013679681 0.07035652 0.029430246 0.050596338
0.02352142 0.11288445 0.049004443 -0.005412834 0.044905927 -0.012749559 0.025427172 -0.024340691
-0.015046342 -0.031020496 0.0042269914 -0.04043472 0.017605465 0.018978903 0.017810913 -0.03788976
-0.030988798 -0.03970591 -0.10205602 -0.021972388 0.0478564 0.06111136 0.0060520535 0.00021335031
0.0017292743 0.018799344 -0.003923561 0.049972586 0.063167624 0.050487205 0.006693682 -0.0002632686
-0.022146678 -0.027871689 -0.029939642 -0.041309506 0.012543097 0.014684972 0.04510541 0.07274473
0.05735339 0.06926544 0.05902435 0.105545916 0.06769363 0.06929554 0.09120669 0.06583886
0.055142775 0.099963166 0.0639802 0.10188498 0.07943702 0.10534656 0.08163195 0.06466861
0.09353064 0.056194 0.05220751 0.011107041 0.10351476 0.10843177 0.09059834 0.10922663
0.06166766 0.08008076 0.11304144 0.031304214 0.010888669 0.03768664 0.11101995 0.078951105
0.04220807 0.046038486 -0.03631162 0.014580834 -0.005037532 0.024729667 0.0055316486 0.059460465
0.0719499 0.07107754 0.080551356 0.058137503 0.0443152 0.044812858 0.008306737 0.015656646
-0.048888728 -0.074126475 -0.04804362 -0.0048019746 -0.05287096 0.010941454 -0.1412972 -0.10549949
-0.102915965 -0.074950986 -0.04340049 0.03221751 -0.0078108823 -0.05050693 -0.06209207 -0.034928128
-0.031163843 -0.07593884 -0.088846214 -0.09358359 -0.09259152 -0.02770076 -0.0801254 -0.08199974
-0.028540341 0.02549529 -0.024601325 -0.040563077 -0.058630828 -0.038008545 0.013203347 0.008186868
0.003427112 -0.0093670795 -0.0032795726 0.006470396 -0.027285744 -0.059847686 -0.00053175684 0.002608316
-0.0037511468 0.05714001 0.018842842 0.0142443 0.0068378574 0.036945246 0.084877804 0.06729692
0.046517406 0.029534787 0.07180149 0.080208935 0.04222545 0.049829543 0.007233952 0.077004775
-0.012735699 -0.02408156 -0.057314783 -0.045035705 0.051561292 0.042680502 0.034033466 0.07334727

layers.1.fn.fn.sgu.proj.bias f4 [98]
00000000: e467 e43d 71ff fb3c f0a5 c63d e657 a33d
00000010: b8e4 a93c 0f5a 283d 73d7 4a3d 4888 7c3d
00000020: 4a5c e93d d407 8d3d c0eb 2d3d 05c5 283d
00000030: dcb9 993d 6f92 3d3d 0fd5 80bc cf2c df3c
00000040: ea64 bc3c c0f6 593d bc76 06bd d928 053d
00000050: 9c96 1cbb bda6 a9bc e56c 50bc 0eba 953d
00000060: e8f9 fc3c 4a6a 693d 6b0f 533c ed3f de3c
00000070: ddb5 af3c e0b4 9a3c 602b f73d b803 373c
00000080: bdfe bf3c d071 843d 9dee 0cbc 7230 faba
00000090: 1427 fe3d 5315 123d bbc8 75bc c383 aa3d
000000a0: 17f8 c43d 349a 213d 6f65 cb3d 6017 b33d
000000b0: 749d 703c ebc0 b63d 6782 4e3d 65c9 7a3d
000000c0: f7c1 173d 69c4 59bb d6c2 6d3d ca68 a43d
000000d0: f820 9f3d 005a d83d 2775 c23d 7fa0 883d
000000e0: 6f34 513d 3f1e c43d a0bb 7a3d b7fe 953d
000000f0: 8e7b af3d b677 8d3c 8446 6d3d bf0c 103c
00000100: 6956 6f3d b6da 833d e266 2a3e 97f0 c63d
00000110: 4cce 403d c8ce 343e 06bc c83d 2451 0e3d
00000120: 7d56 973d c348 ae3d 4674 b83d dab2 b23d
00000130: 9a8c dd3d 3b0e bb3d bf86 b73d ca7f 2e3d
00000140: 5f68 9b3d d22d f53d 3ead fd3c 5983 2d3d
00000150: 84ec 8e3d 74b5 f03c 40f0 36bc 77d6 4e3d
00000160: afa4 c1bc 3a72 8b3c 4a90 d83d f079 5bbc
00000170: f617 543d 5c29 353d 7230 db3d b667 df3d
00000180: 8fd4 233d 0a08 ac3d
0.11152628 0.030761452 0.09699619 0.0797575 0.020738944 0.04110151 0.049521875 0.061653405
0.11394556 0.06886259 0.042461157 0.041203517 0.07506153 0.046282228 -0.015726594 0.027243046
0.022997338 0.053213835 -0.032828078 0.03250966 -0.002389348 -0.02070939 -0.012721275 0.07310878
0.030880883 0.05698613 0.012882094 0.027130092 0.021449024 0.018885076 0.1206882 0.01117032
0.023436898 0.064670205 -0.008601812 -0.0019087924 0.12409797 0.035664868 -0.015001471 0.08325913
0.09617632 0.0394537 0.09931456 0.08744693 0.014685977 0.08923515 0.05041733 0.06122722
0.037050214 -0.0033228642 0.05804714 0.080277994 0.0776996 0.10564041 0.09495001 0.06671237
0.051075395 0.095760815 0.06121409 0.073239736 0.08568488 0.017268997 0.057928577 0.008792101
0.058432017 0.064382 0.16640809 0.097138576 0.04707174 0.17657006 0.098014876 0.03474535
0.07389543 0.08509972 0.090065524 0.087255195 0.10817833 0.091335736 0.08961248 0.042602338
0.075882666 0.1197163 0.030966397 0.04236159 0.069787055 0.029383399 -0.0111656785 0.0504975
-0.023638098 0.01702224 0.10574396 -0.013395771 0.051780663 0.044228896 0.107025996 0.10908453
0.039997634 0.08399971

layers.1.fn.fn.proj_out.bias f4 [32]
00000000: f3f2 a539 f5b6 46bb c4cb a8bb 7d4d 903c
00000010: 4466 c23c fd45 c7bb 97b0 1f3b aa6a 913c
00000020: 2258 2fbc 8fa7 3fbb 72b8 acbc a840 063b
00000030: 5a00 673c a16f d8ba e760 2cbc a73f 3e3c
00000040: 7119 303b f4e5 8e3b bb72 1cbc 802d 4b3a
00000050: 271f ddbb fbe8 a2bc 440e 953b 7e8e 9ebb
00000060: 519f 1a3b b517 ce3b 22d8 d63c 0b15 803b
00000070: 4bf4 2abc 84c9 9e3c b825 8c3c 4990 973c
0.00031652264 -0.0030321453 -0.005151244 0.017615074 0.023730405 -0.0060813413 0.002436673 0.017751057
-0.010702165 -0.002924416 -0.021084044 0.0020485315 0.014099205 -0.001651276 -0.01052115 0.011611856
0.0026870633 0.0043609086 -0.009548838 0.00077506155 -0.0067480984 -0.019886484 0.0045488197 -0.0048387637
0.0023593495 0.006289447 0.026226107 0.0039087585 -0.010434221 0.0193832 0.01710783 0.018501418

layers.2.fn.norm.weight f4 [32]
00000000: dc35 183f 873d ec3e e7fa 863d 9042 bc3e
00000010: 3177 d43e 6c83 153f a1e4 a43e 8b5f 963e
00000020: e3ad 923e b25f 833e 7485 fd3e 8f01 6a3e
00000030: 5208 033e ba7a 8e3e caf7 223e d0cb 373e
00000040: 2bc8 fc3e 2b9d 8a3e d4fe 9e3e 3d80 9c3e
00000050: 6eab 963e c6cf a13e 7974 cc3e 562f c83e
00000060: 7781 933e a772 d93e fce6 8b3e 5750 623e
00000070: 59b5 ad3e a7cc c93e 1ff8 da3e cea8 d23e
0.5945718 0.46140692 0.065908246 0.36769533 0.41497186 0.5840366 0.3220568 0.29369769
0.2864829 0.25658947 0.4951588 0.22852157 0.12796143 0.27828008 0.15914837 0.17948842
0.49371466 0.27073035 0.31053793 0.30566588 0.29427665 0.3160383 0.39932612 0.39098614
0.2880971 0.42470285 0.27324665 0.2210096 0.3392742 0.3941395 0.42767426 0.41144413

layers.2.fn.norm.bias f4 [32]
00000000: 262d bd3d bf1e 1ebd 399b bbbd 2236 0abd
00000010: dc69 c43d 7966 5fbd d9d4 413d 8330 893c
00000020: da4e 0ebc 2d79 0dbc 6b50 9dbd 7a31 96bd
00000030: 7de3 473d 17df ec3d b2ff 09be d8f4 86bd
00000040: e0e3 acbc 3685 e33d b18a 98bd 8d31 4abd
00000050: 8d34 af3d c962 3abe 8502 933d 648a fa3c
00000060: 2e50 46bd 72d6 b6bb 3c90 813c 098d a8bd
00000070: fcf9 18be 7dc8 19be e0b7 b83d 3d89 d23c
0.09237127 -0.03860354 -0.09160466 -0.03374303 0.095905036 -0.054541085 0.047322128 0.016746765
-0.008685792 -0.008634848 -0.07681354 -0.07333656 0.048800934 0.115659885 -0.13476446 -0.06589669
-0.021104753 0.11109392 -0.07448328 -0.04936366 0.08554945 -0.18201746 0.07178215 0.030583568
-0.04841631 -0.005579763 0.015815847 -0.08230025 -0.14939111 -0.15017886 0.090194464 0.025700206

layers.2.fn.fn.proj_in.0.bias f4 [128]
00000000: 0e4c 0b3d 26e1 753d 9bd9 f6bc c72d f63c
00000010: 6f29 de3d fc50 d53c 2b8a 0f3e f1df 92bd
00000020: 1844 d6bb d14c a23b 7a4d 09bc d004 ff3d
00000030: c08f 3d3c 62f9 093e 09b5 3e3b 1e66 ec3d
00000040: 0e44 c0bc 0e7e 283d 4e8b 8e3d 1636 67bd
00000050: 88a6 28bd 93da 4bbd ff9a d43b 0295 373c
00000060: 4bda 023e b265 323d 321b 153e f55f 8f3d
00000070: 2a88 ae3d f777 663d 3e7d 003d 0e7c b73c
00000080: 0ee4 9a3b 6945 2e3d 66cd 8bbb 68d3 8fbd
00000090: 9e86 cbbc 6afb 813d 47b8 d33d 1588 023e
000000a0: 89fc 4dbd 8827 113d d288 3c3b fda5 953d
000000b0: 6f69 46bd 4227 b33d aa99 573b 9278 ddbb
000000c0: 7e8d 063d 9bc3 db3d 4c79 2f3a 25bf b13d
000000d0: 14ca 6b3d 7835 02bc f841 2e3c a244 d2bd
000000e0: 53b3 e1bd d2f6 30bd 7bd4 2cbd 6042 e3bd
000000f0: 12eb 663d f149 db3c 10ca b93c 9c15 0bbd
00000100: c72f dcbd ae68 b4bd 3a99 b0bc 1170 a8bc
00000110: ddc3 90bd e613 6dbd 21f3 a8bd ef26 803c
00000120: ded3 d6bd ad0e 74bd baa2 893c 63d0 2bbd
00000130: 8c8d c03c 43f5 813a 5329 563c 7473 94bd
00000140: 5b5a 2d3c f7ac df3d 9f8e cbbd 2dda 6dbd
00000150: ddbb 223d 7fb5 0a3d 12f6 6b3a c490 d2bb
00000160: 244e 983c 6273 b1b9 add7 9bbd c4f5 953c
00000170: 9e16 10be fc7e 19bd d98e 0dbe efc6 9d3c
00000180: df22 b23b 7793 553d 9543 b43d 27ca 4b3e
00000190: 3c34 693b 1be3 84bd fa74 10be e163 1bbd
000001a0: 83ce 993e 5ed6 0dbe 2b1d f23d fb97 7dbd
000001b0: 647d ab3e 555a 90bc 9514 793c 9eb1 4ebc
000001c0: e08f 7d3c 8270 dfbd 46bc c6bd fd89 0e3c
000001d0: 451f 29bd 8693 ec3a fc72 a03d 99fd 2abe
000001e0: 6563 b23e 24af 31bd b76d 2fbd 4703 8d3c
000001f0: 4c44 743c fe76 42bd 4ab6 47bd 30ee 95bd
0.03400808 0.06002917 -0.03013306 0.030051125 0.108477466 0.026039593 0.1401755 -0.0717162
-0.006538879 0.004953005 -0.008380288 0.1245209 0.011569917 0.13474038 0.0029099605 0.11542915
-0.023469951 0.04113584 0.06960164 -0.056448065 -0.04117444 -0.049768995 0.0064882035 0.01120496
0.12778585 0.043554015 0.14561155 0.07000724 0.08522065 0.05626675 0.03136944 0.022398021
0.0047268933 0.042546663 -0.0042664288 -0.070227444 -0.024844464 0.063467816 0.103378825 0.12747224
-0.050289664 0.03543809 0.0028768075 0.073070504 -0.048440393 0.08747722 0.0032897987 -0.006758758
0.03284978 0.10730668 0.0006693795 0.08679036 0.057565764 -0.007947318 0.010635845 -0.10266997
-0.110205315 -0.043204136 -0.042194825 -0.110966444 0.056376524 0.026768656 0.022679359 -0.033956155
-0.107513 -0.088090286 -0.02155744 -0.02056125 -0.07068608 -0.057880305 -0.08249498 0.015643565
-0.10489629 -0.05958431 0.016801227 -0.04194678 0.023504995 0.0009915013 0.013071376 -0.072485834
0.010580624 0.10921662 -0.09939312 -0.058069397 0.03972994 0.033864494 0.0009001206 -0.006425949
0.018591948 -0.00033846038 -0.07609496 0.018305667 -0.14071128 -0.037474617 -0.13824023 0.019259898
0.005436286 0.052142587 0.08801953 0.19901334 0.0035584113 -0.064886294 -0.14107123 -0.03793705
0.30040368 -0.13851306 0.118219696 -0.061912518 0.33494103 -0.017621199 0.015202661 -0.012615589
0.015476197 -0.10910131 -0.09703879 0.008699891 -0.041289587 0.0018049337 0.078344315 -0.16698302
0.34841457 -0.043379918 -0.04282924 0.017213477 0.014908861 -0.04747676 -0.04875783 -0.07320821

layers.2.fn.fn.sgu.norm.weight f4 [64]
00000000: 3bdc e53d 3c27 e73d d90e 403e d279 c63d
00000010: f340 283e 8600 2a3e 6601 133e eccd 1b3e
00000020: 3695 253d 1afc f33d effa 133e a7ff 063e
00000030: 0c42 e03d 3eb5 283e 6533 313e 1a76 073e
00000040: 3b1a 0c3e 8c07 c13d 3543 253e 2383 1b3e
00000050: 0abb fb3d bc16 923d 0841 fe3d 8955 3a3e
00000060: 7164 463e b3e2 3d3e 0ecc 2c3e 9596 183e
00000070: 9435 b53d 2b22 303e 3c53 e73d 5491 fd3d
00000080: 8b08 693e c130 0f3e 36d4 ec3d 08c3 153e
00000090: 521c ac3d 581a 283e e8c4 093e b37e 2e3e
000000a0: 724a 1d3d da83 1a3e 4784 ee3d c861 2d3e
000000b0: 65d9 423d 5c9a 393e 8876 0a3e 0208 cb3d
000000c0: 3baa 1d3e 6536 003e cb3d e03d 5e71 2a3e
000000d0: 7638 f73d d6b5 073e 7944 5a3d 6631 9a3d
000000e0: bb6e 4e3d e3d5 383e 3590 a53d f0a2 193e
000000f0: 2d34 383e 70c1 563e 744b 243e fa68 083e
0.11223646 0.1128678 0.18755664 0.09691204 0.16431026 0.16601762 0.14356002 0.15215272
0.0404255 0.11913319 0.14451192 0.13183461 0.109500974 0.16475388 0.17304762 0.13228646
0.13681881 0.094252676 0.16138919 0.15186743 0.12291534 0.071332425 0.124147475 0.18196692
0.19374253 0.1854351 0.16874716 0.14901192 0.0884811 0.17200534 0.112951726 0.12381235
0.22757165 0.13983442 0.115639135 0.1462518 0.08403839 0.164163 0.1345402 0.1704052
0.038401075 0.1508936 0.11646324 0.16931832 0.047570605 0.1812529 0.13521779 0.09913637
0.15396969 0.1252075 0.10949286 0.16644809 0.12071316 0.13252959 0.053287957 0.07528953
0.05039857 0.18050341 0.08084146 0.15003562 0.17988653 0.20972228 0.16044408 0.13321295

layers.2.fn.fn.sgu.norm.bias f4 [64]
00000000: 394d 86bc a583 acbb 04e4 6bbd 1d34 0b3a
00000010: 5a24 fabc dff8 cbbc 3be2 7abb 9597 96bc
00000020: 9575 1bbc 32ce cc3b 8bd6 e6bb e551 26bc
00000030: 3e34 5f3c 7e1a 3b3c 3a95 97bd 3b1b 5cbc
00000040: 1ed0 c43c 720b 93bc 571b f43b f07b 003d
00000050: 41ac ad3c d4dc af3d d23d ccbc 1791 d0bc
00000060: 6c7c 6ebc 58b3 b5bc 134e a93c 71f0 0dbd
00000070: 6cc6 28bd aa9f debc 5317 9a3b bc3d a83b
00000080: 431f 5cbc 3585 5fbd a997 e2bc bc03 343d
00000090: cc04 2bbc af4d 37ba fbbc 413b e61a 733d
000000a0: 0631 75bc 0fbb 13bc dd60 433d 8af7 663c
000000b0: 7c14 abbd d41e 9bbc be5a 9e3c 53d6 1ebd
000000c0: daca 83bc b3f4 24bb 4b78 95bc 2ce3 9ebc
000000d0: 78e0 9ebc 7526 b93b c4e7 79bd c5ce 31bd
000000e0: 6735 cbbd 8f14 e93c 1c4b 4cbd 4cb3 14bd
000000f0: 12a5 af3b b8cc 663d 1db8 fcbc e916 9abc
-0.016394245 -0.0052647167 -0.0575905 0.00053101947 -0.030534912 -0.024898944 -0.0038281817 -0.018382827
-0.009488483 0.0062501663 -0.0070446185 -0.010151361 0.013623295 0.01141989 -0.074015096 -0.013434227
0.02402502 -0.017949793 0.007449548 0.031368196 0.021200301 0.085870415 -0.024931822 -0.02545981
-0.014556032 -0.022180244 0.020667112 -0.03465313 -0.041204855 -0.027175743 0.0047024875 0.0051343124
-0.013435188 -0.054570395 -0.027660208 0.043948874 -0.010438155 -0.0006992472 0.0029562104 0.059351824
-0.014965301 -0.009016766 0.047699798 0.014097104 -0.083535165 -0.018935598 0.019330379 -0.038778614
-0.016087938 -0.0025170266 -0.018245837 -0.019395433 -0.019394144 0.0056503364 -0.061012045 -0.04341008
-0.09922295 0.028452186 -0.049876317 -0.036303803 0.005360254 0.05634758 -0.03084951 -0.018809753

layers.2.fn.fn.sgu.proj.weight f4 [98, 98, 1]
00000000: 7906 c2bd 1152 92bd 4763 05bd 527e 84bd
00000010: 4c7b 12be fad9 c4bd 618c 16be 0836 c9bd
00000020: d900 c2bd da69 69bd 38fd 1dbd 8523 bdbc
00000030: 0548 19bd 7c9a 24bd 471f 413d 1e2f a5bc
00000040: 445f b4bc 7ae8 ceba 0122 ef3c 0775 743c
00000050: c35b 723d e4a0 0f3e 7313 823d 3a99 1b3c
00000060: addc c4bc 9b6a babb fd0e 49bd 922a 893c
00000070: 4a32 ac3d 5be8 673d 4a0a fd3b 5ff0 69bc
00000080: 19e1 ffbc 9cd8 c93b a91e 9a3b f7d0 4c3d
00000090: ac66 bb3d 2712 86bd c66f 703d a0b1 c03d
000000a0: 8869 9e3d 8c97 81bd 2b9b 1d3d d7db cbbc
000000b0: 9d07 bd3c d462 293d c9f4 713c db14 033c
000000c0: 2ee0 1c3c f30d 96bc 24cf d3bd 4ef0 633b
000000d0: 6da4 7ebd 9122 edbc a4f0 80bc 0ce1 8c3c
000000e0: 966d 2e3d 3c48 b23c 7dd6 5c3c eca4 47bd
000000f0: fa43 ebba d004 10bd b34f 02bd 4d34 213d
00000100: d513 173d d588 863a dfac 24bc d4d3 0fbd
00000110: 9555 cabb ed2d 3dbd 04b7 8e3c 0f5b 6dbc
00000120: ab8e 173d e77b 34bc 4fa9 163b 9fca 6a3d
00000130: cd1a d83c e8d9 0c3d 4fea 2e3d 8cbe 40bd
00000140: dad7 333b 1ac8 5fbc ae5d 6c3c f87b f93b
00000150: 3a4e 70bc d854 6bbd d18a 67bd 9290 78bc
00000160: a329 9d3c e357 82bb 456d 0cbd 8184 9abd
00000170: a4c5 dfbb fbd9 763c e231 443b d1fc 18bc
00000180: cfdd 513c e116 d33c b52d b0bd 376e 833c
00000190: c9d0 6bbd 31c4 f3bd 3159 3fbe 5717 f8bd
000001a0: 1420 81bd c36e 9bbd e393 98bd 263c 85bd
000001b0: a243 92bc 08fc 453b 82de 31bd c80c 86bd
000001c0: d88f 473c 7822 30bd 618e 80bd 83aa f1bc
000001d0: 7811 103d 5e26 013d a18a f73c d390 5d3b
000001e0: 7f8f 323d 92d9 073c b198 7fbb 8d0f 393d
000001f0: 4100 c73c da74 e7b9 0537 623b 8e09 ee3b
00000200: 4bdc 403d 15eb 6c3d 450c f53c 70ac 83bc
00000210: ca8a d33c 2322 7c3d 4e48 823d bb50 ed3c
00000220: 9bb1 783d a588 52ba 6043 10bd d720 38bd
00000230: 0484 523d 6386 bb3c d885 2b3d 0a08 953d
00000240: f8a5 023d afbd c6bc 4c9d 23bb 711f 403d
00000250: 9f95 afbc 2000 6cba c5ea adbc d107 69bc
00000260: 26fa 9fbc f16b 2ebd 3bf5 72bb afae 51bd
00000270: 1c1f 12bc 3c02 0abe a417 e9bb 5ac2 47bc
00000280: 347b b23b 4867 92bc d3d9 883c 82f7 39bd
00000290: be50 79bd fcf4 7ebd d811 c83c d462 a9bd
000002a0: 6e99 4cba 2877 983c 60c8 8a3d b161 503c
000002b0: 3fb7 91bd a959 13bc e5dd e4bd 1670 aabd
000002c0: bee6 06bd b766 b3bd 43be a0bb 892a edbd
000002d0: cc12 7a3c 6272 293c 8508 04bc a829 50bd
000002e0: bdcc 9cbd a28e 82bd 3457 3c3d 88b4 e43a
000002f0: 0001 f9bc 0508 21bd e298 493d 12d2 cd3d
00000300: 47be 043d a4aa 9d3c 14ca 693d 0aa9 b43d
00000310: d5dc 483d 43dc c93d f906 a23c 7968 e13c
00000320: 086c f73c 8de5 f5bc 8878 5dbd 1f01 0ebd
00000330: c29e 30bc 619b ac3c d707 a83d 37a7 9a3d
00000340: 6028 0e3c af2c 50bc 536c 063d 9820 183d
00000350: 1f9a 943c 6b72 843d a057 dd3d ec8c a13d
00000360: 628a d53d 517f 853c 8e38 debc 3265 603d
00000370: 36ed 4fbd 17cc 51ba e1cd 83bd 89b5 4fbd
00000380: e200 cdbc 476a c3bc aea9 22bc aed0 b33b
00000390: dc39 c13b 2752 bd3c 6e3a 8b3d 1a91 8d3d
000003a0: 6a4f 983d 2806 563d 2687 773d 2f25 e1bb
000003b0: 4e33 e8bc 99f3 19bd 06d1 75bc 512a 26bd
000003c0: 44b7 1e3d 6d5b 313c 1c16 79bc 9e46 b7bd
000003d0: ca7e d3bd 7938 413d 2693 b1bd a9bd 69bd
000003e0: 4b17 55bd 98c5 95bd aab0 2ebd 6568 15bd
000003f0: 97f6 87bd c5df ddbd e6f3 43bd 28ed 59bd
-0.09473891 -0.07144559 -0.03256538 -0.06469406 -0.14304847 -0.09611888 -0.14701988 -0.09824759
-0.09472818 -0.056985714 -0.038571566 -0.023088226 -0.0374222 -0.04018639 0.04714897 -0.020164069
-0.022018082 -0.0015785836 0.029191019 0.01492048 0.059169542 0.14026219 0.06351366 0.009496981
-0.024031008 -0.005688978 -0.04908656 0.016743932 0.084080294 0.056618076 0.007722174 -0.0142785
-0.031235265 0.006159855 0.004703362 0.050003972 0.091504425 -0.06546431 0.058700345 0.09408879
0.07734972 -0.063277334 0.038478058 -0.024885101 0.02307492 0.041354015 0.014767834 0.008000578
0.009574933 -0.018317198 -0.10342243 0.0034780684 -0.062168527 -0.028947147 -0.015739746 0.017197154
0.042584978 0.02176296 0.013478872 -0.048741266 -0.0017949336 -0.03516084 -0.03181429 0.03935652
0.036884148 0.0010264168 -0.010050981 -0.035114124 -0.006174753 -0.046186376 0.017421253 -0.014487042
0.037001293 -0.011015869 0.00229891 0.05732214 0.026379967 0.0343875 0.042703923 -0.04705672
0.002744189 -0.013658548 0.014426632 0.007613655 -0.014667088 -0.05745396 -0.05652887 -0.015171187
0.019184893 -0.003977762 -0.034283895 -0.07544804 -0.0068289805 0.015066619 0.002993696 -0.00933762
0.012809231 0.025767745 -0.08602468 0.016043765 -0.05757216 -0.11902655 -0.18686368 -0.12113827
-0.063049465 -0.075894855 -0.07450082 -0.06505613 -0.017854515 0.0030210037 -0.04342509 -0.065454066
0.012180291 -0.043001622 -0.062771566 -0.029500252 0.03517291 0.03153073 0.03021747 0.0033808246
0.04359388 0.008291619 -0.0039000923 0.045180846 0.024292113 -0.00044146815 0.0034517657 0.0072643226
0.047085088 0.05784138 0.029913077 -0.016073436 0.025823016 0.061555993 0.06361447 0.02896916
0.060716253 -0.0008031226 -0.035220504 -0.044953194 0.05139543 0.022891229 0.04187569 0.07276924
0.03189656 -0.02426037 -0.0024965582 0.046904985 -0.02143365 -0.0009002704 -0.02123011 -0.014223055
-0.01952846 -0.04258341 -0.0037072438 -0.051191982 -0.00891855 -0.13477415 -0.007113414 -0.012192333
0.005446816 -0.017871514 0.01670543 -0.045402057 -0.060868017 -0.062245354 0.024422571 -0.08270803
-0.0007804845 0.018611506 0.067765 0.012718604 -0.071150295 -0.008993545 -0.111751355 -0.0832216
-0.032934897 -0.08759826 -0.0049054935 -0.115803786 0.015263271 0.010342212 -0.008058672 -0.050820976
-0.07656238 -0.06374861 0.0459816 0.0017448822 -0.030395985 -0.03931429 0.049218066 0.10049833
0.032408025 0.019246407 0.057077482 0.08821304 0.049038727 0.09856465 0.019778715 0.027515637
0.03020288 -0.030016685 -0.054070026 -0.034669038 -0.010780038 0.021070184 0.0820462 0.07551425
0.008676618 -0.012705966 0.03281815 0.03714046 0.018139897 0.06467136 0.10807729 0.07888207
0.10426785 0.01629606 -0.027126577 0.054784007 -0.05076333 -0.0008003129 -0.06435753 -0.050710235
-0.025024835 -0.023854388 -0.00992815 0.005487523 0.00589679 0.023110462 0.06798254 0.069124416
0.07437022 0.052251965 0.060431622 -0.0068708877 -0.028344776 -0.03758583 -0.015003448 -0.0405677
0.038748994 0.01082502 -0.015203025 -0.08949016 -0.103269175 0.047172997 -0.086706445 -0.05706564
-0.052024167 -0.07313079 -0.04264895 -0.03647651 -0.0663883 -0.10833696 -0.04784002 -0.053204685
