KWS/Keyword-MLP/checkpoints/kwmlp_issai_nano.pth (torch, 453353 bytes, 108 tensors)

to_patch_embed.1.weight f4 [16, 40]
-0.0044862377 0.013338539 0.003921244 -0.058346853 0.012983631 0.07162904 0.00944718 0.0019404757
0.03644615 -0.0051978934 -0.052970506 -0.05090192 0.058694594 -0.12244489 0.013065612 -0.013361561
-0.02596599 0.002346347 0.014479465 -0.14031006 0.06533324 -0.04294194 -0.02747611 -0.00869688
0.017960835 0.0028538748 -0.016220694 -0.02590703 0.07160391 -0.073006324 0.03821276 0.0035668665
0.029735073 -0.060118064 -0.004227882 0.031881444 0.010472569 0.070920795 -0.007881303 -0.0051639406
-0.00624008 0.00015233069 0.009043351 -0.065851875 -0.020223401 0.03576362 -0.0042126803 0.020988958
0.005702858 0.02685507 0.094570406 0.070445105 -0.0042022252 0.044333816 0.12137685 -0.059277583
-0.024845801 0.079679795 0.007124926 0.07424986 0.0751909 0.0017873482 0.08142053 -0.025518034
0.0971124 -0.030693254 0.094689414 -0.0022859476 0.01725995 -0.0018832549 0.065965235 0.04055042
0.029436294 0.09011939 0.00985338 0.049495418 0.032660168 -0.08281011 -0.00089819694 -0.042079017
-0.007673027 -0.0033587276 0.048632167 0.00034086054 -0.063469365 0.017031232 0.03961555 0.021750191
0.0017148501 0.089284144 -0.070168376 -0.05764425 0.07796088 -0.037252247 -0.04636638 0.03366962
-0.030523432 0.025496256 0.0031595055 -0.0036038244 0.06624151 0.030432807 0.008154481 0.073048286
0.022045324 0.039401934 0.043417804 -0.0241419 0.044637304 -0.010956524 0.12723565 0.0056903274
0.04633688 -0.022440905 -0.02653865 -0.017408732 0.00535291 0.020025272 -0.0023496512 -0.023703108
-0.008906112 -0.0017328799 -0.012583824 0.015597924 -0.04221663 -0.011112356 -0.011272784 -0.04850671
0.0023271665 -0.06843235 0.0093838535 -0.066989526 0.04819026 0.052310422 0.010438863 -0.051443245
0.075212404 -0.08471119 0.08560302 0.04980079 0.009376514 -0.033677265 0.08734862 -0.0013377287
0.048045106 -0.019721055 0.04661536 -0.0074370154 0.0020587214 -0.0076480396 0.05074675 -0.05935533
0.041696515 -0.00039974076 0.07131708 -0.08006138 -0.012646482 0.0010026186 0.09588348 0.021423569
-0.011636272 0.0027571816 -0.015823595 -0.015765507 -0.020343125 0.024245653 0.0059752013 0.014145057
0.0014923565 0.013098451 -0.004534022 -0.008294301 -0.012432631 -0.023752674 -0.0037147545 -0.014852536
-0.016354287 0.013018403 0.0070196856 -0.007423317 0.028438138 0.026264274 0.010115916 0.03901037
0.014851848 -0.009504157 0.009788993 0.010214409 -0.005063007 -0.03849288 0.051487043 -0.021405516
0.015090399 0.02135003 0.033746276 -0.025756458 -0.020140767 -0.015575473 -0.0013937535 0.0076368274
-0.0021012109 0.016158247 -0.018601162 -0.014926736 -0.028261868 0.00034999993 0.051188704 0.045975834
-0.019324744 0.14430793 0.114584126 -0.06913581 -0.019646186 0.07801189 -0.06724751 -0.045403764
0.026297877 -0.05025458 -0.019217478 0.03472978 0.0023495394 -0.040567104 -0.050359122 0.020422598
-0.07860898 -0.044680852 -0.05150724 0.029680429 -0.074877575 0.035591062 -0.027703248 -0.037631813
-0.023275862 -0.0054625487 0.010346058 -0.010657807 -0.029035943 -0.046475817 -0.020336248 0.0152440965
-0.0020791164 0.009308846 -0.049862575 -0.009995519 -0.05763286 -0.08887052 0.008743864 -0.0467899
-0.023022825 0.044072606 0.028881168 -0.05769445 -0.03463319 -0.048267156 -0.014794904 -0.06693632
00000000: 4a01 93bb e389 5a3c c77d 803b 1cfd 6ebd
00000010: 4cb9 543c 3fb2 923d 58c8 1a3c 8f57 fe3a
00000020: 8f48 153d 1753 aabb 9af7 58bd 887e 50bd
00000030: be69 703d 63c4 fabd 2611 563c 73ea 5abc
00000040: a1b6 d4bc 2cc5 193b 473b 6d3c 71ad 0fbe
00000050: 6fcd 853d e3e3 2fbd 9415 e1bc 5c7d 0ebc
00000060: 9a22 933c 1308 3b3b 43e1 84bc fb3a d4bc
00000070: 12a5 923d 5784 95bd fc84 1c3d 17c2 693b
00000080: f896 f33c 5c3e 76bd 0b8a 8abb 1e96 023d
00000090: 2395 2b3c ec3e 913d 9520 01bc 4636 a9bb
000000a0: 9679 ccbb f5ba 1f39 902a 143c 59dd 86bd
000000b0: 8cab a5bc e07c 123d 860a 8abb 09f1 ab3c
000000c0: 0adf ba3b 2aff db3c 21ae c13d 8645 903d
000000d0: d2b2 89bb 6097 353d 6d94 f83d 0dcd 72bd
000000e0: 6c89 cbbc 292f a33d 3678 e93b 5010 983d
000000f0: b0fd 993d 7445 ea3a cfbf a63d 320b d1bc
00000100: dee2 c63d 6b70 fbbc 86ec c13d d6cf 15bb
00000110: bd64 8d3c 8cd7 f6ba c818 873d 3218 263d
00000120: 6224 f13c 8490 b83d 1270 213c b5bb 4a3d
00000130: abc6 053d 5998 a9bd fa74 6bba 0c5b 2cbd
00000140: 046e fbbb 191e 5cbb 8632 473d 87b5 b239
00000150: 3afc 81bd 1585 8b3c ea43 223d 752d b23c
00000160: d2c4 e03a 9bda b63d 70b4 8fbd 611c 6cbd
00000170: f4a9 9f3d d095 18bd acea 3dbd 28e9 093d
00000180: 470c fabc 86dd d03c b50f 4f3b 242e 6cbb
00000190: a1a9 873d 394e f93c 5f9a 053c 579a 953d
000001a0: 6598 b43c ec63 213d ded6 313d 3cc5 c5bc
000001b0: 9bd5 363d fe82 33bc 104a 023e ed75 ba3b
000001c0: becb 3d3d fdd5 b7bc 9567 d9bc c29c 8ebc
000001d0: 7767 af3b 0a0c a43c 9bfc 19bb 052d c2bc
000001e0: f1ea 11bc cd21 e3ba 622c 4ebc 6f8e 7f3c
000001f0: 58eb 2cbd 9910 36bc 7cb1 38bc f9ae 46bd
00000200: 6083 183b 4326 8cbd bcbe 193c ce31 89bd
00000210: 2663 453d 7443 563d c407 2b3c 27b6 52bd
00000220: f608 9a3d 0f7d adbd a350 af3d eafb 4b3d
00000230: f39f 193c 2cf1 09bd d5e3 b23d ba56 afba
00000240: f2ca 443d 0d8e a1bc bfef 3e3d 35b2 f3bb
00000250: 9deb 063b 689c fabb d3db 4f3d 931e 73bd
00000260: f7c9 2a3d 4c94 d1b9 b00e 923d 39f7 a3bd
00000270: 3133 4fbc 4c6a 833a 8f5e c43d 7b80 af3c
00000280: 10a6 3ebc d5b1 343b 7ca0 81bc aa26 81bc
00000290: a0a6 a6bc d29e c63c 9fcb c33b abc0 673c
000002a0: 2d9b c33a e39a 563c 2292 94bb d2e4 07bc
000002b0: 3cb2 4bbc f894 c2bc 3d73 73bb 0d58 73bc
000002c0: 6df9 85bc 244b 553c 6405 e63b 4c3f f3bb
000002d0: 19f7 e83c 2d28 d73c 3abd 253c 56c9 1f3d
000002e0: 2a55 733c 53b7 1bbc 0362 203c 565a 273c
000002f0: 95e7 a5bb b6aa 1dbd 14e4 523d 9f5a afbc
00000300: b93d 773c 42e6 ae3c 8939 0a3d 35ff d2bc
00000310: 40fe a4bc 4530 7fbc 9bae b6ba 5a3e fa3b
00000320: 78b4 09bb 4d5e 843c 7761 98bc 458f 74bc
00000330: 6f85 e7bc 3280 b739 3fab 513d 2851 3c3d
00000340: ed4e 9ebc 75c5 133e 15ab ea3d 1397 8dbd
00000350: 0af1 a0bc b3c4 9f3d 10b9 89bd 4cf9 39bd
00000360: a56e d73c bfd7 4dbd f96d 9dbc d040 0e3d
00000370: bbfa 193b b129 26bd 5e45 4ebd 4b4d a73c
00000380: bffd a0bd 4503 37bd 41f9 52bd 5f24 f33c
00000390: 6a59 99bd efc7 113d ecf1 e2bc d123 1abd
000003a0: 05ad bebc 2eff b2bb 8382 293c 159e 2ebc
000003b0: c9dc edbc 6d5d 3ebd 3498 a6bc 60c2 793c
000003c0: c941 08bb 2184 183c b33c 4cbd 3fc4 23bc
000003d0: 6f10 6cbd bf01 b6bd 6c42 0f3c c4a6 3fbd
000003e0: 5d9a bcbc 7a85 343d 3398 ec3c 0451 6cbd
000003f0: 88db 0dbd c8b3 45bd 5366 72bc e915 89bd

to_patch_embed.1.bias f4 [16]
-0.23289236 -0.068086915 0.014581744 -0.24156941 0.0618591 0.022867482 0.047892295 0.099336
0.07093488 -0.07972173 0.07572732 0.068797655 0.054804575 -0.12354252 -0.123447925 -0.14299113
00000000: 567b 6ebe 2771 8bbd 44e8 6e3c f95d 77be
00000010: f85f 7d3d 9654 bb3c b62a 443d ac70 cb3d
00000020: 4e46 913d 2545 a3bd ed16 9b3d c9e5 8c3d
00000030: c37a 603d dc03 fdbd 44d2 fcbd 446c 12be

layers.0.fn.norm.weight f4 [16]
0.34053198 0.47119382 0.38803294 0.33430505 1.021593 0.5569757 0.3009639 0.28304282
0.3290004 0.48921764 0.5446638 0.39573354 0.19648497 0.14681557 0.15904202 0.4601305
00000000: 355a ae3e 5140 f13e 41ac c63e 082a ab3e
00000010: 8fc3 823f f695 0e3f f117 9a3e fdea 903e
00000020: be72 a83e bc7a fa3e 166f 0b3f 969d ca3e
00000030: 5b33 493e d256 163e e9db 223e 3a96 eb3e

layers.0.fn.norm.bias f4 [16]
-0.0015195899 0.09365457 0.039431818 -0.19801378 0.06442652 -0.08500592 -0.061178625 0.082485735
0.11451947 -0.26091123 -0.034411453 0.08432257 -0.14066851 0.107995175 -0.10778641 -0.028571064
00000000: fa2c c7ba f8cd bf3d 4283 213d 20c4 4abe
00000010: 0df2 833d 9517 aebd 7096 7abd 48ee a83d
00000020: 2f89 ea3d 2896 85be 06f3 0cbd 50b1 ac3d
00000030: 680b 10be 932c dd3d 1fbf dcbd dd0d eabc

layers.0.fn.fn.proj_in.0.weight f4 [64, 16]
-0.0053112837 -0.05068585 -0.09870131 0.08105202 -0.092037275 -0.07023765 0.06770407 0.053954944
-0.017293729 0.0027771308 -0.020354291 0.058649052 -0.09135639 -0.0538078 -0.16199528 -0.044398766
-0.07557859 0.024785087 -0.052045655 -0.08065902 -0.101866454 -0.024486132 -0.04534631 0.11608338
0.011416249 0.029125033 0.10862008 0.07010153 -0.09535955 0.05509714 -0.13250086 -0.19598983
0.039808776 -0.076827005 0.04795987 -0.060673863 -0.059480827 -0.016427232 0.051654674 -0.047751553
-0.016602768 0.023852784 -0.050746433 -0.016803209 -0.10035848 0.084253035 -0.1254208 0.03494815
-0.090463325 0.013464431 0.018768404 0.04161182 -0.032928836 0.038441043 0.108160496 0.033740997
-0.0130044175 -0.04149858 0.070296936 -0.04896374 0.06818161 0.08767204 0.08316295 0.10271091
0.08538388 0.062671624 0.008408182 -0.054038554 -0.016574103 0.08677481 0.023287505 -0.07512726
-0.048886374 -0.072982 -0.033137225 0.05204661 -0.04889499 0.0009785426 0.01746621 -0.09764434
0.043371055 0.08124 0.013786206 0.018182937 -0.07396185 -0.08701135 -0.033201113 0.0113286
-0.017013151 0.035645876 0.102709465 -0.037994217 -0.008789514 -0.0094600115 -0.052799497 -0.10392179
-0.012018276 0.0046378677 0.059710097 0.03697812 0.104664646 -0.09365236 -0.12142021 -0.0163116
-0.04260918 -0.0071930923 -0.011649632 0.098204814 -0.0043411306 -0.05117071 -0.0040585366 -0.023804856
-0.02569992 -0.013767164 -0.17080374 -0.042092398 -0.21611485 0.09795006 -0.012346974 -0.0031482275
0.028101215 -0.22488281 0.1328449 -0.116203465 -0.10381603 -0.06721351 -0.057754174 -0.11858574
0.016193893 0.01653807 -0.09793594 -0.019644482 -0.06607538 -0.09137227 0.06635059 0.00897374
-0.011957742 -0.11140004 -0.033509836 -0.06756546 -0.03128362 0.045058474 0.040586263 -0.047874305
-0.0749679 -0.08804331 0.07745034 -0.061445374 -0.07099491 0.15888497 -0.043235563 -0.037174806
0.0008556304 0.009112238 -0.040464737 -0.05136814 0.05954335 -0.004621503 -0.021393087 0.0532842
0.075435586 0.058927085 0.07895552 -0.06918635 0.074340545 0.024535505 -0.0013178381 0.10902334
0.030325862 0.06016078 -0.029411167 0.024406841 0.07922742 0.06664828 -0.012488578 0.053191908
-0.019295396 0.0505925 -0.0138899 0.11204925 0.019463629 -0.013430337 -0.0076702386 0.038586337
0.009332854 0.057446394 -0.001150558 0.08115206 0.06529551 -0.040465504 0.06701661 0.085998714
-0.01413822 0.00096272846 -0.13247561 0.023054816 -0.076013535 0.06441263 0.022605365 -0.014050519
0.06636157 -0.03503232 0.20574224 -0.010638296 0.061904162 0.04860741 -0.14109981 -0.10499589
0.1358819 -0.053957388 -0.026209377 -0.05276964 0.019180903 -0.025384389 0.04067527 -0.101337604
0.036673672 -0.095897526 0.098210655 -0.10280214 0.100195296 0.025587652 0.02934937 0.069612265
0.00642719 0.12156992 0.03254522 0.0032871163 -0.015638266 0.094392985 0.012774155 0.019300079
-0.007004293 0.006439306 -0.08392318 0.08391761 0.019018767 0.0017379293 -0.013617156 -0.034432005
-0.056512505 -0.041319124 -0.0027645854 0.009110193 0.12185568 -0.029431403 0.06372356 -0.012732792
0.065118976 -0.056790616 0.03079994 -0.022612097 0.007002782 -0.0506909 0.03841108 0.011348517
00000000: 470a aebb f79b 4fbd ea23 cabd 9afe a53d
00000010: 0a7e bcbd c2d8 8fbd 6ea8 8a3d dcff 5c3d
00000020: 94ab 8dbc 8600 363b 0bbe a6bc fd39 703d
00000030: 0f19 bbbd 9165 5cbd 17e2 25be 7bdb 35bd
00000040: f3c8 9abd 180a cb3c d32d 55bd 8e30 a5bd
00000050: 5c9f d0bd 2497 c8bc 0dbd 39bd 20bd ed3d
00000060: 380b 3b3c 9f97 ee3c 3474 de3d 6491 8f3d
00000070: de4b c3bd 8aad 613d 4eae 07be 8fb1 48be
00000080: 870e 233d 7a57 9dbd 9271 443d 2885 78bd
00000090: 2ba2 73bd 6792 86bc da93 533d 2297 43bd
000000a0: 8702 88bc ea66 c33c 7edb 4fbd e2a6 89bc
000000b0: bf88 cdbd db8c ac3d 4f6e 00be cb25 0f3d
000000c0: d644 b9bd eb99 5c3c 32c0 993c 2871 2a3d
000000d0: 63e0 06bd 5b74 1d3d 4083 dd3d 0034 0a3d
000000e0: 7b10 55bc 6afa 29bd d7f7 8f3d 348e 48bd
000000f0: cda2 8b3d 668d b33d 5651 aa3d 195a d23d
00000100: bedd ae3d fb59 803d 79c2 093c 8857 5dbd
00000110: 6ac6 87bc feb6 b13d 70c5 be3c 52dc 99bd
00000120: 143d 48bd 9677 95bd e6ba 07bd d32e 553d
00000130: 1d46 48bd 7142 803a 4c15 8f3c c1f9 c7bd
00000140: d9a5 313d 2861 a63d 8adf 613c 62f4 943c
00000150: 4f79 97bd 0233 b2bd e4fd 07bd 989b 393c
00000160: 2a5f 8bbc 6901 123d 5759 d23d d39f 1bbd
00000170: e501 10bc 2afe 1abc 4944 58bd f3d4 d4bd
00000180: 4ee8 44bc 41f9 973b 9392 743d 5f76 173d
00000190: 6b5a d63d cfcc bfbd 29ab f8bd e89f 85bc
000001a0: f786 2ebd 08b4 ebbb 19de 3ebc 9b1f c93d
000001b0: 0b40 8ebb 6198 51bd 79fd 84bb 6702 c3bc
000001c0: a388 d2bc ac8f 61bc 2de7 2ebe 1469 2cbd
000001d0: 364d 5dbe 0b9a c83d f64a 4abc 7e52 4ebb
000001e0: 8534 e63c ae47 66be 7e08 083e 15fc edbd
000001f0: 809d d4bd 3da7 89bd a48f 6cbd 15dd f2bd
00000200: 0ea9 843c d97a 873c a392 c8bd 77ed a0bc
00000210: 8752 87bd 6221 bbbd d1e2 873d 9806 133c
00000220: 68ea 43bc b425 e4bd 9c41 09bd c35f 8abd
00000230: 4123 00bd 3c8f 383d c83d 263d d917 44bd
00000240: c588 99bd 0d50 b4bd 499e 9e3d 25ae 7bbd
00000250: c865 91bd beb2 223e c617 31bd 9c44 18bd
00000260: 624c 603a 7f4b 153c 5abe 25bd 6667 52bd
00000270: bae3 733d fa6f 97bb 8e40 afbc 8940 5a3d
00000280: f97d 9a3d 875d 713d 6fb3 a13d 93b1 8dbd
00000290: db3f 983d affe c83c 4fbb acba a147 df3d
000002a0: f16d f83c 266b 763d b0ef f0bc dbf0 c73c
000002b0: fc41 a23d e57e 883d e59c 4cbc c2df 593d
000002c0: 6111 9ebc 153a 4f3d 7792 63bc 147a e53d
000002d0: 3072 9f3c eb0a 5cbc a056 fbbb b50c 1e3d
000002e0: d4e8 183c e94c 6b3d 52ce 96ba 0d33 a63d
000002f0: a7b9 853d 28bf 25bd 0140 893d 1820 b03d
00000300: fea3 67bc 9d5f 7c3a b0a7 07be 74dd bc3c
00000310: fcac 9bbd c5ea 833d e32e b93c 2634 66bc
00000320: 93e8 873d 0d7e 0fbd 18ae 523e 3f4c 2ebc
00000330: 388f 7d3d 9018 473d 787c 10be 1608 d7bd
00000340: a024 0b3e 6c02 5dbd 0cb5 d6bc fa24 58bd
00000350: 4521 9d3c ecf2 cfbc 1d9b 263d 178a cfbd
00000360: 2237 163d ec65 c4bd ab22 c93d ee89 d2bd
00000370: 3133 cd3d 329d d13c 176e f03c e090 8e3d
00000380: 2d9b d23b a6f9 f83d 234e 053d a96c 573b
00000390: d21b 80bc 1c51 c13d b04a 513c 331b 9e3c
000003a0: 4584 e5bb d000 d33b ebdf abbd ffdc ab3d
000003b0: 3fcd 9b3c 3bcb e33a 7e1a 5fbc 9308 0dbd
000003c0: a879 67bd 3e3e 29bd 0c2e 35bb eb42 153c
000003d0: 798f f93d 201a f1bc 7f81 823d 339d 50bc
000003e0: 195d 853d 479d 68bd 2850 fc3c 013d b9bc
000003f0: 9877 e53b 43a1 4fbd f054 1d3d 21ef 393c

layers.0.fn.fn.proj_in.0.bias f4 [64]
-0.0036259952 0.032650433 -0.04771253 -0.02613691 -0.019955818 -0.17890838 -0.018207964 -0.08874507
-0.08252101 0.015038101 0.14833385 0.09238885 -0.14891693 -0.108374566 0.14972381 0.19426176
0.08490751 0.16384168 -0.021676943 -0.07474945 0.023970848 -0.22949637 0.18956153 0.08528203
0.17145416 -0.036564227 -0.06348325 0.055630993 0.055368777 0.14663911 -0.0037014352 0.1726843
-0.066764936 -0.018683363 0.014197114 -0.09395163 0.3112632 0.09325317 0.03165096 -0.12131531
0.024589319 -0.10216735 -0.02824025 0.003794644 0.031463925 -0.06053093 0.007423105 -0.009239276
0.029654453 -0.11169598 -0.04994414 -0.07452105 0.21145596 0.056053452 -0.028624244 -0.054483462
0.010465202 -0.03944248 0.053371742 -0.010814766 0.017312605 0.022702223 -0.10524664 -0.08636571
00000000: 1ba2 6dbb 76bc 053d 376e 43bd 131d d6bc
00000010: 627a a3bc c233 37be de28 95bc fabf b5bd
00000020: c600 a9bd 5e62 763c d4e4 173e 5e36 bd3d
00000030: ae7d 18be 7cf3 ddbd 3351 193e 8eec 463e
00000040: fde3 ad3d 1dc6 273e d893 b1bc 3d16 99bd
00000050: 835e c43c 1901 6bbe 6b1c 423e 58a8 ae3d
00000060: ae91 2f3e 5fc4 15bd 8203 82bd 53dd 633d
00000070: 5fca 623d 9028 163e c793 72bb 27d4 303e
00000080: 0ebc 88bd da0d 99bc 039b 683c b669 c0bd
00000090: e45d 9f3e 85fb be3d 70a4 013d 2974 f8bd
000000a0: 8a6f c93c 1e3d d1bd 1958 e7bc 90af 783b
000000b0: 51e0 003d 48ef 77bd 853d f33b 5560 17bc
000000c0: e5ed f23c ddc0 e4bd 3a92 4cbd 7e9e 98bd
000000d0: e987 583e 4e98 653d 647d eabc 0d2a 5fbd
000000e0: 3d76 2b3c 708e 21bd 549c 5a3d 6b30 31bc
000000f0: 2ad3 8d3c 03fa b93c 8d8b d7bd 81e0 b0bd

layers.0.fn.fn.sgu.norm.weight f4 [32]
0.20921957 0.09928412 0.15871114 0.10702273 0.07057828 0.28135726 0.1397524 0.087064445
0.11415575 0.17116584 0.24465224 0.22764981 0.18588139 0.15500475 0.2186711 0.25009924
0.26543322 0.13255121 0.18163398 0.185054 -0.024517596 0.22466294 0.26092008 0.17877465
0.25277546 0.16321912 0.09388127 0.2561105 0.093677394 0.2359894 0.12624678 0.23587541
00000000: a83d 563e 7955 cb3d 2c85 223e bc2e db3d
00000010: 588b 903d 0f0e 903e 411b 0f3e d84e b23d
00000020: 7dca e93d 1946 2f3e 1e86 7a3e 081d 693e
00000030: b157 3e3e 91b9 1e3e 51eb 5f3e 020d 803e
00000040: dde6 873e 81bb 073e 42fe 393e cc7e 3d3e
00000050: 20d9 c8bc 0b0e 663e 5197 853e b410 373e
00000060: c96b 813e ea22 273e d344 c03d ea20 833e
00000070: efd9 bf3d 35a7 713e d646 013e 5389 713e

layers.0.fn.fn.sgu.norm.bias f4 [32]
0.04028655 -0.036753356 0.0015694815 0.0079186335 0.058853745 0.004977271 -0.09326888 0.08109695
-0.015178722 0.045767006 0.126117 0.009673391 0.065884404 0.0923407 0.06097224 0.004171798
0.014858196 -0.0100348145 -0.046906464 0.09163638 0.021969313 0.08699952 0.022099204 0.08756169
0.06349366 0.067413844 -0.027504932 -0.032350663 -0.04844268 0.043258596 0.117838584 0.05226617
00000000: 8203 253d b08a 16bd 0fb7 cd3a 28bd 013c
00000010: a010 713d 6018 a33b c103 bfbd 2816 a63d
00000020: 2db0 78bc 2f76 3b3d d124 013e 247d 1e3c
00000030: 67ee 863d 1f1d bd3d 07be 793d 94b3 883b
00000040: ca6f 733c 1069 24bc fe20 40bd dbab bb3d
00000050: fdf8 b33c ce2c b23d 6409 b53c 8b53 b33d
00000060: f708 823d 4510 8a3d 0652 e1bc 2182 04bd
00000070: d56b 46bd ed2f 313d 5b55 f13d 0d15 563d

layers.0.fn.fn.sgu.proj.weight f4 [98, 98, 1]
0.045516767 0.044051822 0.03016337 -0.054717127 -0.0059042415 -0.013744376 0.016137542 0.010970598
0.032364674 0.08683334 0.1352573 0.08789154 0.021565735 0.023050392 0.052530248 0.027164184
-0.098926276 -0.09237245 -0.04597351 -0.08636255 -0.03348836 0.044728227 0.030946538 0.0709958
0.082204424 0.067239136 0.08656404 0.12301596 0.06452791 0.051699877 -0.017553836 0.03891871
0.011334847 0.05540775 0.06290063 0.0017324861 -0.06639558 -0.027953507 -0.039279677 -0.05624087
0.045888253 -0.024425907 -0.01667417 0.074927114 0.049879663 0.028445473 0.002653124 0.011169804
0.021795986 0.0053869686 -0.030088231 -0.00631912 0.07488868 0.017487178 -0.0075962907 -0.028653355
-0.04647469 0.022091508 0.002088456 0.07527666 0.0029054123 -0.029256396 -0.025452891 -0.013783716
-0.063930266 -0.0763481 -0.016661845 -0.07697624 -0.068054736 -0.012038601 -0.024594631 0.0128941005
0.04464947 0.05499499 0.04509147 0.021499228 0.0117607685 -0.0027564208 0.042178087 0.036838073
-0.029538734 -0.04659161 -0.02979996 0.019760648 0.0112792635 0.010693097 0.0036510555 0.007408198
-0.009299744 0.03392516 0.04101868 0.045100916 0.05439524 -0.023649663 0.041568257 0.0609745
0.06665272 0.08727745 0.13480954 0.12451418 0.02234306 -0.11931389 -0.090943344 -0.06173217
0.013289898 -0.023829509 0.0241301 -0.0054362873 -0.029600376 -0.06726461 -0.019901391 0.005209252
-0.01858338 -0.025584796 -0.0112661235 -0.011024149 -0.011406161 -0.0017407421 -0.026815586 -0.045873143
-0.10834971 -0.01127953 0.036109343 0.03010303 0.07692084 0.044807486 -0.0064409026 0.024121823
0.009412522 0.023301354 0.038873974 0.12583633 0.11522929 0.08174192 -0.0059253224 0.00783829
-0.029053584 -0.020968305 0.011893417 -0.016058134 -0.027492765 0.02630087 0.036034502 -0.014878394
0.04132866 0.065660745 0.10909215 0.14044915 0.0937154 0.032974146 0.10334474 0.07787606
0.06285914 0.05592737 -0.030628351 0.022225814 0.018820038 0.06122287 0.050572008 0.017237643
-0.02220241 -0.025250329 -0.050550777 -0.050139736 0.02515883 -0.054895844 -0.037548456 0.02495836
0.07003082 0.08026465 0.09583068 0.033221215 0.038842767 0.09217492 0.041506607 0.09527205
0.15205933 0.115110576 0.06445005 0.081007145 0.060553517 0.076615475 0.026322251 0.040718306
-0.019910242 0.08697295 0.08098012 0.0917269 0.110426076 0.13911171 0.16157565 0.09237693
0.11528498 0.12739453 0.14600024 0.13810799 0.092723966 0.085146785 0.13237621 0.044663314
-0.08708302 -0.020355811 0.00319813 -0.006261678 0.012285243 -0.032321367 -0.036921266 -0.08461468
-0.07199413 -0.06491693 -0.06386958 -0.057889525 -0.022554547 0.01323967 -0.02102304 -0.10845004
-0.06627275 -0.007788046 -0.041240063 0.0032373504 0.01107459 0.032777537 0.09298801 0.031437766
-0.023048274 -0.018987859 0.03448296 0.05819143 0.050219502 0.114155926 0.09960753 0.05268838
-0.017968133 0.04755023 0.025018029 -0.006724226 0.0254023 0.028270936 0.042879995 0.015112942
-0.010572173 -0.08509393 -0.016202392 -0.0656127 -0.06155912 -0.03423393 -0.021905962 -0.053819444
-0.02599293 -0.012573768 -0.01060222 0.034135055 -0.06749136 -0.03388479 -0.0019259875 0.015468084
00000000: ca6f 3a3d af6f 343d 2c19 f73c 111f 60bd
00000010: 5e78 c1bb 1730 61bc e132 843c 06be 333c
00000020: d290 043d aed5 b13d e480 0a3e 7b00 b43d
00000030: a0aa b03c 2dd4 bc3c f529 573d 6c87 de3c
00000040: dc99 cabd c42d bdbd b84e 3cbd d9de b0bd
00000050: 172b 09bd f234 373d 9883 fd3c 3f66 913d
00000060: cb5a a83d acb4 893d 7d48 b13d cbef fb3d
00000070: 3527 843d 40c3 533d 10cd 8fbc 3a69 1f3d
00000080: cbb5 393c 3df3 623d 0cd2 803d 9614 e33a
00000090: 68fa 87bd c1fe e4bc bae3 20bd d45c 66bd
000000a0: 52f5 3b3d d718 c8bc 4598 88bc 6373 993d
000000b0: 9e4e 4c3d 7b06 e93c 09e0 2d3b 8e01 373c
000000c0: 7f8d b23c 2b85 b03b 987b f6bc 9f10 cfbb
000000d0: 3c5f 993d 4541 8f3c 4eea f8bb 71ba eabc
000000e0: 3f5c 3ebd 40f9 b43c 7ade 083b a62a 9a3d
000000f0: bb68 3e3b 1cab efbc 9582 d0bc 18d5 61bc
00000100: dfed 82bd 655c 9cbd 6c7e 88bc b8a5 9dbd
00000110: 4860 8bbd 8d3d 45bc ae7a c9bc c741 533c
00000120: 5de2 363d 6d42 613d d5b1 383d 261f b03c
00000130: 3db0 403c 11a5 34bb eec2 2c3d 85e3 163d
00000140: 37fb f1bc d8d6 3ebd 0c1f f4bc 15e1 a13c
00000150: a9cc 383c 1932 2f3c 8c46 6f3b 78c0 f23b
00000160: f45d 18bc 1cf5 0a3d 3403 283d bdbb 383d
00000170: 8bcd 5e3d f0bc c1bc 7a43 2a3d 66c0 793d
00000180: 3981 883d 85be b23d 830b 0a3e 4a01 ff3d
00000190: cb08 b73c d75a f4bd 8140 babd dfda 7cbd
000001a0: dfbd 593c 1a36 c3bc 7dac c53c e222 b2bb
000001b0: 7d7c f2bc 07c2 89bd 3e08 a3bc 5fb2 aa3b
000001c0: 2c3c 98bc 3597 d1bc 8c95 38bc a29e 34bc
000001d0: e8e0 3abc 9d29 e4ba 5cac dbbc 7ae5 3bbd
000001e0: 74e6 ddbd c7cd 38bc 64e7 133d a19a f63c
000001f0: ac88 9d3d 0e88 373d 350e d3bb 219b c53c
00000200: fb36 1a3c 7be2 be3c 513a 1f3d 3ddb 003e
00000210: 56fd eb3d 4f68 a73d 3529 c2bb 2c6c 003c
00000220: c801 eebc b9c5 abbc 9bdc 423c 598c 83bc
00000230: 8238 e1bc ec74 d73c ea98 133d 82c4 73bc
00000240: 3e48 293d 2479 863d b56b df3d e7d1 0f3e
00000250: dced bf3d e60f 073d 68a6 d33d 7c7d 9f3d
00000260: 4bbc 803d 1914 653d 4fe8 fabc e912 b63c
00000270: 7b2c 9a3c d5c4 7a3d 9824 4f3d f535 8d3c
00000280: d4e1 b5bc c7d9 cebc 550e 4fbd 535f 4dbd
00000290: e419 ce3c 77da 60bd 69cc 19bd 7975 cc3c
000002a0: 526c 8f3d cb61 a43d e042 c43d f812 083d
000002b0: 9819 1f3d 34c6 bc3d d502 2a3d fe1d c33d
000002c0: 71b5 1b3e 18bf eb3d 63fe 833d 13e7 a53d
000002d0: f706 783d 93e8 9c3d c3a1 d73c 3dc8 263d
000002e0: ce1a a3bc e01e b23d e8d8 a53d 50db bb3d
000002f0: 1127 e23d 4d73 0e3e 1674 253e 1e30 bd3d
00000300: 881a ec3d b673 023e 1681 153e 2e6c 0d3e
00000310: 10e6 bd3d 7061 ae3d a18d 073e e1f0 363d
00000320: 9558 b2bd 3bc1 a6bc b897 513b c32e cdbb
00000330: 0b48 493c 6963 04bd c13a 17bd 764a adbd
00000340: a971 93bd 2bf3 84bd 0ece 82bd 911d 6dbd
00000350: 50c4 b8bc 33eb 583c 8338 acbc 0e1b debd
00000360: 02ba 87bd dd32 ffbb 57eb 28bd ba29 543b
00000370: 3272 353c bd41 063d 7f70 be3d e3c4 003d
00000380: bccf bcbc 6d8c 9bbc 013e 0d3d 235a 6e3d
00000390: f7b2 4d3d 95ca e93d 08ff cb3d c5cf 573d
000003a0: e831 93bc 08c4 423d 9cf2 cc3c e556 dcbb
000003b0: 7c18 d03c 7398 e73c efa2 2f3d 469c 773c
000003c0: e836 2dbc ba45 aebd e1ba 84bc f45f 86bd
000003d0: 6a25 7cbd e138 0cbd 2274 b3bc c771 5cbd
000003e0: 20ef d4bc 3502 4ebc efb4 2dbc 33d1 0b3d
000003f0: e938 8abd c7ca 0abd 6b71 fcba d96d 7d3c

layers.0.fn.fn.sgu.proj.bias f4 [98]
-0.099755004 -0.04476319 0.076685935 0.07395128 0.107093774 0.11636148 0.062900834 0.021807693
0.17454748 0.15349922 0.170457 -0.06700207 0.22568575 0.15408008 0.2217228 -0.06672345
0.22078833 -0.023752013 0.19447187 0.054388728 0.10500109 0.077670574 0.070078276 0.013521848
0.17925233 0.007903461 0.04555546 0.06075248 -0.010473781 0.09499115 0.077194184 0.14925495
0.10832589 -0.012061686 0.07798247 0.034084577 0.039257057 0.048931677 0.09636495 0.04919968
0.07234668 0.09595347 0.075917274 0.06653498 0.03878054 0.06945746 0.023637295 0.107891515
0.07233496 -0.003953999 0.051603522 0.065944135 0.08053082 0.06629121 0.058743775 0.046775844
0.06397466 0.03953182 0.022252474 0.06905737 0.035686865 0.036380876 0.034829795 0.055282805
0.039806657 0.029910006 0.050976682 -0.043099605 -0.0061272937 0.049471788 0.047592398 0.030790757
0.04796716 0.0024010802 0.016728373 0.093038805 0.12074315 0.060855336 0.00037687787 0.020160496
0.049230523 0.036243957 0.050441574 0.05777678 0.0626723 0.07991594 0.05981738 0.010611323
0.07283279 0.050102387 0.021996142 0.053228974 0.056612723 0.054687995 0.020461585 0.12319987
0.07452432 0.08375321
00000000: 5a4c ccbd 9b59 37bd 840d 9d3d c573 973d
00000010: fb53 db3d ed4e ee3d 27d2 803d 0ca6 b23c
00000020: 93bc 323e e62e 1d3e 488c 2e3e 6238 89bd
00000030: 2a1a 673e 2bc7 1d3e 4d0b 633e 4ea6 88bd
00000040: 5616 623e 9593 c2bc a223 473e b7c6 5e3d
00000050: d00a d73d c011 9f3d 3385 8f3d be8a 5d3c
00000060: ec8d 373e 857d 013c 5d98 3a3d 98d7 783d
00000070: 399a 2bbc b88a c23d fc17 9e3d 4ad6 183e
00000080: f7d9 dd3d 619e 45bc 46b5 9f3d 459c 0b3d
00000090: 02cc 203d 956c 483d fd5a c53d 9b85 493d
000000a0: 7f2a 943d 4183 c43d 847a 9b3d 7e43 883d
000000b0: 58d8 1e3d b63f 8e3d 00a3 c13c 3af6 dc3d
000000c0: 5a24 943d 8c90 81bb 375e 533d b80d 873d
000000d0: 58ed a43d b0c3 873d 509d 703d 0798 3f3d
000000e0: 2605 833d 1eec 213d d24a b63c f36d 8d3d
000000f0: 642c 123d 1d04 153d b0a9 0e3d 3970 623d
00000100: 4e0c 233d d405 f53c edcc 503d 3689 30bd
00000110: 77c7 c8bb eea2 4a3d 3ff0 423d e63c fc3c
00000120: 3679 443d 715b 1d3b f109 893c 218b be3d
00000130: 2f48 f73d 7243 793d b197 c539 a027 a53c
00000140: f2a5 493d 8b74 143d d39b 4e3d 58a7 6c3d
00000150: 565a 803d f8aa a33d 1203 753d 1ddb 2d3c
00000160: 5c29 953d 2938 4d3d 4131 b43c a006 5a3d
00000170: bee2 673d 8500 603d 0e9f a73c 3750 fc3d
00000180: 35a0 983d ce86 ab3d

layers.0.fn.fn.proj_out.weight f4 [16, 32]
0.047983818 -0.012433205 -0.011474988 0.02616512 -0.012418631 -0.08062446 0.0050067534 -0.008036775
-0.0055394582 0.016736938 -0.078027695 0.011545448 -0.14797717 -0.021527367 -0.020021373 0.04314265
-0.0029589287 -0.1169046 0.042172197 0.088977545 -0.20158003 -0.0012094565 -0.060362067 -0.034173988
0.089515455 -0.0851789 -0.09811432 0.040030785 0.009054611 0.011177094 0.07617024 -0.05125111
0.07849899 -0.002763023 -0.06085725 -0.043396644 -0.0605618 0.2070278 0.023311459 0.052181683
0.041390214 -0.030208541 -0.020512464 -0.052227903 -0.040070985 -0.002838947 -0.11122459 0.052904338
-0.07096927 -0.17828597 0.08780211 0.040807996 -0.17152631 0.047567826 -0.06761127 -0.012481919
-0.0021677387 -0.065725885 -0.033040233 0.044282787 -0.008004378 0.041342277 -0.022166194 -0.023340184
-0.0065532234 0.0546393 -0.03468192 -0.039383374 -0.044624478 0.16605288 -0.04018528 0.034776982
-0.0057723867 -0.0541835 -0.02396338 -0.035945218 -0.07103536 -0.12342288 -0.033389047 0.06263992
-0.08585076 0.030107763 0.0714011 0.020063996 -0.018791288 -0.04400663 -0.07999792 -0.076117545
0.032072134 -0.03616262 -0.06436154 0.010380915 -0.0038598164 0.046510853 -0.008905267 -0.05239272
0.043743297 0.030818706 0.02335132 0.014294695 0.057315685 -0.10757251 0.016215233 -0.016224796
0.01960791 -0.052965343 0.01175562 -0.051821392 -0.055719715 0.0025227263 -0.0028662574 0.04886339
0.052639674 0.034367412 0.107905686 0.040565502 -0.05707763 -0.18028072 -0.09338849 -0.02389392
0.061648782 -0.04852975 0.06479331 0.05572479 0.09579052 0.011541279 -0.0046855737 -0.0036998498
-0.13851362 0.13347752 0.09500441 0.12011558 -0.026225096 0.097385034 -0.05933519 0.11671654
0.053934008 0.09039404 0.11983542 0.110771924 0.19515195 0.116977185 0.077088594 -0.085703164
0.08165839 0.034006454 -0.08533339 0.039539553 0.10800339 0.13987462 0.1416916 0.11464926
-0.13889407 0.11961589 0.120079346 -0.10812553 -0.11609971 -0.11863047 0.06743888 0.12101562
0.025792928 0.17107207 0.0071138125 -0.050455138 0.047682427 -0.062101733 0.08130882 -0.09357994
-0.0041908836 -0.026742043 -0.04795476 -0.090129666 -0.0019128235 -0.07312691 0.033454176 0.118613206
0.055434186 0.05320442 -0.087267525 0.08077174 0.105970286 -0.11535393 -0.069619596 -0.042821635
0.074904546 -0.09306818 0.006509459 0.011247412 0.01904433 0.017903648 -0.08338546 -0.04472798
0.0983354 -0.05313655 -0.02895944 -0.031967767 0.047322407 -0.17598706 0.0437387 -0.15918148
-0.035092026 -0.027732745 -0.037036873 -0.0052263844 -0.07214826 -0.004157004 0.027077368 -0.0049496307
0.015670419 0.08884379 -0.09181036 -0.07755657 0.076328196 -0.008935995 -0.039235577 -0.074361995
0.040409967 -0.021395035 0.08032875 0.027708849 0.059926156 0.044024695 -0.030163134 -0.06477266
0.089154474 -0.15518442 -0.037139475 -0.044321645 -0.030761847 0.09027719 -0.06570764 -0.1623946
-0.040567093 -0.037373506 -0.0027305146 -0.08278248 -0.09893317 -0.055544436 -0.020742014 0.028786544
-0.008897596 0.108751036 0.018920464 -0.009822865 -0.003982513 -0.018468654 -0.06826206 -0.029920353
0.032043714 -0.073628806 0.02539893 0.01493835 -0.043308802 0.09028171 0.0012583076 0.014620982
00000000: ae8a 443d a4b4 4bbc 9701 3cbc 3c58 d63c
00000010: 8477 4bbc 701e a5bd b10f a43b adac 03bc
00000020: 5884 b5bb e71b 893c fccc 9fbd 1e29 3d3c
00000030: 5487 17be 295a b0bc dd03 a4bc 59b6 303d
00000040: 96ea 41bb ae6b efbd c1bc 2c3d dc39 b63d
00000050: ff6a 4ebe a086 9eba 373e 77bd 06fa 0bbd
00000060: e153 b73d 4672 aebd 29f0 c8bd 52f7 233d
00000070: cb59 143c 2120 373c 25ff 9b3d afec 51bd
00000080: 14c4 a03d d513 35bb 7445 79bd aec0 31bd
00000090: a60f 78bd 18ff 533e acf7 be3c 76bc 553d
000000a0: c988 293d e777 f7bc c109 a8bc edec 55bd
000000b0: 7921 24bd a10d 3abb b8c9 e3bd 38b2 583d
000000c0: 5658 91bd 9990 36be 98d1 b33d 4926 273d
000000d0: 98a4 2fbe 7bd6 423d c777 8abd f680 4cbc
000000e0: 9f10 0ebb 4b9b 86bd 3255 07bd de61 353d
000000f0: cb24 03bc 8556 293d e195 b5bc ea33 bfbc
00000100: 6cbc d6bb 75cd 5f3d a10e 0ebd 7650 21bd
00000110: 28c8 36bd c409 2a3e 5299 24bd 4f72 0e3d
00000120: 4a26 bdbb 85ef 5dbd da4e c4bc 4b3b 13bd
00000130: fd7a 91bd 23c5 fcbd f4c2 08bd 5c49 803d
00000140: 86d2 afbd 8ea4 f63c bd3a 923d 405d a43c
00000150: 30f0 99bc 4c40 34bd f3d5 a3bd 84e3 9bbd
00000160: 125e 033d 411f 14bd fccf 83bd b714 2a3c
00000170: f9f4 7cbb 2a82 3e3d 66e7 11bc c099 56bd
00000180: 2c2c 333d 8377 fc3c 444b bf3c 4c34 6a3c
00000190: dac3 6a3d fa4e dcbd cfd5 843c dde9 84bc
000001a0: c5a0 a03c 30f2 58bd a59a 403c ab42 54bd
000001b0: 5b3a 64bd 5354 253b d2d7 3bbb fa24 483d
000001c0: b39c 573d d8c4 0c3d a8fd dc3d 0328 263d
000001d0: 3cca 69bd 829b 38be 7742 bfbd 2fbd c3bc
000001e0: 6f83 7c3d 22c7 46bd 5bb2 843d ad3f 643d
000001f0: d22d c43d a217 3d3c 7189 99bb 2e79 72bb
00000200: 84d6 0dbe 55ae 083e ac91 c23d 28ff f53d
00000210: 03d6 d6bc ce71 c73d 7509 73bd 1509 ef3d
00000220: e8e9 5c3d 8320 b93d 466c f53d 64dc e23d
00000230: ead5 473e bc91 ef3d a0e0 9d3d 2485 afbd
00000240: 843c a73d 5a4a 0b3d 46c3 aebd 3af4 213d
00000250: e230 dd3d 4b3b 0f3e 9a17 113e 3bcd ea3d
00000260: 3f3a 0ebe 2df9 f43d 29ec f53d eb70 ddbd
00000270: afc5 edbd 88f4 f2bd 651d 8a3d 0ad7 f73d
00000280: b14b d33c 842d 2f3e fc1a e93b 0caa 4ebd
00000290: a64e 433d 635e 7ebd 3d85 a63d d7a6 bfbd
000002a0: ae53 89bb 2112 dbbc 366c 44bd e795 b8bd
000002b0: b5b7 faba 90c3 95bd 3f07 093d 7beb f23d
000002c0: f50e 633d e1ec 593d 51b9 b2bd a76b a53d
000002d0: f306 d93d ae3e ecbd b894 8ebd bd65 2fbd
000002e0: 8e67 993d 889a bebd 4d4d d53b 1147 383c
000002f0: db02 9c3c acaa 923c ffc5 aabd b034 37bd
00000300: 1264 c93d b6a5 59bd 593c edbc a2f0 02bd
00000310: 24d5 413d f435 34be 5a27 333d 7800 23be
00000320: a8bc 0fbd c82f e3bc fab3 17bd 1742 abbb
00000330: 78c2 93bd 7a37 88bb 5bd1 dd3c 8330 a2bb
00000340: 405f 803c bcf3 b53d 1207 bcbd fbd5 9ebd
00000350: f551 9c3d 4868 12bc 7cb5 20bd 1a4b 98bd
00000360: ec84 253d a444 afbc 6683 a43d abfd e23c
00000370: 2175 753d 3d53 343d ad18 f7bc 87a7 84bd
00000380: 9f96 b63d aae8 1ebe 901f 18bd 9d8a 35bd
00000390: 4500 fcbc 3fe3 b83d ba91 86bd c54a 26be
000003a0: ae29 26bd f614 19bd 6ff2 32bb dc89 a9bd
000003b0: 799d cabd 9082 63bd 28eb a9bc c2d1 eb3c
000003c0: 39c7 11bc ddb8 de3d 17ff 9a3c 15f0 20bc
000003d0: be7f 82bb 934b 97bc fbcc 8bbd 871b f5bc
000003e0: 4540 033d b3ca 96bd 6b11 d03c fbbf 743c
000003f0: 9264 31bd 9ee5 b83d cced a43a d88c 6f3c

layers.0.fn.fn.proj_out.bias f4 [16]
-0.025395785 0.00059157284 -0.0019330743 -0.027042473 0.009112927 -0.016722286 -0.0063252714 0.0021228727
0.013259922 -0.013654867 -0.0065470375 0.0024459425 -0.02199653 -0.01442677 -0.018153211 -0.0012322473
00000000: d20a d0bc c813 1b3a 365f fdba 2d88 ddbc
00000010: 634e 153c 2dfd 88bc 3944 cfbb e51f 0b3b
00000020: 2540 593c aab8 5fbc 8888 d6bb 1b4c 203b
00000030: 1132 b4bc 425e 6cbc 0bb6 94bc 5c83 a1ba

layers.1.fn.norm.weight f4 [16]
0.5779095 0.33955377 0.20101927 0.3999209 1.1572343 0.69597036 0.2870722 0.22518349
0.22222446 0.39667088 0.73434544 0.3408477 0.29092205 0.1550784 0.2670966 0.4629184
00000000: e1f1 133f fed9 ad3e ffd7 4d3e 6fc2 cc3e
00000010: 4120 943f 1d2b 323f 21fb 923e 8096 663e
00000020: cf8e 633e 7218 cb3e 10fe 3b3f 9783 ae3e
00000030: bcf3 943e dfcc 1e3e e3c0 883e a403 ed3e

layers.1.fn.norm.bias f4 [16]
0.1365655 0.11905713 0.014926966 0.0008213262 -0.021577343 0.14630471 0.09640275 0.21755613
0.17971842 -0.31867307 -0.077362716 0.17320576 0.024096586 0.14578564 -0.0041638147 -0.014318071
00000000: d4d7 0b3e 39d4 f33d 3c90 743c 454e 573a
00000010: f8c2 b0bc e7d0 153e ce6e c53d 09c7 5e3e
00000020: 1b08 383e 1e29 a3be 5870 9ebd da5c 313e
00000030: 3466 c53c d548 153e 9c70 88bb 5896 6abc

layers.1.fn.fn.proj_in.0.weight f4 [64, 16]
0.066241965 -0.028235726 0.06871724 -0.09878366 -0.13351971 0.08196099 0.100797094 -0.0027567563
0.061350003 -0.020452838 -0.05559469 -0.004930014 0.068572186 -0.04331027 -0.0405491 0.08813401
-0.016303487 0.14506096 0.09195313 -0.05855818 0.00069566787 -0.0090194205 -0.07701152 0.08115357
0.14582913 -0.03293007 0.012956562 0.12533304 0.016776681 0.0062108864 0.015558961 -0.0007197305
-0.08134591 -0.07766566 -0.0035890178 -0.004481683 -0.114925645 -0.09439397 -0.053239986 -0.051437497
-0.021103527 -0.043851856 -0.09041813 -0.016237823 -0.09283775 -0.04644066 0.09948591 0.029974975
-0.03975973 -0.08985195 -0.044273484 -0.024671314 0.03583954 -0.048588865 0.052977543 0.04935034
-0.020759683 -0.021898413 0.13912198 -0.10653283 -0.075936384 -0.0029890584 -0.060524933 -0.06460467
0.03361117 0.018419836 0.019782329 0.015065281 -0.043708 0.13064629 0.016089965 -0.045740623
0.050739747 -0.03040987 -0.00036431942 -0.14113566 -0.09553487 -0.06490095 -0.073290676 0.10469479
0.015096687 -0.0024750812 -0.06520255 -0.010445031 -0.041924845 0.015189102 0.01921684 -0.0077007376
-0.008404263 0.012840613 0.1290844 -0.02686705 0.021107448 -0.012527037 -0.08755281 -0.17728828
0.019806487 0.030897964 -0.18177685 0.06613562 -0.018554261 -0.07519554 0.003758263 0.06187329
0.017742194 0.019037085 0.010517803 -0.06399191 0.012863749 0.020636242 0.04392583 -0.08986794
-0.008271755 0.05567182 0.13940628 -0.06272687 -0.11251483 0.1815774 -0.15194812 -0.035369724
0.036011454 0.01361379 -0.022887763 0.0800276 0.080726735 0.10049269 0.017129296 0.05390149
0.055042576 0.16886698 -0.039860647 0.011226098 0.034034893 0.080773905 0.010218281 -0.10586793
0.005129856 -0.05535816 0.20703906 0.0767045 -0.07251861 0.23712677 -0.09552417 -0.05247226
0.01655924 0.0018738752 -0.011379686 -0.029140579 0.23499952 -0.0962728 -0.035871837 0.0071574464
0.026413368 0.035603225 0.036096085 -0.014399449 -0.022873623 -0.020730117 -0.04588627 -0.013619535
0.006349545 0.018824311 -0.052883293 0.03846807 0.010682348 -0.06783229 -0.050689805 -0.03407799
-0.014184325 0.036839034 0.06640522 -0.1092567 -0.0096859345 -0.042169467 -0.11165915 -0.12296508
-0.06081198 -0.0045756404 0.103684165 -0.04779239 -0.09754962 -0.083319046 -0.07371337 0.15085423
0.007192202 -0.02700398 -0.051986918 0.10682741 0.101066075 0.018319706 0.07546976 -0.026216745
-0.049640365 -0.09513184 -0.02127256 0.06269712 -0.010010147 -0.030741856 0.01942465 -0.05469179
-0.061413582 0.120632075 0.08933605 0.0040624416 0.032686584 -0.08890439 -0.17138444 0.049959537
-0.030160317 0.049639035 -0.0735045 -0.041431773 0.015734345 -0.056298133 0.046398822 -0.1886734
0.043861844 0.11046312 -0.0015413495 0.08393807 0.032557897 0.010171931 0.030265257 -0.084754474
-0.0280689 0.06758464 -0.026361408 -0.04090555 0.20610973 -0.040016863 -0.009744999 0.0021181835
0.039007727 -0.024376905 0.03580103 0.005775639 -0.023139667 -0.034543294 -0.008623034 -0.040006433
0.008995603 0.011591156 0.00251951 -0.06094013 0.0966025 0.061506342 -0.0127438065 0.019441685
0.056471884 -0.067538224 0.0043339236 -0.027519327 0.008165867 -0.0046432093 -0.01221752 -0.032425314
00000000: dea9 873d 9c4e e7bc a0bb 8c3d 164f cabd
00000010: 64b9 08be 2adb a73d b56e ce3d b2aa 34bb
00000020: 244a 7b3d b68c a7bc 42b7 63bd f48b a1bb
00000030: 936f 8c3d 1c66 31bd d016 26bd 9b7f b43d
00000040: e48e 85bc dc8a 143e ec51 bc3d b4da 6fbd
00000050: 7b5d 363a 31c6 13bc 37b8 9dbd d833 a63d
00000060: 3b54 153e aee1 06bd c347 543c 4e57 003e
00000070: 406f 893c b184 cb3b 03eb 7e3c 4cac 3cba
00000080: af98 a6bd 2c0f 9fbd ba35 6bbb 15db 92bb
00000090: 235e ebbd a051 c1bd 2c12 5abd 20b0 52bd
000000a0: 4ee1 acbc 019e 33bd 242d b9bd 2f05 85bc
000000b0: b821 bebd 9038 3ebd 45bf cb3d 148e f53c
000000c0: 19db 22bd 4d04 b8bd 1d58 35bd 7f1b cabc
000000d0: 7bcc 123d 1e05 47bd fbfe 583d 9523 4a3d
000000e0: 3610 aabc 4d64 b3bc fe75 0e3e e22d dabd
000000f0: 8984 9bbd 14e4 43bb fee8 77bd 744f 84bd
00000100: deab 093d 32e5 963c 8d0e a23c 5ed4 763c
00000110: 2907 33bd 24c8 053e 1acf 833c 855a 3bbd
00000120: 7bd4 4f3d 1f1e f9bc 2002 bfb9 de85 10be
00000130: c9a7 c3bd caea 84bd 6c19 96bd 396a d63d
00000140: 1858 773c f934 22bb ea88 85bd a321 2bbc
00000150: 63b9 2bbd b6db 783c a26c 9d3c 7856 fcbb
00000160: 09b2 09bc 6f61 523c b32e 043e 4a18 dcbc
00000170: 87e9 ac3c 343e 4dbc e34e b3bd 0f8b 35be
00000180: 3741 a23c ba1d fd3c b623 3abe 1d72 873d
00000190: 1bff 97bc 1f00 9abd 314d 763b d96e 7d3d
000001a0: 1458 913c a9f3 9b3c dd52 2c3c 310e 83bd
000001b0: 79c2 523c 560d a93c 92eb 333d af0c b8bd
000001c0: 4186 07bc 2208 643d 85c0 0e3e f276 80bd
000001d0: 2d6e e6bd 6def 393e 4a98 1bbe d8df 10bd
000001e0: bf80 133d 600c 5f3c 1e7f bbbc 83e5 a33d
000001f0: 0f54 a53d 1dcf cd3d bd52 8c3c cfc7 5c3d
00000200: 5374 613d 77eb 2c3e eb44 23bd abed 373c
00000210: 2c68 0b3d ca6c a53d 946a 273c 49d1 d8bd
00000220: 5a18 a83b 3dbf 62bd 0c02 543e 4017 9d3d
00000230: a384 94bd 5cd1 723e 2da2 c3bd 27ed 56bd
00000240: 3ea7 873c d19c f53a dd71 3abc 39b8 eebc
00000250: b7a3 703e ac2a c5bd 59ee 12bd 0389 ea3b
00000260: d960 d83c b0d4 113d 7dd9 133d abeb 6bbc
00000270: 7761 bbbc 35d2 a9bc 3ef3 3bbd 7824 5fbc
00000280: d80f d03b 7135 9a3c 279c 58bd b290 1d3d
00000290: 0405 2f3c a8eb 8abd 1da0 4fbd 5d95 0bbd
000002a0: 5f65 68bc 87e4 163d 76ff 873d fac1 dfbd
000002b0: c1b1 1ebc e4b9 2cbd 8dad e4bd 1ed5 fbbd
000002c0: fc15 79bd 41ef 95bb 5d58 d43d f4c1 43bd
000002d0: 18c8 c7bd 2da3 aabd 09f7 96bd 8879 1a3e
000002e0: 90ac eb3b 7337 ddbc 3cf0 54bd 54c8 da3d
000002f0: bbfb ce3d 3513 963c e48f 9a3d 80c4 d6bc
00000300: b253 4bbd 7bd4 c2bd cb43 aebc 5967 803d
00000310: 9901 24bc 58d6 fbbc 7220 9f3c 8004 60bd
00000320: cf8c 7bbd f30d f73d d2f5 b63d 3b1e 853b
00000330: 5ee2 053d 8113 b6bd 677f 2fbe 5fa2 4c3d
00000340: c512 f7bc 4d52 4b3d 8789 96bd 5db4 29bd
00000350: 50e5 803c df98 66bd b10c 3e3d 9a33 41be
00000360: 7aa8 333d 7d3a e23d 1b07 caba b9e7 ab3d
00000370: 6e5b 053d 2ca8 263c d8ee f73c c193 adbd
00000380: c0f0 e5bc d169 8a3d e1f3 d7bc 948c 27bd
00000390: 6e0e 533e b9e8 23bd 7da9 1fbc 39d1 0a3b
000003a0: 91c6 1f3d 13b2 c7bc 1aa4 123d 9241 bd3b
000003b0: 668f bdbc 457d 0dbd a047 0dbc c9dd 23bd
000003c0: 4b62 133c d5e8 3d3c 5d1e 253b 5c9c 79bd
000003d0: 88d7 c53d 13ee 7b3d 66cb 50bc 2b44 9f3c
000003e0: 104f 673d 7b51 8abd 9603 8e3b 3670 e1bc
000003f0: 21ca 053c 1026 98bb fe2b 48bc 68d0 04bd

layers.1.fn.fn.proj_in.0.bias f4 [64]
0.28811035 0.0774468 0.19656236 -0.050610237 0.060838558 -0.0060839625 -0.13256752 0.10403626
-0.045881417 -0.06877 -0.10751627 0.0015283511 -0.09390699 0.064207785 0.098014265 0.0061001997
0.09876301 -0.019532807 -0.03489878 -0.0008312551 0.032238584 0.16281034 0.021804318 -0.10297351
0.02051369 0.087886274 -0.061931845 0.11273578 -0.016951993 -0.048971053 -0.08699208 0.033171516
-0.003972681 0.015953017 0.020584483 0.07795604 -0.019553335 -0.34553528 -0.055644624 -0.08765277
0.15658835 0.34933126 0.24377921 -0.10982524 -0.002161762 -0.045451496 -0.023728762 0.2856417
-0.06216997 -0.29452944 -0.08511117 -0.027886715 -0.31041315 -0.01844535 -0.08686489 -0.098879226
-0.073857725 -0.025286825 -0.011370814 0.026340988 -0.2157201 0.08792879 -0.0066680354 0.04226394
00000000: 3383 933e 6e9c 9e3d a547 493e ae4c 4fbd
00000010: da31 793d fa5b c7bb c8bf 07be f610 d53d
00000020: 27ee 3bbd 49d7 8cbd 7d31 dcbd f452 c83a
00000030: 4f52 c0bd 5f7f 833d b4bb c83d 2fe4 c73b
00000040: 4344 ca3d 4403 a0bc 06f2 0ebd 96e8 59ba
00000050: 9b0c 043d c1b7 263e f89e b23c c7e3 d2bd
00000060: 530c a83c b8fd b33d 3fac 7dbd 04e2 e63d
00000070: e8de 8abc df95 48bd e728 b2bd dbde 073d
00000080: 432d 82bb e7af 823c caa0 a83c 6ba7 9f3d
00000090: 512e a0bc 00ea b0be 9eeb 63bd 4c83 b3bd
000000a0: b258 203e 8cdb b23e 42a1 793e 0eec e0bd
000000b0: 59ac 0dbb 592b 3abd d262 c2bc a13f 923e
000000c0: f0a5 7ebd 90cc 96be c44e aebd ae72 e4bc
000000d0: 79ee 9ebe b41a 97bc 38e6 b1bd 3181 cabd
000000e0: b842 97bd 5126 cfbc a74c 3abc 0ec9 d73c
000000f0: bbe5 5cbe 0214 b43d 897f dabb f41c 2d3d

layers.1.fn.fn.sgu.norm.weight f4 [32]
0.21906203 0.29365858 0.21128112 0.21471933 0.24168804 0.105806135 0.28907073 0.18186727
0.0020819874 0.11517534 0.20321664 0.17533784 0.17381608 0.22205865 0.15250109 0.06283237
0.19972257 0.23093168 0.17440362 0.20616914 -0.005958064 0.23525152 0.260911 0.23014276
0.22401002 0.24156395 0.14873959 0.2572454 0.20695743 0.24711677 0.15760547 0.23969758
00000000: cc51 603e 6b5a 963e 145a 583e 62df 5b3e
00000010: 127d 773e e3b0 d83d 1401 943e 6a3b 3a3e
00000020: f471 083b 0ce1 eb3d 0618 503e c38b 333e
00000030: d8fc 313e 5863 633e 3f29 1c3e 42ae 803d
00000040: 1384 4c3e 5b79 6c3e dd96 323e 011e 533e
00000050: dd3b c3bb c6e5 703e 2096 853e 8baa 6b3e
00000060: e262 653e 8a5c 773e 314f 183e abb5 833e
00000070: a6ec 533e 2e0c 7d3e 5463 213e 4873 753e

layers.1.fn.fn.sgu.norm.bias f4 [32]
0.06470442 -0.035483796 0.046301555 0.054619987 -0.030346185 -0.021719186 -0.031267393 0.02547141
-0.059761044 0.09406347 -0.030523065 -0.028956005 -0.027109964 -0.04868561 -0.0025023548 -0.03214652
-0.063396074 -0.029315304 0.07704999 0.032105684 0.008291088 0.046886414 -0.028993996 0.012970598
0.022461416 0.01736189 -0.037139893 -0.032245643 0.04784729 0.016170751 -0.011111292 -0.04583317
00000000: c083 843d 7557 11bd b3a6 3d3d 35b9 5f3d
00000010: 9098 f8bc 6fec b1bc 3d12 00bd 6ba9 d03c
00000020: ffc7 74bd 59a4 c03d 820b fabc 2535 edbc
00000030: b715 debc 906a 47bd 8cfe 23bb 12ac 03bd
00000040: cdd5 81bd a626 f0bc 63cc 9d3d 4081 033d
00000050: 58d7 073c f80b 403d d184 edbc a282 543c
00000060: 0101 b83c 863a 8e3c 0020 18bd 0214 04bd
00000070: 85fb 433d 8678 843c 230c 36bc 90bb 3bbd

layers.1.fn.fn.sgu.proj.weight f4 [98, 98, 1]
0.1199352 0.12628439 0.0014340334 -0.106712565 -0.11971216 -0.07838505 -0.065493725 -0.1512797
-0.11166386 -0.17043914 -0.09896558 -0.09074808 0.002083194 -0.039893277 0.042253137 0.013871933
0.045431715 -0.014056881 0.039008312 -0.008944558 0.045370724 0.040102456 -0.0007208133 -0.034720454
-0.028157277 -0.040399455 -0.012457857 -0.049803223 -0.06249862 -0.08835052 -0.039399154 0.019476088
-0.0031630474 -0.076580055 0.04264138 -0.037354268 0.046126284 0.016878823 0.023832023 -0.07407947
0.019535402 0.06888409 0.028718874 0.036623776 0.027646922 0.08041931 0.05096057 0.12250272
0.046975352 0.066314645 -0.028047297 -0.03821784 -0.0010316218 0.042120818 0.024009831 0.01971244
0.008783589 -0.015159367 -0.085126385 -0.020282904 -0.04441578 -0.07581713 0.023098085 0.08896674
-0.004203534 -0.0049906555 0.039493427 0.029513255 -0.013717043 0.02113524 0.013261835 -0.028897705
-0.0539295 -0.062146336 -0.046092235 -0.07583422 -0.06378197 -0.014793906 -0.092440836 -0.11558552
-0.005990814 -0.019906232 0.05769501 -0.012519616 -0.06005698 -0.09701284 -0.087433286 -0.11191427
0.044686418 -0.0120478235 0.06633967 -0.02167023 0.01336368 0.014173722 0.016801681 -0.042346697
-0.006954498 -0.08279063 -0.037149712 -0.006967559 0.041663423 0.13689642 0.19552587 0.15507741
0.033651043 -0.02627101 -0.0044394173 -0.010145712 0.08521363 0.02483541 0.07946623 -0.0016134863
0.04961428 0.036846634 0.030907046 0.00906852 -0.070860736 -0.08473849 -0.021907989 0.0029308116
-0.031918213 -0.02698574 0.027921202 -0.012124728 0.022275465 0.021594597 0.02303492 -0.0045842216
-0.102650255 -0.054788724 -0.0481678 -0.06081657 -0.014854507 -0.041682314 -0.052311353 -0.04211104
-0.0008449229 0.032891 -0.031535856 -0.0542562 -0.091673315 -0.08105713 -0.11349734 -0.06622855
-0.05852798 -0.0006399976 -0.031030886 -0.104818456 -0.052680302 -0.034211334 -0.042659458 -0.056929484
-0.06456523 -0.08468381 -0.08056238 -0.10459353 -0.08888586 0.0018083919 -0.079063736 -0.070660435
-0.06991603 -0.022584625 -0.006584037 -0.003575829 -0.044088043 0.023280762 -0.040382676 0.04971902
0.08479564 0.015292938 0.06304375 0.046166576 0.11838856 0.028258221 0.04559525 0.033424564
-0.022700869 -0.08716557 0.0005144665 0.006360745 0.014843139 -0.10367822 -0.094650686 -0.10927929
-0.031341728 -0.03337398 -0.03744848 -0.03402373 0.010662143 -0.05976075 0.05048643 -0.034751654
-0.0055149803 -0.07382567 -0.010349431 -0.050979003 0.0154532045 0.038059976 0.10274648 0.10186187
0.099486336 0.093420036 0.0905188 0.15218534 0.04658237 0.0014739421 0.029508319 -0.12812904
0.014546213 -0.018080145 0.008072215 -0.057903036 -0.011379233 -0.027304895 -0.040114835 -0.09396318
-0.07186316 -0.05105076 -0.0328237 -0.1450757 0.022953682 -0.07999141 -0.07377282 -0.02646712
-0.013843551 -0.029688317 -0.045819405 0.023140581 -0.05468126 -0.0246753 -0.029751135 -0.034521557
-0.13235617 -0.07629044 -0.001583843 0.014463195 0.028273031 0.024188597 0.051531322 0.02372777
0.025977334 0.0018394603 0.008573121 0.047416493 0.036057428 -0.036717903 0.015864698 0.01073883
-0.00762541 0.051400796 0.006313567 0.046479773 -0.026443398 0.024602234 0.030301172 0.0031789877
00000000: 96a0 f53d b250 013e 2df6 bb3a 1e8c dabd
00000010: a62b f5bd 5788 a0bd 9321 86bd 11e9 1abe
00000020: 06b0 e4bd 9987 2ebe 77ae cabd 21da b9bd
00000030: 3286 083b 2267 23bd a011 2d3d 1b47 633c
00000040: 9b16 3a3d d54e 66bc 2ec7 1f3d 328c 12bc
00000050: a7d6 393d 7942 243d f6f4 3cba 0937 0ebd
00000060: 17aa e6bc e679 25bd 0a1c 4cbc 77fe 4bbd
00000070: 8efe 7fbd 1ef1 b4bd 0261 21bd 518c 9f3c
00000080: 214b 4fbb 01d6 9cbd baa8 2e3d ca00 19bd
00000090: eaee 3c3d 7545 8a3c 603b c33c fab6 97bd
000000a0: b508 a03c 1a13 8d3d d843 eb3c d002 163d
000000b0: cc7b e23c e1b2 a43d 08bc 503d b5e2 fa3d
000000c0: 3a69 403d f9cf 873d 72c3 e5bc 4f8a 1cbd
000000d0: 7c37 87ba e186 2c3d 44b0 c43c fc7b a13c
000000e0: 0be9 0f3c fe5e 78bc be56 aebd 5528 a6bc
000000f0: 52ed 35bd 0346 9bbd 3238 bd3c 3234 b63d
00000100: cdbd 89bb a788 a3bb dcc3 213d c8c5 f13c
00000110: 73bd 60bc d023 ad3c 2b48 593c e1ba ecbc
00000120: 2ee5 5cbd 288d 7ebd 36cb 3cbd f94e 9bbd
00000130: 1fa0 82bd 2462 72bc 9f51 bdbd 1ab8 ecbd
00000140: 974e c4bb 6512 a3bc 9a51 6c3d 131f 4dbc
00000150: 4ffe 75bd abae c6bd 3910 b3bd 4f33 e5bd
00000160: 1b09 373d 3c64 45bc 18dd 873d c485 b1bc
00000170: 56f3 5a3c e638 683c aea3 893c bb73 2dbd
00000180: 8fe2 e3bb 228e a9bd 4c2a 18bd 1f50 e4bb
00000190: 44a7 2a3d 932e 0c3e ef37 483e 9dcc 1e3e
000001a0: add5 093d 4d36 d7bc 8878 91bb 333a 26bc
000001b0: 7c84 ae3d a173 cb3c 31bf a23d 9e7b d3ba
000001c0: 5838 4b3d 7fec 163d c630 fd3c 2194 143c
000001d0: 6f1f 91bd 608b adbd 6278 b3bc dc12 403b
000001e0: acbc 02bd 3311 ddbc 01bb e43c cca6 46bc
000001f0: 097b b63c 27e7 b03c bbb3 bc3c 3d37 96bb
00000200: 4c3a d2bd 246a 60bd 994b 45bd cc1a 79bd
00000210: 5160 73bc 13bb 2abd 6e44 56bd a07c 2cbd
00000220: d17d 5dba b7b8 063d be2b 01bd c03b 5ebd
00000230: 38bf bbbd 4801 a6bd 4b71 e8bd d6a2 87bd
00000240: 09bb 6fbd 83c5 27ba 7c34 febc 0fab d6bd
00000250: 4dc7 57bd 2f21 0cbd afbb 2ebd e42e 69bd
00000260: c63a 84bd b56e adbd e4fd a4bd 2235 d6bd
00000270: ca09 b6bd 9007 ed3a 2bec a1bd 6bb6 90bd
00000280: 2330 8fbd 6403 b9bc e8be d7bb 7558 6abb
00000290: aa95 34bd 4cb7 be3c 4e68 25bd 2ca6 4b3d
000002a0: 56a9 ad3d 3b8f 7a3c 151d 813d 2a19 3d3d
000002b0: b475 f23d c97d e73c 16c2 3a3d 32e8 083d
000002c0: 2cf7 b9bc dd83 b2bd 43dd 063a cc6d d03b
000002d0: a330 733c 3f55 d4bd 38d8 c1bd d2cd dfbd
000002e0: 2f60 00bd 28b3 08bd 9463 19bd 775c 0bbd
000002f0: 45b0 2e3c b0c7 74bd dcca 4e3d c057 0ebd
00000300: 02b7 b4bb ea31 97bd a990 29bc 5ccf 50bd
00000310: 702f 7d3c c7e4 1b3d bf6c d23d f59c d03d
00000320: 7ebf cb3d 0153 bf3d ec61 b93d 79d6 1b3e
00000330: 28cd 3e3d 4a31 c13a 6ebb f13c 4234 03be
00000340: 3d53 6e3c d01c 94bc 5341 043c bc2b 6dbd
00000350: f66f 3abc 84ae dfbc 744f 24bd c56f c0bd
00000360: fe2c 93bd 9a1a 51bd 2572 06bd b98e 14be
00000370: 5c09 bc3c 89d2 a3bd 3416 97bd 93d1 d8bc
00000380: 10d0 62bc ea34 f3bc 21ad 3bbd 5191 bd3c
00000390: 75f9 5fbd db23 cabc a7b8 f3bc 7a66 0dbd
000003a0: 6088 07be 2a3e 9cbd f498 cfba 09f7 6c3c
000003b0: d89c e73c 2a27 c63c 8212 533d be60 c23c
000003c0: 6bce d43c 0c1a f13a 4776 0c3c cc37 423d
000003d0: f4b0 133d 8365 16bd aff6 813c ebf1 2f3c
000003e0: 93de f9bb a489 523d 0ae2 ce3b 9361 3e3d
000003f0: d39f d8bc a08a c93c 2a3a f83c 9056 503b
